runs/abrupt/egp/seed_1/online_stream_model.pth (torch, 535757 bytes, 8 tensors)

network.0.weight f4 [256, 2]
000000 d7 6c 69 3d 2a 8c 4d 40 3e bf 67 3e 97 fb a0 3f
       0.056988563 3.21168 0.22631547 1.2576779
000010 1c 10 6a be 61 26 f4 3e f4 44 01 3e ab 47 e2 be
       -0.22857708 0.4768553 0.1262396 -0.44195303
000020 a0 84 bf 3d fa d2 a9 bf f5 17 2c 3e b1 3f e6 bf
       0.09351468 -1.326751 0.16806014 -1.7988187
000030 0b 81 c8 3d 83 f7 cd bf b1 58 9d bc cc 33 dc bf
       0.09790238 -1.609116 -0.01920733 -1.7203307
000040 41 e2 b7 3d ae 3f e2 bf 40 8d 0a 3d e8 7a e7 3d
       0.089787014 -1.7675683 0.033826113 0.113027394
000050 8a c7 0d bf 87 8e 39 bd 1c b4 14 3c 24 45 2d c0
       -0.553826 -0.04530194 0.009076145 -2.707345
000060 be 0f c0 3e e9 50 34 3f 32 e9 93 3e e5 8c 2f bf
       0.3751201 0.7043596 0.2888885 -0.68574363
000070 70 ab 77 3e b3 bd 22 3f 8a 2b a2 3a c8 d6 9e bf
       0.24186492 0.6357071 0.0012372595 -1.2409296
000080 30 38 7c 3d 67 ae 22 3f 06 32 c8 be 5a 29 69 bd
       0.061577022 0.63547367 -0.39100665 -0.0569242
000090 cc fb 7b 3e b9 c3 d3 be 95 e4 10 3e b8 aa ba bf
       0.24607772 -0.41360262 0.14149697 -1.4583349
0000a0 5d 6c 54 be 0d 15 85 bf 90 2b 4c 3e d4 75 62 be
       -0.20744462 -1.0397049 0.19938493 -0.2211526
0000b0 c8 07 f7 bd 74 a9 72 be b8 0a dc 3d bb 39 25 3e
       -0.12062031 -0.23697454 0.10744232 0.16135304
0000c0 c3 4c 1d 3e f0 30 36 40 8c 9e 82 3e c0 54 3f be
       0.15361314 2.846737 0.25511587 -0.18684673
0000d0 08 73 82 bd 87 e6 12 c0 e3 30 f7 3d 3f 80 d4 bf
       -0.06369597 -2.2953203 0.12069871 -1.6601638
0000e0 4c 04 30 3f 4f d7 99 3e 4d dd c0 3d 1d 08 e8 3f
       0.68756557 0.3004708 0.0941721 1.8127476
0000f0 e9 f8 05 bf 08 2b 79 bd 3c 19 6b be eb 5b 11 3f
       -0.5233293 -0.060832053 -0.22958845 0.5678088
000100 36 e3 3a be 0c 1f cd 3f 5d 4a 31 3f e9 74 fa be
       -0.18250737 1.60251 0.69254094 -0.4891732
000110 96 fd ca be 60 90 dc 3d 52 2e 47 3f d1 b3 d8 3f
       -0.39646596 0.10769725 0.77805054 1.6929876
000120 f7 90 2d 3f 58 5a a0 3f 48 03 fe be ea 85 cd bf
       0.67799324 1.2527571 -0.49611878 -1.6056492
000130 56 4c 83 bd a2 a4 ea bf d0 3e 65 bd 14 71 0d c0
       -0.06411044 -1.8331492 -0.055968106 -2.2100267
000140 83 f9 18 3f 8a 43 05 40 90 1c e2 bd d6 c7 e1 3e
       0.59755725 2.0822473 -0.11040604 0.44097775
000150 3e bc 45 be c2 71 fa bf 5e 13 cc 3e dc 37 00 be
       -0.1931009 -1.9565966 0.39858526 -0.12521309
000160 33 6e b6 3e a2 33 a5 3f a3 38 c4 3d 47 92 c9 bf
       0.3563095 1.2906382 0.09581115 -1.5747765
000170 e3 ec 79 be 4a 48 29 bf f6 fd bb be e2 7c ac 3e
       -0.24406771 -0.6612593 -0.36717194 0.33689028
000180 76 34 0d 3d 3f c7 ea bf 6c e1 13 bd 56 48 09 c0
       0.03447386 -1.8342055 -0.03610365 -2.14504
000190 5d 09 ef 3e 32 4e f1 3f cd 8c 1e 3f 72 b0 34 bf
       0.4668683 1.8851988 0.61933595 -0.70581734
0001a0 02 7e ed 3e 27 91 93 3f 37 cb 13 3f f6 58 15 c0
       0.463852 1.1528672 0.57731956 -2.3335547
0001b0 84 cf 7c bd 12 b1 ff bf df f8 bd 3e 7f 3d 94 bf
       -0.06172134 -1.9975913 0.37103936 -1.1581267
0001c0 5f bb e1 3d 7e 08 42 bf d5 31 1e 3e d3 67 6a 3f
       0.11022066 -0.7579421 0.15448697 0.91564673
0001d0 0e 6d 96 3e 11 3b d2 be f9 c8 23 bd f9 f5 e0 3f
       0.29380077 -0.4106069 -0.039986584 1.7575065
0001e0 56 42 4c be 36 9c 70 bd 96 7a e6 3e 29 10 a9 be
       -0.1994718 -0.058742724 0.450154 -0.33020142
0001f0 6b cc aa 3e 68 9f 9d 3f 30 7b 9a 3e 15 2f 83 40
       0.33359084 1.2314272 0.3017211 4.0994973
000200 a2 5a ac 3e d0 bb 2b bf 39 4e 45 3f 32 da 58 3f
       0.33662897 -0.67083454 0.77072483 0.8470794
000210 d8 f5 08 3e f0 ce fa bf ab 6f 20 3f 86 37 5c be
       0.13375032 -1.9594402 0.6267039 -0.21505556
000220 98 e0 af be 09 98 32 c0 f2 b6 d9 bd 48 6d 69 c0
       -0.3435104 -2.7905295 -0.10630597 -3.647295
000230 93 9b 02 3e 9d 1f 22 3d fa 5c cc 3d 7b 1b 29 c0
       0.1275466 0.03958093 0.09978671 -2.6423023
000240 a7 95 ca be 47 64 34 c0 8b e1 a2 3e 98 06 64 bf
       -0.395673 -2.8186204 0.318127 -0.8907256
000250 ac d4 36 be b2 9e 4b 3d 78 0e 02 3f 7e 9b a6 3f
       -0.17854565 0.04971189 0.5080333 1.3016202
000260 f0 7b f3 3b ce c9 bf 3f cc 55 5a 3d f2 13 bb 3f
       0.007430546 1.4983461 0.05330448 1.4615462
000270 76 28 ad 3d 7d 45 e8 bf ff f8 35 bd 36 45 af 3f
       0.08454983 -1.8146206 -0.044426914 1.3692997
000280 22 93 29 bc 57 65 97 be 8f db 43 3e 3d d8 a5 bf
       -0.010350021 -0.29569504 0.19126724 -1.2956616
000290 c3 40 2f 3f e3 3e fa 3f 12 07 0e 3c 3d 78 44 c0
       0.68458194 1.9550442 0.008668678 -3.0698388
0002a0 3b 44 9c 3e 05 ff 92 3f f0 1e 1b be a9 6e 32 c0
       0.30520806 1.1484076 -0.1514852 -2.7880042
0002b0 99 44 da bd 41 41 5d c0 41 7e 11 3f 43 b8 71 bf
       -0.10657615 -3.4571078 0.56833273 -0.94421786
0002c0 12 de e5 3e 4c 30 14 bf f0 15 ac 3d 9c ba c0 3f
       0.4489599 -0.57886195 0.08402622 1.5056949
0002d0 12 1b f3 3e ca 9f c3 be c3 77 1d 3f 2f d2 25 bf
       0.4748159 -0.38207847 0.61510867 -0.6477384
0002e0 81 26 3b be a4 c7 8a 3f 53 42 8c bd 59 c1 df 3f
       -0.18276407 1.0842175 -0.06848588 1.748088
0002f0 09 e8 48 3c d9 c1 b6 bf c0 47 04 3c c8 dc b3 be
       0.012262353 -1.4277908 0.008073747 -0.3512938
000300 a9 61 8e 3e 0d 33 a6 3f d6 09 c5 3e 2d c5 82 be
       0.27808884 1.298433 0.38484067 -0.25541058
000310 e9 64 88 3d 74 5c 47 c0 62 25 5c 3e b4 2f af 3f
       0.06659872 -3.115018 0.21498635 1.3686433
000320 08 89 9f 3d c0 c9 20 3d 3e 57 4d 3b 11 93 cc bf
       0.077898085 0.039254904 0.0031332518 -1.5982381
000330 69 09 33 3f 3b 85 ab be 64 3f cb 3d ac 37 4a c0
       0.69936234 -0.33500084 0.099242 -3.159648
000340 c0 96 b6 3e a4 e4 c7 bf 8b ef 9e be cb 74 03 3f
       0.35661888 -1.561665 -0.31042132 0.51350087
000350 0d 27 fc bc 1b c7 77 40 13 57 3c bd 95 95 02 bf
       -0.03078034 3.8715274 -0.045981478 -0.51009494
000360 a0 56 f4 bd a5 35 16 3f 73 24 f0 3e cc 67 00 3f
       -0.11930585 0.58675605 0.4690281 0.5015838
000370 31 b9 02 3f 90 86 96 3f 72 84 c7 3e 94 0b 7a 40
       0.5106383 1.1759815 0.38968235 3.9069567
000380 a0 29 d5 3d da cf ec be bc 5a 53 3e 41 13 21 3f
       0.1040833 -0.46252328 0.20640081 0.62920004
000390 34 39 2e 3e 99 8b ee be ca ec 06 3d 73 38 f7 bf
       0.17014009 -0.4659088 0.032940663 -1.9314102
0003a0 b7 96 bd bd 51 25 67 3f 04 39 8c bd 50 95 00 c0
       -0.09257262 0.90291315 -0.06846812 -2.0091133
0003b0 e6 89 d1 3e 20 93 88 bd 08 41 0e be b6 b4 af 3e
       0.4092552 -0.06668687 -0.13891995 0.3431756
0003c0 9e 89 8d be 56 2b 25 3d 00 01 be 3d 3a a8 df 3f
       -0.27644056 0.04032453 0.092775345 1.7473214
0003d0 97 6d d8 3e 0f 56 37 bf b8 94 a0 3d 3c 30 10 3e
       0.4227111 -0.7161569 0.07840866 0.140809
0003e0 9f cc f4 bc e4 8b ed 3f e4 a5 34 3e 26 d2 9d 3e
       -0.029882727 1.8558316 0.17641407 0.30824393
0003f0 78 0e bc 3d f6 50 b9 3e 29 91 0b bf a5 84 c5 3f
       0.09182447 0.3619458 -0.5451837 1.5431105

network.0.bias f4 [256]
000000 45 0b a1 3c aa 66 9d 3d f8 b0 37 be 8b 77 87 be
       0.019658694 0.07685597 -0.17938602 -0.26458392
000010 bc cb 2a 3d f3 ae 1e 3e b0 be 37 3d 70 0e 81 3d
       0.041698202 0.15496425 0.04485959 0.06301582
000020 b8 9a f8 3d 70 a0 e3 bd a9 03 2c bf 1a c4 a2 bc
       0.12138885 -0.111145854 -0.67193085 -0.0198689
000030 b8 02 b7 be 75 76 cf be 70 1d 38 be 03 91 5d 3d
       -0.35744262 -0.40520063 -0.1797998 0.054093372
000040 4a 1a 8a be 37 53 a1 be 43 ba 0a bf e3 c2 17 3e
       -0.26973182 -0.315088 -0.5419046 0.14820437
000050 a3 48 29 be de b2 2d bf 24 82 9e be 12 05 af bd
       -0.16531615 -0.67851055 -0.30958664 -0.08545889
000060 0b 86 8b bd 20 33 ac be f3 7b a3 3d ec 80 5f 3d
       -0.06812676 -0.33632755 0.07982626 0.05456631
000070 f6 a7 c5 be dd b8 0b bd 76 5c b6 be 8f 49 d9 be
       -0.38604707 -0.034111846 -0.35617417 -0.42438933
000080 7c 55 21 be 53 60 21 bc d8 40 13 bf 87 ca 16 be
       -0.15755266 -0.009849626 -0.5752082 -0.14725696
000090 56 bb e4 bd 58 a1 a5 be c9 3a 74 3d 17 dd 9d 3d
       -0.11168544 -0.32349658 0.059626374 0.07708185
0000a0 f5 5f 1b be 7f 41 a6 be 2e 87 20 be 44 6a e9 be
       -0.15173323 -0.32471845 -0.15676567 -0.45588887
0000b0 cf 52 3c 3e 34 39 2b 3d 5b 87 4c be 29 ba e1 be
       0.18390964 0.0418026 -0.19973509 -0.4408734
0000c0 bf bc be 3d 51 ff 9d 3d 61 8c 25 3e 79 7d d8 be
       0.09313344 0.07714713 0.16166832 -0.42283228
0000d0 34 57 c3 3d 76 5c 9c 3e 4b 34 2f bd a5 4a 51 3d
       0.09538117 0.30539292 -0.04277448 0.051096577
0000e0 ee f4 6b 3d fe 91 5c 3d 3c 02 31 bf 01 5f a4 bd
       0.05760663 0.053850166 -0.69144034 -0.08025933
0000f0 84 9b 8d be e8 79 03 bf f7 67 df 3d 23 b8 ee bd
       -0.27657712 -0.5135789 0.109085016 -0.11656215
000100 d4 61 5e be 68 6f 75 3e af 51 76 3d 69 54 ee be
       -0.21717006 0.2396828 0.060136493 -0.46548775
000110 9c 54 98 be 0a 97 fc bd f4 c1 89 bd eb 8e 27 3e
       -0.29752052 -0.12333496 -0.06726447 0.16363113
000120 9c 6b ac be 46 c7 6f 3d de 5c 69 be a3 8c 84 3e
       -0.3367585 0.05853965 -0.22789332 0.25888547
000130 03 40 fb 3b 68 5a 7e 3d be 7d 89 3d fc 28 61 bd
       0.007667543 0.062097937 0.067134365 -0.054970726
000140 c5 86 f4 bc bf 10 c5 3d c4 52 2f be 43 69 e4 bc
       -0.02984942 0.09622335 -0.17121416 -0.027882224
000150 a2 a4 2d 3e 40 f3 0d be fc dc cb bd 8d ea 8d 3e
       0.16957334 -0.13862324 -0.09954259 0.2771801
000160 34 13 22 bf ad 37 fc bc 7c 64 0a bf f7 dd a5 3e
       -0.6331055 -0.030788267 -0.54059577 0.32395908
000170 e4 66 18 be 58 82 c1 bd 3a 63 84 3d e7 36 fe be
       -0.14883 -0.09448689 0.064642385 -0.49651262
000180 c9 2d 1b 3e c7 ae 13 bf 96 47 0e 3c c5 cb fd 3d
       0.15154184 -0.57688564 0.00868406 0.123923816
000190 62 8c 15 bf 9a 6d 88 3d 8e b5 25 bf 61 e3 c4 3c
       -0.5841733 0.0666153 -0.64730155 0.024034204
0001a0 e6 f4 81 3e 68 1a 0f bf 18 fe d4 bd 07 2e b3 bd
       0.25382155 -0.5589967 -0.10400027 -0.087490134
0001b0 8f 97 2a bf ce 66 7b 3e 47 f9 24 3e 5f 36 ff bd
       -0.6663751 0.24550936 0.16110717 -0.12461542
0001c0 d0 52 a4 bd 3f c7 02 bf 9e 9c f7 be b2 89 cd 3d
       -0.08023608 -0.51085275 -0.48361677 0.10036029
0001d0 c2 15 9c bd e9 c6 84 3d 2a 1d 71 be ea 3b 00 bf
       -0.076213375 0.064832516 -0.23546281 -0.5009142
0001e0 f8 24 ad be d7 d9 20 bd 07 df 81 3e f9 89 0d bf
       -0.33817267 -0.03927025 0.2536547 -0.55288655
0001f0 c3 a5 aa bd 30 f1 14 be 58 8d 94 bd 6a bc b9 be
       -0.08332398 -0.1454513 -0.07253522 -0.3627656
000200 f2 61 01 bf b6 70 90 be 4c 8e 11 be 28 c9 7f be
       -0.5054008 -0.28210992 -0.14214438 -0.24979079
000210 e3 2a 2d bf 18 e2 22 be df 8d 88 be 06 16 ed bd
       -0.67643565 -0.1590656 -0.2667074 -0.11576466
000220 e3 ab ff 3c d4 90 e2 3d 61 76 bc 3e 30 03 48 be
       0.031209892 0.1106278 0.36809066 -0.19532466
000230 a4 82 e9 be 7b 87 9a be c6 aa 7b be 06 77 f5 be
       -0.45607483 -0.30181488 -0.24576864 -0.4794237
000240 65 12 aa be 6e f9 83 3d 53 f3 20 3c 3b 61 1c bf
       -0.3321716 0.06444059 0.009823638 -0.6108586
000250 aa 0e 15 bf cf 6e 81 be 63 5e 70 3d 7f 7a 29 be
       -0.582255 -0.25279853 0.058683764 -0.16550635
000260 90 de a6 be 72 3c 96 bc 89 9d 94 3d f1 76 f2 bd
       -0.32591677 -0.01833937 0.0725661 -0.118390925
000270 67 f8 38 3d 2e 3e 80 3e 2e 32 29 bf 9c 75 03 be
       0.04515877 0.2504744 -0.66092193 -0.12837833
000280 29 93 56 3d b6 89 df bd 07 30 2a 3e 97 e1 b0 bc
       0.052386437 -0.10914938 0.16619883 -0.021591945
000290 88 6c 83 3d 4e ed e9 be 1c ce 93 bd 79 16 9e 3c
       0.06417185 -0.45688862 -0.072170466 0.019297825
0002a0 9d 5b 8d 3b 06 bf 69 3e 44 05 98 be 22 72 f8 be
       0.0043138997 0.22826776 -0.29691517 -0.48524576
0002b0 8a 7e 98 3d aa 54 26 bf b0 13 e3 be 35 b0 de 3d
       0.074460104 -0.6497294 -0.44350958 0.108734526
0002c0 8b 50 66 3e fc fd 1a be 4e 08 15 bf 07 18 f0 3d
       0.22491662 -0.1513595 -0.58215797 0.11723333
0002d0 0c 35 72 3e f3 57 97 be 5f 92 09 bf 1a 47 6f be
       0.23653048 -0.29559287 -0.5373897 -0.23366967
0002e0 c6 f5 22 bf d3 b4 7d 3c f4 6e b0 be 5f 41 b9 3d
       -0.6365627 0.015485006 -0.3445965 0.09045672
0002f0 c0 86 51 be 3c 27 dc 3d 31 e1 f1 bd aa d1 95 3d
       -0.2046156 0.10749671 -0.1181053 0.07315381
000300 0c 59 82 3e d4 1c 95 3d 54 99 8b 3d 2f 2c a8 bd
       0.25458562 0.07280889 0.068163544 -0.08211552
000310 b2 34 8c be 49 5d 54 be fc 0e d6 be 20 18 2c bf
       -0.27383953 -0.2073871 -0.41808307 -0.6722431
000320 d6 23 5e 3d 57 5d 3e bd e2 1b 98 bd 53 2f 9e be
       0.054233395 -0.046475735 -0.07427193 -0.3089548
000330 34 d5 ab 3c 01 77 7c 3d 92 d6 50 be d2 7c 4c bc
       0.020975687 0.06163693 -0.20394352 -0.012480931
000340 a3 c9 e3 be 34 63 0b be 78 b9 fd bd 1d 50 a0 be
       -0.44489774 -0.13612062 -0.12388891 -0.31311122
000350 d3 7e ea bd 94 ba ca be 94 f3 a7 3d 31 d2 77 be
       -0.11449971 -0.39595473 0.08200756 -0.24201275
000360 23 a9 34 3e 82 88 32 bf 9d 44 48 be 7c 0e 2e be
       0.17642646 -0.69739544 -0.19557424 -0.16997713
000370 a1 b8 6b 3e 8a f2 d8 3c 45 51 b2 bd de 17 94 be
       0.23019649 0.02648284 -0.08706907 -0.2892446
000380 b2 c7 4c be 68 7e d5 bd 0f 1c 0d bd e2 91 19 bf
       -0.19998053 -0.10424501 -0.034450587 -0.59988225
000390 e3 4c 30 be c2 74 90 3d 4f 53 1c bf 80 ab da be
       -0.1721683 0.0705352 -0.6106462 -0.4270897
0003a0 a6 d4 ae bd 9e 2a af be 45 b2 ae be a3 4c e1 bd
       -0.08536653 -0.34212202 -0.34120384 -0.110009454
0003b0 37 cf d6 3d de 04 ed bd 2b bd 3f 3d b4 c4 16 bf
       0.10488742 -0.11573194 0.046811264 -0.58893895
0003c0 dc 53 2f bf 4c ea 12 be 2a 85 1d bd d1 0c d7 bd
       -0.68487334 -0.1434719 -0.038457073 -0.105004914
0003d0 aa 69 52 3d 23 a4 05 3e 2e 0c 35 bd 37 f2 08 3e
       0.0513703 0.13050894 -0.04420107 0.13373648
0003e0 34 81 10 bf ac 2e 8e 3d be 63 23 bf b7 2a 87 be
       -0.5644715 0.06942496 -0.6382407 -0.26399776
0003f0 ff d7 e4 be 42 8e 91 3e 10 6b 95 be 58 17 87 be
       -0.44696042 0.28428847 -0.29183245 -0.26384997

network.3.weight f4 [256, 256]
000000 29 41 a8 bc 36 69 13 bd 61 f5 be bc 4e e5 0a 3d
       -0.020538883 -0.03598901 -0.023310365 0.03391009
000010 ad df 9d bd a0 10 ec bd 50 1b dc bd 23 ca 60 bc
       -0.077086784 -0.115266085 -0.10747397 -0.013720068
000020 f0 de 33 bc a8 12 7b 3c 2c 23 f3 3c f8 34 d6 bd
       -0.010978445 0.015324272 0.029679857 -0.10459322
000030 16 4d 32 3d ba d0 41 3d 68 c0 ca bc 9b d7 cb bc
       0.043530546 0.047318198 -0.02474995 -0.024883082
000040 06 ec 21 3d c0 56 cd 3c 88 5c 4e 3c 64 13 86 39
       0.03953173 0.02506578 0.012595303 0.0002557292
000050 35 10 64 3d c6 82 27 bd e4 26 e5 bc d0 1a 86 3b
       0.05567952 -0.0408962 -0.027972646 0.004092552
000060 84 86 7c bd c4 f4 46 bd 31 e3 42 bc 18 77 38 bd
       -0.06165172 -0.04857327 -0.011894987 -0.04503545
000070 d8 63 30 3c 46 5a aa bb 41 17 c2 bd f4 17 2b 3d
       0.010765992 -0.0051987497 -0.094770916 0.04177089
000080 35 fd 7d bb 63 2e 42 bd e0 41 76 bd f8 3a 71 3c
       -0.003875566 -0.04740752 -0.060121417 0.014723532
000090 b4 01 95 bc ad 5b 2d bd 9d 94 82 bd c1 e1 76 3c
       -0.018189289 -0.042323757 -0.06376002 0.015068472
0000a0 f4 d3 e4 bc c0 4d 64 3b c8 d1 d7 ba e4 ab d6 bc
       -0.027933098 0.0034836382 -0.0016465718 -0.02620501
0000b0 47 7e 87 bd 84 99 af bd 70 7d 9a 3b 00 20 04 3d
       -0.06615882 -0.08574203 0.0047146603 0.03225708
0000c0 6f 91 33 3c 23 95 af 3a bd cb 37 3c ec bf e0 3c
       0.010959967 0.0013395887 0.011218009 0.027435265
0000d0 e0 5c 15 bd d1 3c 0f bd b8 3a 69 3c ff 08 55 bc
       -0.036465526 -0.03497011 0.014235191 -0.013002633
0000e0 60 76 71 3c d5 e1 57 3d 4c 1d 66 bd f1 5e 8e bd
       0.014737695 0.052705605 -0.056180283 -0.069517024
0000f0 d4 7c 5e 3d 38 be 18 bd 40 be 53 3c f8 3d 31 3c
       0.054318264 -0.03729078 0.012923777 0.010817997
000100 48 2c 0f 3c fa f7 a1 bd 49 c0 86 bc 74 c1 5a 3d
       0.008738585 -0.07908626 -0.01644911 0.053407148
000110 32 6e 3c bd c3 e8 05 bb b8 5f ad 3c 45 49 00 3d
       -0.046003528 -0.0020432926 0.021163806 0.031319875
000120 e9 45 e6 bc bc 2b 6b bd c4 20 8b bd 83 a3 83 bd
       -0.028109508 -0.057414755 -0.06793359 -0.06427672
000130 04 e4 8b 3c c5 07 85 bc 89 3f 51 bd 4a 2e 9d bc
       0.0170765 -0.016239056 -0.051085982 -0.019187111
000140 15 c0 96 bd 44 e4 42 bd c0 63 c8 ba c1 aa 86 bd
       -0.073608555 -0.047580972 -0.0015288517 -0.065755375
000150 7f ae b6 bc ae 27 86 bd db a3 91 3c a7 0b de ba
       -0.022300003 -0.06550537 0.017778328 -0.0016940729
000160 50 d1 85 3b 91 32 b2 bc 80 3d b0 3b 90 0d f4 bc
       0.00408379 -0.021752628 0.005378425 -0.029791623
000170 fc 8d 4e 3c 09 9b a1 bd c6 c5 ad bd 8c ca fe bc
       0.012607094 -0.07890899 -0.08484988 -0.031102441
000180 6a 56 64 bd 04 ed 5c bd 39 5c 48 bd 80 ae 57 bc
       -0.055746473 -0.053936973 -0.048916075 -0.013164163
000190 3c 63 59 3d 90 37 9e 3b 20 8d 9b bc d9 7a c4 bd
       0.053073153 0.004828401 -0.018988192 -0.09593744
0001a0 06 e3 7e bd 60 8f 6c 3d 2d eb ad bd ac 20 4c bd
       -0.062228225 0.05775392 -0.08492122 -0.049835846
0001b0 78 8a 84 bc cf 1a 86 bd d2 93 19 bc 0a c0 41 bc
       -0.016179308 -0.06548082 -0.009373622 -0.011825571
0001c0 90 7b e4 3c 70 b4 c7 3c dc 90 50 bd 4b b7 9e bd
       0.02789095 0.024378031 -0.0509194 -0.07749804
0001d0 1d 56 84 bd 81 64 f5 bd 4c 91 3a bd 38 26 27 bc
       -0.06461737 -0.1198206 -0.045548722 -0.010201983
0001e0 f0 41 ff 3c 23 31 75 bd 53 24 d9 bd 5e 3f 3b 3d
       0.031159371 -0.059861314 -0.106026314 0.04571473
0001f0 da 8d 81 bd 00 bb be bc e0 d2 33 3d 9b aa 2f bd
       -0.06325884 -0.023282528 0.043902278 -0.04288731
000200 9c 94 d6 bc b0 d5 87 bc c6 47 7a 3d 4a 21 3f 3d
       -0.02619391 -0.016581386 0.061103605 0.046662606
000210 64 8f b7 3c 64 b4 7e bd 75 58 64 bd 7b 12 a0 bd
       0.022407241 -0.062183753 -0.05574842 -0.07816025
000220 b8 d6 38 bc 1e e5 d6 3c 43 02 d1 3c 4c 0b 9a 3c
       -0.011281662 0.026232298 0.025513774 0.018804215
000230 38 96 85 3c 3b 8a cf bd 8c 20 0d 3d a8 94 c6 3c
       0.016306981 -0.10133787 0.034454867 0.024240807
000240 9b ce 7d bb 35 1b ae bd c0 9a c2 bd f0 ef fe 3c
       -0.0038727883 -0.08501283 -0.095021725 0.03112027
000250 24 fb 61 3d a8 f0 1f bd 0a 66 e7 bb 35 d5 13 3d
       0.055171147 -0.039047867 -0.0070617246 0.036092002
000260 76 91 10 bd cf a8 48 bd 1c ec 85 3d ba ca 87 bd
       -0.035294972 -0.048989113 0.06539175 -0.06630464
000270 c7 ab 91 bd 70 c2 e9 bc 78 29 13 bd 96 cb f2 3b
       -0.07112842 -0.028535098 -0.03592822 0.0074095232
000280 a9 ea 83 bc 84 4f 0c ba db 64 f2 bc 3d 04 3d bc
       -0.016103106 -0.0005352425 -0.029589107 -0.011536655
000290 a3 55 06 3d 10 eb b1 bc 96 a9 bd bd 3a a9 c2 bd
       0.032796513 -0.021718532 -0.092608616 -0.09504934
0002a0 d1 2e 57 bd 17 85 aa bd 20 ef 83 3c b0 58 37 3d
       -0.052534882 -0.08326166 0.016105235 0.044762313
0002b0 4d ab 00 bd 74 13 95 3c 00 68 ac b9 2b 2a 1d 3c
       -0.031413365 0.018197753 -0.00032883883 0.009592573
0002c0 80 c8 33 bd 70 2e 52 bd ba 38 41 bd 53 98 fe bc
       -0.043892384 -0.051313818 -0.04717324 -0.031078493
0002d0 d7 17 08 bd e4 fb b6 3c 10 fd c1 3b c4 03 10 bd
       -0.03322586 0.022336908 0.00592006 -0.03515984
0002e0 18 b1 0b 3d 0a 18 ae 3c 8e 9c 8f 3b 27 48 01 3b
       0.034104437 0.021251697 0.0043826764 0.0019726844
0002f0 e2 36 71 bd 90 93 47 bd 7c ec 79 bd 60 54 48 3c
       -0.05889023 -0.04872471 -0.061016545 0.012227148
000300 6a 2b 2e bd 37 5b d9 bb ec 16 66 bd 08 04 14 bc
       -0.04252187 -0.006633188 -0.056174204 -0.009034164
000310 70 73 62 bc ed b2 d0 bd de 7f 5c 3d 26 7c 77 3d
       -0.013821468 -0.101903774 0.05383288 0.06042113
000320 60 95 ee bd a0 d5 9b bc 00 dc ae 3c c2 bc 53 bd
       -0.11649585 -0.019022763 0.021345139 -0.051693685
000330 54 13 36 3d db 82 af 3c 12 68 9a bd 4b 5c b6 bb
       0.044452026 0.021424701 -0.07539381 -0.0055652014
000340 92 6b 08 bd 83 b0 03 be a8 2f 5b 3c e8 89 3c bc
       -0.033305712 -0.12860303 0.013378061 -0.011507489
000350 a0 90 f6 3b a8 e4 e1 bc 0f b9 0c 3d 23 01 6b bc
       0.007524565 -0.027574852 0.034356173 -0.014343533
000360 29 43 db bd be db 52 bd 78 8e 11 bd 58 03 e9 3c
       -0.10706169 -0.051479094 -0.03553626 0.028443977
000370 0d ad 96 bd b5 5b da bc c5 d9 45 3c 3f 82 66 bd
       -0.073572256 -0.026655057 0.012075846 -0.056276556
000380 70 ec f3 3c 33 57 9f bd f4 8f 8f 3c 5e e9 51 3d
       0.029775828 -0.07780304 0.017524697 0.051247947
000390 d3 e9 8b bd d8 3c ff bc f0 c2 44 bc c0 93 4e 3b
       -0.06831708 -0.031156942 -0.012009367 0.0031521171
0003a0 be e4 71 3d c1 68 be bc a0 b3 0c 3b ee 68 5a 3d
       0.059056036 -0.02324331 0.002146937 0.053322725
0003b0 da f3 00 be f0 98 87 bb 30 86 f7 bc c0 24 3d 3d
       -0.12593022 -0.0041381046 -0.030215353 0.046177626
0003c0 04 54 b7 3c 6c 2f e2 3b 00 fd 3c bb b1 50 8a 3c
       0.022378929 0.006902626 -0.0028837323 0.01688418
0003d0 57 0d 15 bc d1 68 71 bd 78 63 22 bd 51 dc d1 bd
       -0.009097419 -0.05893785 -0.039645642 -0.102471
0003e0 d0 24 e8 bc 10 43 10 bd 10 df 2a 3c 92 3b 86 bd
       -0.028337866 -0.035220206 0.010429159 -0.06554331
0003f0 22 31 5f 3d 3d 2c a8 3c 6d ed b8 bd 5c 53 50 3d
       0.054490216 0.020528907 -0.090296604 0.050860748

network.3.bias f4 [256]
000000 0e 8e 25 3c dc f2 60 bb d8 69 35 bc 62 a9 65 3e
       0.010104669 -0.0034324443 -0.011072598 0.22427896
000010 7f f5 9a bd e7 40 72 ba c1 22 5b bd 03 8c 94 3e
       -0.07566356 -0.00092412386 -0.05349994 0.2901307
000020 34 73 92 bd 93 21 e0 bb 5c 4b 5f 3e 90 8f fa 3d
       -0.071508795 -0.00683994 0.21806091 0.122344136
000030 c7 5e 28 3c 36 a9 89 3e 36 b5 3f 3e d4 83 8a bb
       0.010276503 0.2688691 0.1872147 -0.004227141
000040 cd af 53 3e 3c b0 84 3e 79 da 9d bd 6f 0d 0d bd
       0.20672531 0.25915706 -0.07707686 -0.03443664
000050 c4 dd 8e bd bd 90 3b 3e 99 1c 65 bd 13 73 99 bc
       -0.06975892 0.18316932 -0.055935476 -0.01873163
000060 9c ee 19 3e bc e6 5d 3e 85 1a 3e bd d2 7e e3 3d
       0.15032429 0.2167005 -0.04641201 0.111081734
000070 e0 1b 22 3e 0f 7a cd bc 67 37 50 3d 26 a0 6a 3e
       0.15830946 -0.025082616 0.050834086 0.22912654
000080 44 91 85 3e 8c 32 ee bc 0f b6 98 bc 51 6d a8 3e
       0.2608739 -0.029076837 -0.0186415 0.32895902
000090 ba f9 48 3b d0 65 4f 3e c0 b9 8f 3e 8d ac 81 bd
       0.0030666427 0.20253682 0.28071404 -0.063317396
0000a0 d2 a0 82 3e 34 87 8c bd f0 07 44 bc 61 42 7c bd
       0.2551332 -0.068617254 -0.011964783 -0.06158674
0000b0 34 90 a7 bc 4f 75 b6 b7 9f 3e 64 bd 49 42 30 bb
       -0.020454504 -2.1750717e-05 -0.055723783 -0.0026894978
0000c0 d7 34 68 3e 82 d7 8e 3e 6a ab fa bc 75 2e 9d 3e
       0.22676407 0.27898794 -0.030599315 0.30699506
0000d0 3e f6 a9 3e 18 8e 63 3c c4 e6 ac 3e 8b 1f 9a bd
       0.3319568 0.013888858 0.3376981 -0.075255476
0000e0 9e e6 aa bc e8 88 8e 3e 2b 43 b0 3e fc 38 7a 3e
       -0.02086192 0.27838826 0.34426245 0.244358
0000f0 67 4a bd 3d 31 d2 93 3e 6e 9a 47 bd 08 37 8e bd
       0.09242707 0.288713 -0.04873126 -0.0694409
000100 68 de a9 bd e6 02 95 3b c6 44 d9 3d 09 1f b4 3e
       -0.08294374 0.0045474647 0.106088206 0.35179928
000110 89 9e e9 38 05 32 78 3e 11 1b 0c bc 44 20 2c 3e
       0.00011139835 0.24237831 -0.008551375 0.16809183
000120 26 41 75 bd c8 1a 45 3e 23 d1 7c 3e f3 ee bd 3d
       -0.059876584 0.19248497 0.24689154 0.092740916
000130 fe 36 b4 3e f8 a3 63 bd 7b 0d da 3e 49 7f 91 3e
       0.35198206 -0.055576295 0.4258841 0.28417423
000140 45 dc 03 3e 9b a7 72 3e 14 04 ec 3e 74 02 11 bc
       0.12876995 0.23696749 0.4609686 -0.0088506825
000150 f5 bb 30 bd 48 88 a9 bc 32 17 76 3e 6c 9d c7 3d
       -0.043148 -0.020694867 0.24032286 0.09746823
000160 f2 95 86 bd 8f f7 48 bd 92 d7 bc bb a0 9c 9f bd
       -0.065715685 -0.049064215 -0.0057630027 -0.07793546
000170 9a e1 9f 3e 36 62 4f bd 64 08 11 3e 96 5b 6f 3e
       0.31226808 -0.05063077 0.14163357 0.23374781
000180 33 07 36 3e 8e 15 1c 3e 91 03 54 3e 69 cb 69 3e
       0.17776184 0.15242597 0.20704485 0.22831501
000190 16 0f e2 bc ff f1 3a 3e f9 7a 96 3e b1 28 49 3e
       -0.027595084 0.18256377 0.29390696 0.19644429
0001a0 f4 85 5c 3e d3 0d 7b 3e c2 50 8d 3d 8a 74 18 bc
       0.21535474 0.24516992 0.06900169 -0.009305129
0001b0 34 2e 4d bd 9c c7 df 3e e6 49 53 3e 2f 5c 4f 3e
       -0.05009289 0.43706977 0.20633659 0.20250009
0001c0 4e 5c 28 bb bd 61 ca 3d 63 b9 12 bd 9c d3 3c bd
       -0.0025689784 0.09881923 -0.03582133 -0.046100244
0001d0 e9 43 27 bd 93 b2 12 bd e2 87 a5 bd 89 1a 83 3e
       -0.04083625 -0.035814833 -0.08082558 0.25606182
0001e0 09 1a 53 3e 9a d0 97 3e e4 e6 d7 3e 45 1c 5d 3e
       0.206154 0.29651338 0.42168343 0.21592815
0001f0 17 bf df bc 15 90 00 bc 0e 97 32 3e 0a 0e 88 3e
       -0.027312798 -0.007846852 0.17440435 0.2657321
000200 da 77 6a bd 96 65 f9 3d a1 a2 93 3e 2b 41 12 bd
       -0.057243206 0.12177579 0.28835014 -0.03570668
000210 0b fc 8b bb df 5a 35 3e c3 1a ac 3e f4 8e b0 b9
       -0.004271989 0.17710446 0.33614168 -0.00033675844
000220 cb 76 87 bd bf 96 60 3b 07 f4 38 bd f8 99 97 3e
       -0.06614455 0.003426954 -0.045154598 0.29609656
000230 14 9a 44 3c 51 de 48 3e b5 f8 6d 3e e7 58 46 3e
       0.011999626 0.19616057 0.23239405 0.19369851
000240 5e 95 52 3e da ab 3d 3e 74 b6 7c 3e 1b 1f 22 3e
       0.20564792 0.18522587 0.24678975 0.15832178
000250 f9 07 d0 3c 2a 0a 7f 3e b2 ab 08 3e 43 86 a6 3e
       0.025394427 0.24906221 0.13346747 0.3252431
000260 b5 ea b8 bb 07 94 77 3e b6 e8 31 bc 88 26 c3 3e
       -0.0056432136 0.24177562 -0.010858705 0.38115335
000270 1a 1a 43 3e 3b 43 60 3c 69 51 2b 3b d0 5b 07 3d
       0.19052926 0.013687904 0.0026141054 0.033046544
000280 2c 31 3c 3e d1 c2 51 bd ed c8 7e 3e 57 73 99 bb
       0.18378133 -0.051211182 0.24881335 -0.004682939
000290 ca f0 a9 bd c0 63 a5 bd 78 98 40 bd a5 cd fe bc
       -0.0829788 -0.080756664 -0.047020406 -0.031103918
0002a0 63 24 a3 bc 3e 73 95 3e d4 ae 48 3e 4d a3 71 bd
       -0.019914811 0.29189485 0.19597942 -0.058993626
0002b0 08 0a 25 3e b8 72 68 3e c4 af 6a 3e 0e 6d 5b 3e
       0.16117108 0.22700012 0.22918612 0.2142832
0002c0 3a c1 89 3e 4b ff a1 bd ea d5 60 bd 8e 5a 74 3e
       0.26905233 -0.079100214 -0.054891504 0.23862669
0002d0 bd 1f 13 bd 0c 6f b9 3e b4 c9 f7 3d da bc 81 3e
       -0.03591894 0.36217535 0.12099019 0.25339395
0002e0 48 0a 7d 3e 5c 19 6d 3e 04 02 7e bd bf da 1a 3c
       0.24710953 0.23154205 -0.06201364 0.009451567
0002f0 e2 32 38 3e 9a 70 2a 3c 67 7c 48 3e 77 dd 98 3e
       0.1798816 0.010402823 0.19578706 0.29856464
000300 b4 26 85 bc 36 fc 90 3d 70 9e d9 3b a3 e1 36 bc
       -0.016253807 0.070793554 0.0066412017 -0.011162194
000310 c5 79 71 3e 01 78 61 3e 4d eb cb 3d b6 7b b1 3d
       0.23581608 0.22018434 0.099569894 0.08666174
000320 0c ba 48 bd 44 09 57 3e ad 1c 46 3e 65 44 bf 3e
       -0.049005553 0.20999628 0.19346876 0.37356868
000330 c7 8e 92 bd de 40 10 3d e0 67 ae 3c 4a 7f 5b 3e
       -0.07156139 0.035218112 0.021289766 0.21435276
000340 8b 4e 37 3e f9 25 8b bd db ba a3 bc b6 56 35 bc
       0.17901056 -0.06794352 -0.01998656 -0.011068037
000350 41 9b ee 3b 22 9b e0 bc 78 ec 15 be 81 f0 15 3e
       0.0072816913 -0.027417723 -0.14640987 0.14642526
000360 ce f9 29 3b c4 47 0d bc 04 81 fd bc 05 e6 6f 3e
       0.0025936249 -0.008623067 -0.030945309 0.23427589
000370 73 9b bb 3b f0 eb 2a 3e d1 4b f7 3d 4f cf 8f 3e
       0.005725318 0.16691566 0.12075008 0.2808785
000380 12 5f 84 3e 57 0a 02 3f ee 5d 66 3e ab 04 c8 3b
       0.25853783 0.5079703 0.22496769 0.006104072
000390 51 7f 21 3e 96 88 07 3c c9 7e a3 bd 9b 5d af ba
       0.15771224 0.008272311 -0.07983167 -0.0013379337
0003a0 b1 d6 84 3e 3b c8 0f 3c 62 f6 6f bc ea 65 48 bd
       0.25945047 0.008775766 -0.014646145 -0.048925318
0003b0 3e 4a 06 3e ee dd 77 3e cf d6 ad 3e a1 72 b9 bc
       0.13114259 0.24205753 0.33952948 -0.022637667
0003c0 c1 5d a0 3e 77 60 69 bd 22 34 2a 3e 12 43 26 3e
       0.3132153 -0.05697676 0.1662145 0.16236523
0003d0 89 f0 37 3e a8 a9 1a 3e 3e e8 7d 3e e3 d2 9b 3e
       0.1796285 0.15103781 0.24795625 0.3043433
0003e0 91 0f cd 3e 7d c4 84 3e 75 73 60 3e ca 6e 6b bd
       0.4005094 0.2593116 0.21919043 -0.057478704
0003f0 86 2f 16 bd 6f 2f c9 3e 5c 6d 61 bd 9d ef 2c bc
       -0.036666416 0.39294 -0.055035934 -0.010555175

network.6.weight f4 [256, 256]
000000 78 7e 38 bd 47 11 64 3d 4d 61 52 3d 3b 81 72 bd
       -0.045042485 0.05568054 0.051362325 -0.059205275
000010 78 aa 61 bc 04 3d 31 bd c7 9b 1c 3d 4e 79 21 bd
       -0.013773553 -0.04327108 0.0382345 -0.039422326
000020 c0 1f 78 3c e8 9f 7b bc 48 d7 8f bd 30 27 62 3d
       0.015144289 -0.015357949 -0.070234835 0.055213153
000030 5c eb 47 3d 85 31 4f bd 6c 8c 53 bd 7c ae bc 3c
       0.04880844 -0.050584335 -0.05164759 0.02303242
000040 f2 a0 a2 bd bd 81 10 3d b4 8f 7c bd 02 fe 2d bd
       -0.07940854 0.035279978 -0.061660483 -0.04247857
000050 f4 0d c1 bc 8f 56 1f 3d ea 65 cc 3c 56 81 29 3d
       -0.023566224 0.038900908 0.02495094 0.04138311
000060 2f 85 00 3d 0e 18 02 bd 00 74 f8 b9 b4 b7 00 3d
       0.031377014 -0.03176122 -0.00047388673 0.031425193
000070 aa 50 73 3d cd bc 70 bc f0 19 9f bb 85 f2 4e bc
       0.0594031 -0.014693451 -0.004855387 -0.012631063
000080 d7 df 2e bd a0 84 ca bc 95 b3 89 bc a6 d9 82 bd
       -0.04269394 -0.024721444 -0.016809264 -0.063891694
000090 d2 62 40 bd e8 a4 ae 3c d8 3d 09 bd f8 f1 25 3d
       -0.046969242 0.021318868 -0.033506244 0.040513963
0000a0 bd d0 27 bd 66 94 7c bd 04 54 7c 3d 6c 59 b1 bc
       -0.040970553 -0.06166496 0.06160356 -0.021649085
0000b0 ac bf c4 bc a4 df ee bc 8c bd 5e 3d e9 7a 37 bd
       -0.024017178 -0.029159375 0.054379985 -0.04479495
0000c0 db e6 94 bd 5e 4c 3c bc 7e 43 2c bd 59 be 25 bd
       -0.07270595 -0.011492817 -0.042056553 -0.040464733
0000d0 10 3f 85 3c 50 d9 d6 bb 0c 83 81 bd 8c 61 ad bb
       0.016265422 -0.0065566674 -0.06323823 -0.0052911695
0000e0 6b 4f 57 bd d0 50 94 bd b9 aa 72 bd 31 b0 0b 3d
       -0.052565973 -0.07241976 -0.059244845 0.034103576
0000f0 2c c6 e0 3c 7d 22 c5 bc 9a 51 69 3d c8 ec d0 bc
       0.027438246 -0.024064297 0.056962587 -0.025503531
000100 4e d2 57 bd 1c ed c4 bc 8f 49 d7 bc 28 44 0a bd
       -0.052690797 -0.024038844 -0.026280193 -0.033756405
000110 a4 d8 6c bd 20 6c 17 3a 30 e2 aa 3c 28 77 1c bd
       -0.057823792 0.0005776305 0.020859808 -0.038199574
000120 00 31 1e 3b 1e 21 74 bc db 45 f2 3b 90 72 3f 3d
       0.0024138093 -0.014900474 0.0073935813 0.046740115
000130 b8 4e e9 3c 2e fa 47 3d eb 90 a2 bd 8b 5d 93 bd
       0.028479919 0.048822574 -0.07937797 -0.07195576
000140 ff 9b 1f bd 6d b6 5d bd 09 4f 22 3d 13 46 90 3c
       -0.03896713 -0.054129053 0.039626155 0.017611539
000150 a8 9c cb bc 54 52 c8 3c 38 c5 78 bc 8c f3 4b bd
       -0.024854973 0.02445332 -0.015183739 -0.04979281
000160 54 36 5a 3d c4 91 1b bd 26 a5 3b bd a0 2c 61 3c
       0.053274468 -0.03798081 -0.045811795 0.01374355
000170 84 7b 21 3d 48 73 95 3c 09 70 8e bd 3c 86 50 bd
       0.039424434 0.018243447 -0.06954963 -0.050909266
000180 60 47 04 bc d8 45 45 bc e4 66 4d bd 6d ab e0 3c
       -0.008073658 -0.012040578 -0.050146952 0.027425492
000190 10 93 6c bd dc 68 d6 bc 4b 1e 61 bd 9a 56 10 bd
       -0.057757437 -0.026173048 -0.05496053 -0.03523884
0001a0 59 14 2a 3c 01 81 9f bc 98 fc b4 3c a5 5f 48 bd
       0.010380828 -0.019470694 0.022093102 -0.04891934
0001b0 52 55 34 3d f8 c4 02 bd 53 fc 67 bd 65 d5 36 bd
       0.04402668 -0.031926125 -0.05663712 -0.044637103
0001c0 b2 ac 48 bd d3 d0 c0 3c 62 d0 75 bd 18 44 6f bd
       -0.04899282 0.023537075 -0.060013182 -0.05841455
0001d0 a4 76 97 3c a8 0a 91 3c 12 4c 6d 3d cb 80 95 3c
       0.01848919 0.017705277 0.057933874 0.01824989
0001e0 55 76 5f bd 44 4a 6a bd 36 29 f2 bc 7b b0 2e bd
       -0.05455621 -0.05719973 -0.029560667 -0.042648774
0001f0 65 d6 43 3b 52 f1 3a 3d 3b 7b 12 bc 20 69 16 3d
       0.0029882428 0.045640297 -0.008940513 0.03672135
000200 d8 06 7f bc 1c 27 68 bd 82 bd b1 3b 22 90 33 bd
       -0.0155655965 -0.056677923 0.0054242024 -0.043838628
000210 e0 e1 35 3d e8 1a 00 3c d0 93 8d 3c 02 93 78 3d
       0.044404864 0.007818915 0.017282397 0.060687073
000220 a8 5c 3a bd 00 7a fb 3a ce 3e 3e bd 33 c4 86 3a
       -0.04549852 0.0019186139 -0.046446614 0.0010281861
000230 45 e2 4e bd ea 47 c0 bb c3 1e 6b 3c da 4c b8 3c
       -0.050508756 -0.005867948 0.014350596 0.022497583
000240 d8 1f 99 bd 1a 53 3d bd 6e 52 6f bd 45 5e 46 3c
       -0.07476777 -0.04622183 -0.05842822 0.012107437
000250 81 19 e6 3c 89 15 72 3c e5 f4 b8 bc da 40 4a bd
       0.028088333 0.014775642 -0.022577712 -0.049378254
000260 60 6f 27 3b 9e 11 02 bd 00 4c 24 3b dc 84 e5 3b
       0.0025548562 -0.031755082 0.0025069714 0.0070043635
000270 68 45 cd bc ea c4 e2 bc 00 21 ff 39 cd 65 09 bd
       -0.02505751 -0.027681787 0.00048661977 -0.03354435
000280 e4 5c 05 3d 80 1e 79 bd 65 eb ae 3c c6 73 65 3c
       0.03255929 -0.060820103 0.02135248 0.014004653
000290 72 0b 80 bd a2 70 08 bd 80 17 13 3c e0 5c 1b bc
       -0.06252183 -0.03331054 0.008977771 -0.009482592
0002a0 c4 95 e0 bc 45 d6 1d bc 82 9b 84 3c 60 e1 c2 3b
       -0.027415164 -0.009633605 0.016187433 0.005947277
0002b0 c3 38 91 3c 74 e1 09 3c 4b 17 3c bd fd 17 6a bc
       0.017727261 0.008415569 -0.04592065 -0.014287946
0002c0 44 53 54 bc 56 9e 6c 3c 0a 55 4a bd f7 85 11 3c
       -0.012959305 0.014442047 -0.049397506 0.008882037
0002d0 0c 30 27 3d 7d 51 15 bd c0 88 c3 bc 49 e9 3f bd
       0.040817305 -0.036454666 -0.023868918 -0.046853337
0002e0 92 0f a1 bd 10 c9 28 3d a0 97 49 bb 05 8e e3 3c
       -0.07864298 0.041207373 -0.0030760542 0.027777681
0002f0 70 99 81 bd 00 e7 3c bc fe d2 82 bc c4 b5 f3 3b
       -0.06328094 -0.011529684 -0.01596975 0.0074374396
000300 c0 d1 6f bd 40 60 40 3d a5 1c ce bc fc 95 54 3d
       -0.058549643 0.04696679 -0.025160143 0.05190085
000310 51 ba 0b bc 9b 62 38 3c 4b b4 05 3d fc 68 72 bd
       -0.008528308 0.011253978 0.032642644 -0.059182152
000320 f6 1b 26 bd 24 26 19 3c 1f 15 fe 3c 99 90 15 3d
       -0.04055401 0.009347472 0.03101593 0.036514852
000330 20 33 bd 3c 05 7c 8c bc 89 58 50 bd cf 24 a1 bc
       0.023095667 -0.01714898 -0.050865684 -0.019670872
000340 27 bd 07 bd 24 59 ce bc 92 c6 6f 3d f6 a4 7a 3d
       -0.033139374 -0.02518899 0.05853898 0.061192475
000350 78 d1 5c bd 6c 81 d6 3c 9f ae 67 3c a6 64 31 bd
       -0.053910702 0.02618476 0.014140754 -0.043308876
000360 52 e7 62 3d f9 80 48 3a fc 64 93 bc e0 0b 27 3d
       0.055396385 0.0007648613 -0.017992489 0.04078281
000370 40 2c 6a bd a1 72 9a 3c c6 e5 40 3d c0 11 5c bd
       -0.057171106 0.018853487 0.04709413 -0.053727865
000380 b3 50 22 3d 88 59 94 bd 88 41 fa bc d2 30 90 3c
       0.039627742 -0.07243639 -0.030548826 0.017601404
000390 19 90 a8 bc 32 62 c9 bc 63 aa 26 3d 39 b3 63 bc
       -0.020576524 -0.024582956 0.040689837 -0.0138977105
0003a0 1c 76 40 bd f8 37 d2 bc 63 eb 13 3d 72 f9 0e 3d
       -0.046987638 -0.025661454 0.036113154 0.03490586
0003b0 af 57 14 3c b5 77 08 bd c6 29 b3 3c 68 70 ee bc
       0.0090541085 -0.033317287 0.021870505 -0.029106334
0003c0 51 62 82 3c 6c f3 5d bd 34 f6 89 bd 5c 60 66 bd
       0.015916022 -0.054187223 -0.06736413 -0.05624424
0003d0 ae 1d 0b 3d fc ce 2a bc da c0 a0 bd 65 51 80 bd
       0.03396385 -0.0104253255 -0.078492835 -0.06265525
0003e0 5a 86 21 3d ca 24 79 bd af 72 3f bc 18 54 00 3c
       0.03943477 -0.0608261 -0.011685058 0.0078325495
0003f0 9c f8 6c 3d 3e c9 a4 3c 6c 37 f9 3c e6 79 58 bd
       0.05785428 0.020115491 0.030421935 -0.052850626

network.6.bias f4 [256]
000000 76 12 dd bd 9b 60 6f 3f 63 bd 91 3f d9 b6 4f 3f
       -0.10794537 0.93506783 1.1385921 0.8113838
000010 ec 01 3f 3e c1 2b 87 3f 95 71 88 3f c1 17 84 3e
       0.18653077 1.0560228 1.0659662 0.25799373
000020 d9 6d 78 3f 18 b4 6a 3f 2d 71 90 3f 2c 16 93 3f
       0.97042614 0.9168105 1.1284539 1.1491141
000030 c6 ea 38 3f 2e f2 8c 3f 52 92 8c 3f 08 f0 6c 3e
       0.72233236 1.1011407 1.0982153 0.2313844
000040 a9 76 30 bf 34 f6 72 3e 6a ba 7b 3f f8 f8 53 3f
       -0.6893106 0.23726732 0.9833132 0.8280177
000050 c8 83 15 3e 56 9c 8d 3f 13 74 54 3f 61 68 86 3f
       0.14601052 1.1063335 0.82989615 1.0500604
000060 14 19 87 3f 17 ed bd 3d 9e b9 56 3f ad 58 54 3e
       1.0554528 0.09273737 0.8387698 0.20736952
000070 6a 7f 6b 3d 19 61 74 3e 45 69 83 3f c8 09 b9 3e
       0.05749456 0.23865165 1.0266501 0.36140275
000080 10 68 07 40 0e 43 80 3f 56 8b bd 3d ee d1 56 3e
       2.1157265 1.0020463 0.09255092 0.2097852
000090 54 a1 3b bd 95 cf bd bd ab 43 08 bf b9 2f 64 be
       -0.04580815 -0.09268109 -0.53228253 -0.2228383
0000a0 0e 45 8e bd 11 8c aa be 6e e6 89 3f 28 db 6b 3e
       -0.06946765 -0.33309987 1.0773447 0.2303282
0000b0 dc ae 9d 3c 61 f1 82 3f e7 bf 7d 3f e8 c0 e3 bd
       0.019248419 1.0229913 0.99120945 -0.11120778
0000c0 77 70 8b 3f ff cd fb 3d 3b a0 35 3e 44 ee 18 3f
       1.0893697 0.1229515 0.17736904 0.59738564
0000d0 67 fc 05 3f 4b 90 15 3e 28 8d 8c 3f 27 fe 73 3e
       0.5233826 0.14605825 1.0980577 0.2382742
0000e0 7f f7 86 3f 89 1c 6e 3e e2 78 4d 3f 64 96 98 3e
       1.054428 0.23253073 0.8026258 0.2980224
0000f0 cf 8c 37 3f 9c e8 76 3f 05 fc a9 3c 33 e3 cc bd
       0.7169923 0.96448684 0.020750055 -0.10004272
000100 13 5f 74 3f 4e d8 2e 3f 3f 1d 87 3f 26 49 84 3d
       0.9545757 0.68298805 1.05558 0.064592645
000110 7a 7f 83 3f 04 66 30 3f 7d f8 5d be bd c6 05 be
       1.0273278 0.68905663 -0.21676822 -0.13064094
000120 ba f2 80 3f a9 f3 8e be eb 1b 9b 3f 3b 6e 87 3f
       1.0074074 -0.27920273 1.2117895 1.0580515
000130 37 02 04 3f 99 f0 b3 3e 44 6d 85 3f 69 5f 4e 3e
       0.5156588 0.351445 1.042397 0.20153584
000140 5c 24 a8 3e 08 97 8c 3f 26 f2 5b 3f 9f ff e6 3e
       0.3284024 1.0983591 0.85916364 0.45116898
000150 7f 3d 81 3f 3e cb 89 3f 60 55 fd 3d 4b 9b c9 bd
       1.0096892 1.076515 0.123697996 -0.09844073
000160 73 bb 83 3f 2d d2 76 3f e0 d4 e8 3e 5a 63 80 3f
       1.029158 0.9641445 0.4547491 1.003032
000170 04 06 5e 3e d0 bf 1c 40 71 df 58 3f a9 28 5c 3f
       0.21681982 2.4492073 0.84715945 0.8599954
000180 0a bf 04 3f 15 85 6a 3f 36 c6 2f 3f 99 4f 80 3f
       0.51854 0.9160932 0.6866182 1.0024291
000190 fa 21 91 3f 71 66 c5 bd 8f 9a 22 bf 08 b3 b6 bd
       1.1338494 -0.0963868 -0.6351709 -0.08920866
0001a0 d8 27 0a be c0 c0 1f 3f 99 87 ae 3d d0 c2 03 be
       -0.13491762 0.6240349 0.08521957 -0.12867284
0001b0 40 38 8a 3f f1 1d 4f bb f1 29 81 3f 34 d9 6f 3f
       1.0798416 -0.003160354 1.0090925 0.936908
0001c0 27 57 3c 40 59 51 26 3f a0 a2 ff 3c e7 b9 c5 3e
       2.9428194 0.64967877 0.031205475 0.38618395
0001d0 3f 93 8e 3f 59 aa 6f 3f 1a f7 92 3f a1 86 86 3f
       1.1138686 0.93619305 1.148166 1.0509835
0001e0 82 31 bf 3e c3 fd 14 3e 85 fb ca 3d d0 9c ff 3e
       0.3734246 0.14549927 0.09911255 0.49924326
0001f0 12 9d a3 be 61 9b 84 3e e5 56 5d 3e 29 10 62 3f
       -0.31955773 0.25899795 0.21615179 0.8830591
000200 d1 8f 6e 3f b5 06 b2 bd 4d 24 3b 3e 2b d9 82 3f
       0.93188196 -0.086926855 0.18275566 1.0222524
000210 55 9d 40 3e 70 6f 7f 3f 60 ff 92 be 2d d7 93 3c
       0.18810017 0.99779415 -0.2871046 0.01804694
000220 a9 21 85 3f 3d 86 71 3f 8d f1 86 3f 75 67 f4 bd
       1.0400897 0.94345456 1.0542465 -0.11933795
000230 ad 8e 73 3f a5 47 b7 3f 7e 94 13 3f 04 59 a6 be
       0.9513958 1.4318739 0.57648456 -0.3248979
000240 71 75 87 3f 56 84 80 3f 31 f3 06 3f d8 7a 7c 3f
       1.0582715 1.0040386 0.5271483 0.98624945
000250 59 f2 6b 3f 12 f3 4e 3c c2 9a 8d 3f 88 f7 78 3f
       0.9216667 0.012631195 1.1062853 0.972527
000260 ef 24 cb bd 9f 2a f8 3e 42 c3 02 3d 31 ad 34 3f
       -0.09919154 0.48470017 0.031924494 0.7057677
000270 5f 09 b5 bd f7 77 2c 40 ff eb 6e 3f 6b d7 6b 3f
       -0.08839678 2.694822 0.9332885 0.92125577
000280 98 71 00 3f cc 85 24 3f 39 13 ca 3e 71 49 91 bd
       0.5017333 0.6426666 0.3946779 -0.07094086
000290 40 92 77 3c 83 21 97 3f dc 3e 92 3f 09 64 3a 3f
       0.015110552 1.1807102 1.1425433 0.7280889
0002a0 44 63 02 40 18 10 83 3f 4a b9 4c bf ad ff 11 3e
       2.0373087 1.0239286 -0.7997023 0.14257689
0002b0 03 ff 3e be 51 6b 53 3f 19 15 66 3f 8b bd 5c 3e
       -0.18651967 0.82585627 0.8987594 0.2155668
0002c0 97 fe 8f 3f eb ec 5c bd 80 14 ba be 6d 89 8a bd
       1.124957 -0.05393688 -0.36343765 -0.06764493
0002d0 04 47 83 3f df 26 8a 3f 51 a1 b1 3e 9a 85 88 3f
       1.0256047 1.0793113 0.34693387 1.0665772
0002e0 fe dc 5c be 6d 0d ae 3e b4 25 71 3d eb 3a c7 be
       -0.21568677 0.33994618 0.058873847 -0.38912138
0002f0 4f e5 78 3f 83 ca 56 3f 26 bf 89 3f 5e f3 2d 3f
       0.972249 0.8390276 1.0761459 0.67949474
000300 2a 88 52 3f 11 fe e7 3e 13 59 0b bf 28 87 c1 bb
       0.8223902 0.45311025 -0.5443279 -0.0059060045
000310 6e 79 13 3e 12 6a 8d 3f 78 57 e6 3e 21 c9 6e 3f
       0.1440179 1.1047995 0.44988608 0.9327565
000320 41 8c 82 3f 23 43 9a be 39 06 8c 3f fb 09 89 3f
       1.0199052 -0.30129346 1.0939399 1.0706171
000330 a6 5b 41 3f dc 6f b6 be 84 b5 28 3f 68 09 9f be
       0.7553047 -0.35632217 0.6590197 -0.31061864
000340 0a a8 5c 3f 69 b5 85 3f c7 76 28 3e ce 24 db bd
       0.8619391 1.0445987 0.1645156 -0.10700379
000350 b2 4c 49 3e 1d c0 a3 be ed ba 34 3f d9 0c 2f 3f
       0.19658163 -0.31982508 0.70597726 0.6837898
000360 ef b5 27 bd bb b8 45 3e ec ef a8 3d ed 1d 06 bd
       -0.04094499 0.1930875 0.082488865 -0.032743383
000370 20 4f 8a 3f 94 73 47 3e 22 a5 85 bd 8a 49 2f 3e
       1.0805397 0.19477683 -0.06525637 0.17117897
000380 6a af 32 3f 16 a1 96 3f 40 aa 0c be 94 77 8d 3f
       0.6979891 1.176791 -0.1373682 1.1052117
000390 bc cb 6c 3f ae ff 82 3f f0 fc 8e 3f 2e 36 17 3f
       0.92498374 1.0234277 1.117094 0.59067047
0003a0 e0 37 80 3f e5 e7 09 3f c9 e2 c0 3d ac 95 58 3f
       1.0017052 0.5386947 0.09418256 0.8460338
0003b0 09 13 7b 3f 29 47 3a bd c0 41 12 3f 2e f8 ff bd
       0.9807592 -0.04547802 0.57131577 -0.124985084
0003c0 28 70 cb bd c7 0c 77 bd 3d 06 85 3f e0 aa 26 bd
       -0.099335015 -0.06031492 1.0392529 -0.040690303
0003d0 12 49 44 3f 8c a3 72 3f 53 0a 81 3f d7 2a 8b 3f
       0.76673996 0.947808 1.0081276 1.0872449
0003e0 03 6b d2 3f 9b 32 e5 bd 3c 5c 3f 3f da 75 97 3f
       1.6438907 -0.11191293 0.74750113 1.183284
0003f0 e4 47 71 3f 1f 55 3f 3e 84 c6 d2 3f b4 38 70 3f
       0.9425032 0.18684815 1.6466832 0.9383652

network.8.weight f4 [3, 256]
000000 6d 8e aa 3b 3b ef 1c be f7 6b 7c be 16 25 80 be
       0.0052049668 -0.15325634 -0.2465056 -0.25028294
000010 cd d6 47 be 1c e1 78 be e0 55 75 be 92 e0 90 3d
       -0.19515534 -0.24304622 -0.2395854 0.070740834
000020 59 6f 5f be 1d 11 24 be d6 b5 27 be 00 0e b3 3e
       -0.2181982 -0.16022153 -0.16377959 0.3497162
000030 27 b0 32 bf f3 46 5f be 65 4d 50 be e3 c4 0a be
       -0.6980004 -0.21804409 -0.20342024 -0.13551669
000040 6f 5d 52 be 6d 02 16 3e 75 49 62 be 0d 2b d6 3e
       -0.20543455 0.14649363 -0.22098334 0.4182972
000050 1d db ef 3d 33 8c 82 be 6f dc 31 be e9 8e 98 bf
       0.117117144 -0.2549759 -0.17369245 -1.1918613
000060 c9 03 21 be f3 21 a5 bd 08 0f 47 3e f7 a1 41 be
       -0.157241 -0.08063116 0.19439328 -0.18909441
000070 42 39 bc 3a 94 a4 72 3d 60 31 2a be 3b a3 1c 3e
       0.0014360326 0.059238985 -0.16620398 0.15296642
000080 06 0b cd 3e 33 7f 69 be 1d 19 88 bd a8 59 29 bd
       0.40047473 -0.22802429 -0.06645415 -0.04134527
000090 2f d3 c9 3d f7 75 be 3d fd 29 34 be 6a d0 e0 bd
       0.09854733 0.09299844 -0.17594142 -0.10977252
0000a0 9d 3e 0b be 4c 3b 53 be df a9 11 bf d1 5b ce 3d
       -0.13598104 -0.20628089 -0.5689983 0.10076106
0000b0 36 00 dd 3d c1 84 65 be 73 8e 31 be 8c 90 4e bc
       0.10791056 -0.22413923 -0.17339496 -0.012607705
0000c0 ca 37 41 be c3 e7 e0 3d 3b f8 e3 3d 6e e4 4e bd
       -0.18868938 0.10981705 0.111313306 -0.050510816
0000d0 ab 08 93 bc d7 31 04 be ad 91 7d be 4e 68 63 3c
       -0.01794847 -0.12909637 -0.24762602 0.013879849
0000e0 93 6b 4a be 69 64 62 3e 97 eb 90 3e 36 fc 3a 3e
       -0.19767599 0.22108616 0.2830474 0.18260273
0000f0 d4 2a c4 3e be 5b 5f be d0 8a 65 3d de 08 3a be
       0.38313925 -0.2181234 0.056040585 -0.18167445
000100 a6 1d b7 3e 89 19 64 be 5f 83 53 be 11 2d 4d bd
       0.35764807 -0.22275366 -0.20655583 -0.050091807
000110 66 92 3a be 8b fa 1d be 08 bd ad be 31 80 02 bd
       -0.18219909 -0.15427606 -0.33933282 -0.031860534
000120 86 66 6e be c3 31 6d be 7b 42 cc 3e 44 19 42 be
       -0.23281297 -0.23163514 0.3989447 -0.1895495
000130 a2 be 28 bf 35 77 59 be 2f 72 5e be 4b ed 0f 3e
       -0.6591588 -0.2123688 -0.21723245 0.14055364
000140 15 bb 16 3e ca 6c 48 be c2 d9 10 be 54 50 8c 3e
       0.14719804 -0.1957275 -0.14145568 0.27405035
000150 06 0f 8d bf 11 a2 2a be 59 14 0f bd 1d e1 04 bd
       -1.102021 -0.16663386 -0.034931514 -0.032441247
000160 ba 96 34 be d4 d2 4c be f1 9f 98 3e ad 86 88 be
       -0.17635623 -0.200023 0.29809526 -0.2666525
000170 ba f5 61 3e 8b d6 bf 3e 95 b3 84 3e 6c 39 a4 3e
       0.22066393 0.3746837 0.2591826 0.3207506
000180 95 17 ca be 5e fe e2 be 73 09 c3 be 00 09 46 bf
       -0.39471117 -0.44334692 -0.38093147 -0.7735748
000190 a2 d3 3b be 2c 9b 01 3d a9 a3 2e be b3 67 96 3c
       -0.1834245 0.031642124 -0.17054619 0.018359995
0001a0 c4 41 6b 3d e6 01 48 3e 0e 0c 83 bd 41 b2 cf bd
       0.057435766 0.19531974 -0.063987836 -0.10141421
0001b0 0a 52 5d be 65 e7 17 bd 38 46 7f be 66 f7 45 be
       -0.21613327 -0.03708591 -0.2492913 -0.19332656
0001c0 88 8f dd 3e 28 3a 84 3e 52 26 68 bc c3 e3 ff 3e
       0.43273568 0.2582562 -0.0141692925 0.49978456
0001d0 49 be 7b be 4f 04 51 be bb f9 5c be c5 86 27 3e
       -0.24584307 -0.204118 -0.2157964 0.16360004
0001e0 d8 1b 6d 3e 19 97 26 3e 74 a8 94 3e b9 6b 38 3e
       0.23155153 0.16268577 0.2903477 0.18009843
0001f0 ac 32 8b be 46 3e d8 3d b5 80 3d 3d c0 d0 b5 3e
       -0.27187097 0.10558753 0.046265323 0.35510826
000200 30 72 57 be 05 0a 0a 3d ec 15 b3 bc 52 4b 40 be
       -0.21039653 0.03370096 -0.02186104 -0.18778732
000210 38 2f 2b bb 3a c6 3d be 2b 9d 8c be 20 33 aa bd
       -0.0026120674 -0.18532649 -0.2746366 -0.083105326
000220 72 ef 72 be 3a ce 6b be 82 a1 3a be a9 54 27 3e
       -0.23724154 -0.23027888 -0.18225673 0.16340889
000230 f6 0c 19 be 6c ed 96 3e 3d 50 40 3e 3b da 8e be
       -0.1494635 0.29478014 0.18780608 -0.27900872
000240 16 4d 35 be d0 63 5b be 0b c0 70 3e 22 7d 9a 3e
       -0.17705187 -0.21424794 0.23510759 0.30173594
000250 03 91 4d be 57 b2 9e 3d 9f dc 62 be b9 54 2b be
       -0.20074849 0.077488594 -0.22154473 -0.16731538
000260 d9 79 41 3b cb 86 3f 3e 44 8a 68 3e 41 40 9a 3e
       0.002952209 0.18703763 0.22708994 0.30127147
000270 28 6e 5b bd 15 45 f2 3d 3d e8 d7 be 4c 08 49 be
       -0.05357185 0.118295826 -0.4216937 -0.19632071
000280 a6 a8 0e bf f5 96 b7 3e c0 03 46 be 2b 0a ab 3a
       -0.5572609 0.3585736 -0.19337368 0.0013049295
000290 7d 51 65 3d df 85 63 be 04 e3 83 be b6 43 8f be
       0.055985916 -0.22219037 -0.25759137 -0.27981347
0002a0 1e 14 bc 3e fa 1a 1c be e0 17 62 be f7 c2 26 3e
       0.36734098 -0.15244666 -0.2207942 0.1628531
0002b0 13 81 60 be 28 92 6e be ea 92 b6 3e 7b 7c 56 be
       -0.21924238 -0.23297942 0.35658962 -0.20945923
0002c0 18 09 88 bf c5 bb 69 3d 7d d8 01 be 6f 2a 75 ba
       -1.0627775 0.057063837 -0.1268024 -0.00093523314
0002d0 a5 28 1d be 5b 93 4a be 27 92 12 3e 05 ad 29 be
       -0.15347536 -0.19782774 0.14313565 -0.16569908
0002e0 37 c4 03 be b2 3a 2c 3e 4e 9c 84 3d 81 1e 95 be
       -0.12867819 0.16819265 0.06475125 -0.29124835
0002f0 93 13 64 be 7a c4 66 be d4 89 3e be 4a 43 1e 3e
       -0.22273092 -0.22535887 -0.18607265 0.15455356
000300 01 87 78 be 1f 1a 57 3e cd 4c 68 be 1d 48 1e 3d
       -0.2427025 0.21006058 -0.22685547 0.03864299
000310 8d 8c 0a 3d b4 b8 d1 3d e6 13 48 3e e7 4b 43 be
       0.033825446 0.102403075 0.1953884 -0.19071923
000320 63 d8 30 be 6d 55 59 be 79 a5 76 be df f2 83 be
       -0.17270045 -0.21223994 -0.2408656 -0.25771233
000330 df c2 5c be dc ae 36 be d8 a7 56 be eb 5e 98 be
       -0.21558712 -0.17840141 -0.20962465 -0.29759917
000340 eb 14 65 be cb 38 35 be 02 b1 38 3e b7 60 5f bc
       -0.22371261 -0.17697446 0.18036273 -0.013633898
000350 f0 35 12 be 4f 81 71 be 2a 41 3e be 57 b7 41 3e
       -0.14278388 -0.23584484 -0.18579546 0.18917595
000360 1c a8 11 3a 0b a4 75 bd 98 cc e0 3d 2f bf eb 3d
       0.0005556361 -0.059970897 0.10976523 0.11511075
000370 4f 93 5d be bf 9d 35 3d 61 28 e1 3c 76 d6 a7 3e
       -0.21638225 0.04433989 0.027485074 0.32780808
000380 7e a4 43 3d 08 00 e6 3e 2e 37 8b bd 3b d6 2b be
       0.047764294 0.449219 -0.06797634 -0.16780941
000390 64 24 38 be 87 3d 20 be 55 05 8a be f8 0b 6c 3e
       -0.17982632 -0.15648471 -0.26957193 0.2305144
0003a0 c1 d8 03 be f3 ff 0d bf a0 24 2f 3e 65 ba 7d be
       -0.12875654 -0.5546867 0.17103815 -0.24778135
0003b0 aa 71 44 be 35 08 3c 3d 46 75 7b 3e 68 e8 d4 3c
       -0.19183984 0.045906264 0.24556455 0.025989726
0003c0 ae 83 16 3d a5 01 d5 bd 54 5d 42 be 82 4f a9 3d
       0.036746673 -0.10400704 -0.18980914 0.08267118
0003d0 99 31 83 3e 71 0c dd 3d 92 2f df be e8 1f 85 be
       0.25623778 0.10793389 -0.4359098 -0.26000905
0003e0 3a 3f 26 3e 7b 3d bb bd 47 3f 57 be e8 84 ab 3e
       0.16235057 -0.09142586 -0.21020232 0.33499837
0003f0 92 73 24 be dc 5c a8 3c eb 2d 2a 3e 21 55 42 be
       -0.16059712 0.020552091 0.16619079 -0.18977787

network.8.bias f4 [3]
000000 e7 82 72 bf 6b be 41 bf fc 3a 59 bf
       -0.9473099 -0.7568118 -0.8485563
