runs/abrupt/egp/seed_0/online_stream_model.pth (torch, 535757 bytes, 8 tensors)

network.0.weight f4 [256, 2]
-0.41260582 0.56001264 0.21334329 2.2240798 -0.054583296 -0.60078776 0.34332842 0.5903356
-0.36591 2.1086285 -0.0741845 -2.6054058 0.09643335 -1.5347594 0.06097319 -0.21401674
0.15827759 2.5686493 0.41634196 -0.57433474 0.3125387 -1.4768746 0.27667782 2.8179939
-0.20217305 -3.7682033 0.0676741 -0.11467397 -0.36048222 2.141281 -0.044694114 1.7650733
-0.12853245 -0.8633463 0.12966755 -2.128267 0.36192456 2.269026 -0.26897553 -0.4406544
0.4706874 1.0287452 -0.032917824 1.9249172 -0.046358228 0.0562914 -0.09811239 -2.5394893
-0.26566997 0.11664444 -0.054063935 -0.6860089 0.31444213 3.0483394 0.25376886 0.43394083
0.35320827 2.5059974 1.0792178 2.5222228 0.0767786 1.7467047 0.012892357 1.5275466
0.096776396 -1.5657752 0.43323413 1.3431252 0.5535734 0.047041763 -0.39596027 0.138197
0.20051461 0.39055818 -0.44380537 0.9944662 0.5442015 1.4625738 0.051071286 -0.6676011
0.46351567 2.3102264 0.11363255 2.196238 0.070875615 1.6233815 0.8335321 1.7730056
-0.42063203 -0.9764835 -0.14197648 -0.54741734 -0.51921463 0.4050742 0.48225683 0.6994439
0.072181314 -2.331041 -0.30012745 -0.21192902 0.49723056 2.3130944 0.36877796 0.6136087
-0.1332416 -0.32641283 0.18064766 2.1724381 0.042774305 -0.21441191 0.010149063 0.066306815
-0.41958266 -0.8048594 0.5964246 -1.4870808 0.1471081 -2.152729 -0.34198484 -1.1791378
-0.055075843 1.957512 0.1478126 2.3396065 0.3057203 2.2252424 -0.4540523 0.16172168
-0.19735259 -0.43810806 -0.0359676 1.7017915 0.5334895 0.06177479 -0.14296961 0.31439024
-0.58531916 -0.039602738 -0.12723021 1.7851865 -0.044725418 -0.19080073 -0.15905264 -2.4164605
-0.1832764 1.8552136 -0.054180637 1.7004486 0.18595184 2.5059695 0.26412117 2.2780223
0.6229679 2.2257876 0.17676361 2.1654482 -0.16704339 0.38758355 0.0281592 2.160522
-0.07052978 1.8789614 -0.15700012 0.48729533 1.0447026 1.7659855 0.15895031 0.3211063
0.3664177 0.6773663 0.12797779 0.2643913 0.26076424 -0.029585302 0.28348562 2.048067
-0.14090581 -1.7696881 -0.29022956 1.5996389 0.25514817 -0.47141492 0.19802476 -2.1401274
-0.36557823 -2.4095616 0.46938866 1.7934328 -0.1200853 0.46707612 0.23258215 0.406336
-0.1284772 0.3358346 -0.30447632 -0.12712586 0.84136885 2.635257 -0.14541794 0.45273015
-0.7178006 -0.25149187 0.07796309 0.95801526 0.15182664 2.291966 0.005135923 1.7717992
0.20025073 1.9390993 0.31106943 -0.38303906 0.14871365 0.29208475 -0.032231808 -0.18337923
0.13347672 2.34815 0.21355024 2.5059052 0.30491105 0.79384375 0.06304109 0.53655106
0.30294317 -0.4976316 0.42531028 1.5558512 0.21955335 0.19480875 -0.4326326 0.13786621
0.4982734 2.374249 0.10135618 2.327313 -0.0035023093 -0.21739167 -0.1875515 0.79916066
0.5513493 1.8623631 0.11050069 -0.69112706 -0.027602915 1.8434191 0.19685595 2.4172761
0.13799156 1.9618573 0.10309448 -2.2366703 0.55594003 1.8541427 0.04199791 0.014460921
00000000: 1241 d3be fd5c 0f3f aa76 5a3e 5357 0e40
00000010: bc92 5fbd 3acd 19bf bec8 af3e 3c20 173f
00000020: 8e58 bbbe c5f3 0640 0bee 97bd f8be 26c0
00000030: d97e c53d ff72 c4bf 06bf 793d 3427 5bbe
00000040: 8513 223e c064 2440 c62a d53e 9a07 13bf
00000050: 1305 a03e 3a0a bdbf b7a8 8d3e 035a 3440
00000060: 7406 4fbe 3e2a 71c0 b898 8a3d 30da eabd
00000070: 2091 b8be bf0a 0940 2d11 37bd eced e13f
00000080: 039e 03be 4304 5dbf 92c7 043e 8735 08c0
00000090: 2d4e b93e b937 1140 29b7 89be 749d e1be
000000a0: f0fd f03e ecad 833f d7d4 06bd b063 f63f
000000b0: 20e2 3dbd d091 663d 26ef c8bd fe86 22c0
000000c0: e505 88be 48e3 ee3d 2572 5dbd 479e 2fbf
000000d0: 8ffe a03e fe17 4340 feed 813e 7e2d de3e
000000e0: b7d7 b43e 4362 2040 cf23 8a3f 196c 2140
000000f0: 193e 9d3d 0594 df3f 773a 533c a686 c33f
00000100: b432 c63d 526b c8bf ddd0 dd3e 87eb ab3f
00000110: fdb6 0d3f ddae 403d 4ebb cabe 8483 0d3e
00000120: b453 4d3e 3ef7 c73e 753a e3be 5695 7e3f
00000130: ca50 0b3f 9e35 bb3f 2030 513d e8e7 2abf
00000140: ed51 ed3e c0da 1340 2fb8 e83d 2a8f 0c40
00000150: 3c27 913d f7ca cf3f 5c62 553f d9f1 e23f
00000160: 155d d7be d3fa 79bf 4862 11be 8b23 0cbf
00000170: 40eb 04bf e365 cf3e 5eea f63e c10e 333f
00000180: ccd3 933d c72f 15c0 4eaa 99be ec03 59be
00000190: 0195 fe3e bd09 1440 77d0 bc3e 7615 1d3f
000001a0: 7c70 08be 951f a7be b3fb 383e 3a09 0b40
000001b0: 1c34 2f3d cc8e 5bbe 4148 263c decb 873d
000001c0: 8ad3 d6be 440b 4ebf 48af 183f aa58 bebf
000001d0: 81a3 163e 50c6 09c0 a318 afbe fded 96bf
000001e0: 3597 61bd c18f fa3f 305c 173e 1dbc 1540
000001f0: 5f87 9c3e 5f6a 0e40 8b79 e8be 5e9a 253e
00000200: cc16 4abe b34f e0be c352 13bd 4ed4 d93f
00000210: c592 083f 9007 7d3d a066 12be c2f7 a03e
00000220: 7ad7 15bf 7b36 22bd a348 02be fe80 e43f
00000230: 0032 37bd 4461 43be b2de 22be 4aa7 1ac0
00000240: cfac 3bbe a477 ed3f 84ec 5dbd 4da8 d93f
00000250: 296a 3e3e ce61 2040 e43a 873e 1ecb 1140
00000260: d37a 1f3f 4e73 0e40 8501 353e b496 0a40
00000270: 6c0d 2bbe 5a71 c63e 1fae e63c fe45 0a40
00000280: eb71 90bd cf81 f03f a4c4 20be c67e f93e
00000290: d1b8 853f d00b e23f dfc3 223e 0c68 a43e
000002a0: 1a9b bb3e e167 2d3f 9c0c 033e 4c5e 873e
000002b0: e482 853e e05c f2bc 0725 913e 8813 0340
000002c0: 9d49 10be 2485 e2bf f898 94be f8c0 cc3f
000002d0: c8a2 823e 4c5d f1be 01c7 4a3e d9f7 08c0
000002e0: 122d bbbe 4236 1ac0 b653 f03e 358f e53f
000002f0: 48ef f5bd 9a24 ef3e 042a 6e3e 460b d03e
00000300: 878f 03be 83f2 ab3e 52e4 9bbe 482d 02be
00000310: f363 573f 0da8 2840 71e8 14be 3fcc e73e
00000320: c8c1 37bf 8bc3 80be 1dab 9f3d 7d40 753f
00000330: 7178 1b3e 92af 1240 3f4b a83b 51ca e23f
00000340: 870e 4d3e 6834 f83f 7e44 9f3e b21d c4be
00000350: 6448 183e 228c 953e 8005 04bd c4c7 3bbe
00000360: 1fae 083e 1748 1640 eaac 5a3e c060 2040
00000370: 4d1d 9c3e 5839 4b3f b01b 813d 695b 093f
00000380: 5e1b 9b3e 92c9 febe 45c2 d93e 2226 c73f
00000390: 98d2 603e f27b 473e 0582 ddbe cd2c 0d3e
000003a0: b11d ff3e b2f3 1740 d493 cf3d b2f2 1440
000003b0: 0087 65bb ec9b 5ebe 800d 40be cb95 4c3f
000003c0: 3a25 0d3f ea61 ee3f 304e e23d b4ed 30bf
000003d0: 821f e2bc 28f5 eb3f 9b94 493e a7b4 1a40
000003e0: a94d 0d3e 241e fb3f 3323 d33d 9b25 0fc0
000003f0: 1652 0e3f 8c54 ed3f 0006 2c3d 80ed 6c3c

network.0.bias f4 [256]
-0.33508113 0.14395307 -0.098445825 0.11847364 -0.312675 -0.08103515 0.044667378 -0.03382272
-0.059408884 -0.54769367 0.15642181 0.15614007 -0.18537585 -0.46239418 -0.30620107 -0.052984197
-0.20023803 0.0584233 0.18092968 -0.35903838 0.07034602 -0.08141564 -0.085892856 -0.09594921
-0.35553783 -0.1015279 -0.09436409 -0.6034623 0.16555232 -0.28754336 -0.025773974 -0.0054778773
0.042284794 0.20423499 0.27333838 -0.66838443 -0.21620202 -0.36063874 0.12547363 -0.6589997
0.16204607 -0.04424382 -0.02502858 -0.30743125 -0.34337655 -0.3833663 -0.34597224 -0.6916412
0.020245489 -0.52409536 -0.022634411 0.14196932 -0.65114176 -0.06655226 -0.026047982 -0.019817123
-0.2716797 0.28127697 0.05890102 -0.28230858 -0.096366905 -0.05654866 0.18187553 -0.55036885
-0.49861413 -0.047899857 -0.66461205 -0.41609535 -0.42560184 -0.13160121 -0.6053752 -0.15044658
-0.16946074 -0.08026486 -0.0706685 0.15288548 -0.20254473 -0.06403018 -0.5133904 -0.0663072
-0.09927806 -0.6721492 -0.26607642 0.070592456 -0.5259367 -0.22734135 -0.54164684 -0.06697088
0.013107968 -0.23176056 -0.6620154 0.08866425 -0.4446012 0.027513575 -0.7019809 -0.54724574
0.0054590325 -0.5794148 -0.2808445 -0.17859678 -0.60187054 0.07194028 0.054548994 -0.059074745
-0.06674097 -0.5885142 -0.56840706 -0.113723814 -0.055841006 -0.074533455 0.14929837 -0.14955807
-0.47339204 0.13077475 0.10989897 -0.51960903 -0.09716278 -0.057443842 -0.10297704 -0.122445166
0.13057981 -0.69959646 -0.07663344 -0.069569364 -0.051587526 0.04178449 0.25990507 -0.08818543
0.08318462 -0.05842042 -0.1936145 -0.450839 0.22981842 -0.5159921 -0.0542473 -0.561635
0.10958077 -0.5154281 0.32914236 0.18391733 -0.042392492 0.11042089 -0.056647304 -0.034572314
0.11062441 -0.20949689 -0.19233161 -0.1718463 0.10241957 -0.045056257 -0.14637981 -0.12910019
-0.41160646 -0.29855895 -0.60297996 0.1371688 -0.11115539 0.02309819 -0.05614684 -0.062431563
-0.18511999 -0.49947506 -0.2080253 -0.27214277 -0.050905906 -0.5373016 -0.0030750511 -0.14512454
-0.42131922 -0.051019073 -0.018611034 -0.0824607 -0.64408654 0.16280325 -0.013083334 0.19463179
-0.09522632 0.11773632 -0.6512316 -0.172538 -0.41309187 0.07541764 0.054784965 -0.14638153
0.049780596 0.1079742 -0.30734342 -0.07964388 -0.3273882 0.17686875 -0.6631122 -0.19213669
0.16743258 -0.6691777 -0.4523445 -0.046938546 -0.037127968 -0.6114689 -0.19531189 -0.58819747
-0.13116476 -0.09131607 -0.18712848 -0.10882453 -0.2949915 -0.03790441 -0.2496969 -0.013970867
-0.14284892 0.111233704 -0.236839 -0.05350947 -0.15983629 0.07392665 -0.41559887 0.0921088
-0.50002784 -0.5247086 -0.5129678 -0.68885785 0.046044566 -0.22563103 -0.15756671 -0.3329594
-0.45150745 -0.5054258 -0.14586042 -0.7295799 -0.08457504 -0.07386548 -0.013915733 -0.6868853
0.28703523 -0.07807519 -0.6482025 -0.54649264 0.14511512 -0.6565674 0.07172278 0.33797422
-0.49730587 -0.33043465 -0.18558346 -0.12279272 -0.08320851 -0.5894104 -0.42472523 0.009467777
-0.012356302 -0.06662304 -0.11333382 -0.27334085 0.18248574 -0.20874888 -0.020552043 -0.25232685
00000000: c18f abbe 6f68 133e f79d c9bd 4fa2 f23d
00000010: f016 a0be c2f5 a5bd 24f5 363d b189 0abd
00000020: bb56 73bd a735 0cbf 0a2d 203e 2fe3 1f3e
00000030: 2bd3 3dbe eebe ecbe 63c6 9cbe f505 59bd
00000040: 330b 4dbe 454d 6f3d a145 393e e1d3 b7be
00000050: 9311 903d 3ebd a6bd 98e8 afbd 0581 c4bd
00000060: 0e09 b6be dced cfbd f641 c1bd 817c 1abf
00000070: 8c86 293e e238 93be f123 d3bc c47f b3bb
00000080: d232 2d3d fa22 513e 02f3 8b3e 3e1b 2bbf
00000090: 1064 5dbe a4a5 b8be 297c 003e 34b4 28bf
000000a0: 68ef 253e 0239 35bd bd08 cdbc a167 9dbe
000000b0: 0dcf afbe 9648 c4be 4623 b1be 660f 31bf
000000c0: ded9 a53c 1d2b 06bf cd6b b9bc 6860 113e
000000d0: 3ab1 26bf 8d4c 88bd 9462 d5bc 8557 a2bc
000000e0: 9a19 8bbe 8903 903e 3242 713d c08a 90be
000000f0: 035c c5bd 919f 67bd 943d 3a3e f9e4 0cbf
00000100: 5a4a ffbe a432 44bd 0424 2abf 730a d5be
00000110: 7ce8 d9be 78c2 06be def9 1abf ab0e 1abe
00000120: 1e87 2dbe e761 a4bd a6ba 90bd 038e 1c3e
00000130: e367 4fbe 4122 83bd 8e6d 03bf 12cc 87bd
00000140: 4c52 cbbd f811 2cbf 2b3b 88be c792 903d
00000150: caa3 06bf 2ccc 68be 5ea9 0abf 0728 89bd
00000160: cdc2 563c a452 6dbe d779 29bf 9a95 b53d
00000170: c5a2 e3be 2664 e13c 05b5 33bf 4c18 0cbf
00000180: afe1 b23b 8754 14bf daca 8fbe 13e2 36be
00000190: 3014 1abf 6d55 933d c46e 5f3d 5cf8 71bd
000001a0: 7daf 88bd dea8 16bf 2083 11bf 08e8 e8bd
000001b0: 8ab9 64bd ffa4 98bd ace1 183e c025 19be
000001c0: 7160 f2be d1e9 053e b612 e13d 1905 05bf
000001d0: 48fd c6bd 3c4a 6bbd a0e5 d2bd 88c4 fabd
000001e0: b7b6 053e c118 33bf fef1 9cbd 627a 8ebd
000001f0: 714d 53bd 3726 2b3d 4712 853e 909a b4bd
00000200: b35c aa3d 404a 6fbd e142 46be 5fd4 e6be
00000210: 8555 6b3e 0f18 04bf 6b32 5ebd 50c7 0fbf
00000220: e26b e03d 19f3 03bf 5985 a83e d354 3c3e
00000230: c0a3 2dbd 5924 e23d 0107 68bd b39b 0dbd
00000240: 0d8f e23d 5a86 56be 94f2 44be 7af8 2fbe
00000250: 5ac1 d13d e98c 38bd 97e4 15be d732 04be
00000260: 15be d2be b8dc 98be e55c 1abf fa75 0c3e
00000270: 70a5 e3bd 6a38 bd3c 3bfa 65bd 3db8 7fbd
00000280: 1890 3dbe 32bb ffbe 9604 55be 4c56 8bbe
00000290: b682 50bd 998c 09bf cc86 49bb 879b 14be
000002a0: 27b7 d7be 60f9 50bd 2b76 98bc 28e1 a8bd
000002b0: dbe2 24bf e5b5 263e 7b5b 56bc 8e4d 473e
000002c0: 0406 c3bd bd1f f13d 1db7 26bf cdad 30be
000002d0: c780 d3be 9074 9a3d 3366 603d 0ae5 15be
000002e0: bde6 4b3d 9421 dd3d 1e5c 9dbe 551c a3bd
000002f0: 6d9f a7be 151d 353e b9c1 29bf 7bbf 44be
00000300: 7273 2b3e 3b4f 2bbf b399 e7be a242 40bd
00000310: 7f13 18bd 3a89 1cbf d7ff 47be 1c94 16bf
00000320: 0e50 06be eb03 bbbd 9c9e 3fbe 65df debd
00000330: 2009 97be a841 1bbd 8bb0 7fbe 10e6 64bc
00000340: fd46 12be 7fce e33d ec85 72be bf2c 5bbd
00000350: 20ac 23be db66 973d 60c9 d4be 8aa3 bc3d
00000360: d301 00bf 4e53 06bf dc51 03bf fd58 30bf
00000370: 3a99 3c3d d20b 67be 2b59 21be a879 aabe
00000380: fc2b e7be 9663 01bf 6f5c 15be c0c5 3abf
00000390: ae35 adbd c946 97bd d1fe 63bc b7d7 2fbf
000003a0: 48f6 923e e3e5 9fbd 99f0 25bf f1e6 0bbf
000003b0: 0f99 143e cd14 28bf 65e3 923d f50a ad3e
000003c0: e09e febe bb2e a9be 9709 3ebe c07a fbbd
000003d0: 3969 aabd 9ae3 16bf 9675 d9be bc1e 1b3c
000003e0: 1672 4abc a971 88bd 901b e8bd 55f3 8bbe
000003f0: 8bdd 3a3e 44c2 55be c25c a8bc fc30 81be

network.3.weight f4 [256, 256]
-0.047958642 -0.01779103 -0.05562107 0.13784711 0.30495518 -0.85999054 -2.10174 -0.04293199
-0.06010221 -0.04239627 -1.4177743 -0.08065983 -0.4575077 -0.023293339 0.15928374 -0.43566433
0.13225207 -2.1113482 -0.05311998 0.020877235 -0.024092898 0.5018184 0.027150288 -0.56824213
0.027586043 -0.09193366 0.051036 -0.0065824986 -0.111532904 -0.2802687 -0.07104899 -0.12853952
-1.9134837 -0.11983218 -0.5573831 -0.0060086846 -0.022229366 -0.21672945 0.11062037 0.0056275874
0.004299809 0.67313886 0.5334319 0.01516138 0.1760688 -0.039560884 -0.1615038 0.006381698
-1.7773196 0.0029021055 -0.0332635 0.089098446 -0.0008546561 -0.45881605 0.019642733 0.015608595
-0.22639053 -0.8725702 -1.7927052 0.07876486 -0.15788671 0.101241335 0.08982293 0.04846315
0.060990877 -0.1977192 -0.031888016 -0.0017386377 -0.046133604 -0.44951588 -0.04012444 -0.16046415
0.20175368 -0.5375627 -0.17271611 -0.0057798326 -0.21356557 -0.37417322 -0.036240093 0.3475595
-0.29670474 -0.00034810603 -0.23519953 -0.2880678 -0.061520703 0.010951757 0.030447118 0.08126783
-0.15924215 -0.22061177 -0.061561503 -1.7169348 0.3020353 0.02756975 -0.024132565 0.046955504
-0.08148449 -0.042923152 -0.12355368 -0.039830245 -0.13148066 -0.09084375 -0.0456718 0.39375198
0.017344307 -0.038894862 0.008320436 0.0061842725 -0.1367179 -0.029819941 -0.11472245 0.035486236
0.0075568333 0.10533635 -0.35369623 -0.054301083 -0.18047883 0.45643348 -0.039562665 -0.23733424
0.14304413 0.02122435 0.35906112 0.077067085 -0.30473593 -1.822045 -0.09981535 0.04180731
-1.6859553 -0.13359639 -0.26580557 -0.045952007 -0.55282927 0.06718229 -0.51923573 0.019826729
-2.0547268 -0.05305431 -0.79015183 0.043994814 -0.60612816 -1.8414035 -0.65954053 -0.3573823
-0.3859815 -0.31985563 -0.33812797 -0.024756223 0.06121803 0.37543225 -0.2216149 -0.03563142
0.021884784 -0.13700947 0.025711782 -0.009053915 -0.0143086165 0.034586284 0.37947047 -0.008184602
-0.20906173 -0.048762918 -0.05818019 -0.029239874 -0.012665014 -0.0067242756 -0.30539367 -0.08842121
0.026787126 0.023970008 -1.4970901 -0.13079624 -0.040309258 -0.016484458 -0.1057516 0.06540197
-0.34373012 0.032693084 -0.037146404 -0.1485971 -0.0021613783 -0.054622315 0.007040779 -0.062146388
-1.9303588 -1.6316102 -0.11609559 0.03906367 -0.04003167 -0.07483122 -0.047972783 -0.2825907
0.07378793 -0.02754569 -0.055605292 -0.1158462 -1.5641215 -0.05465007 0.08781139 -0.049255013
0.10436932 -0.01515556 0.005758807 -0.06846426 0.028086202 -0.42948446 -0.17457199 -1.4677254
-0.13567789 -1.8386364 -0.058721013 -0.16388777 -0.05938205 -0.3784862 -0.05783444 -1.8494053
-0.029955223 0.037592195 0.024568304 0.17368932 -2.0404737 0.033996306 -0.17568034 0.015141133
-0.059199437 -0.015923522 -0.058383472 0.15584354 0.00696467 -0.9889559 -1.5128917 0.015389577
-0.40227273 -0.014362376 0.053197086 0.038297206 -0.48298803 -0.0038764551 -2.034413 -1.0131923
0.10004912 -0.056841113 -0.021357426 -0.009624369 -0.4838662 0.014993079 0.05498869 -0.13709454
-1.2690376 -0.034672096 0.028474107 0.016572446 0.038762465 -0.040321417 -0.08210442 0.011991754
00000000: 4870 44bd 7fbe 91bc ebd2 63bd cb27 0d3e
00000010: 1623 9c3e 5728 5cbf e882 06c0 74d9 2fbd
00000020: bc2d 76bd b6a7 2dbd a179 b5bf fb30 a5bd
00000030: 733e eabe acd1 bebc 471b 233e 650f dfbe
00000040: 166d 073e 5420 07c0 5694 59bd bc06 ab3c
00000050: 785e c5bc 2c77 003f 486a de3c 5178 11bf
00000060: 20fc e13c b747 bcbd 200b 513d 00b2 d7bb
00000070: 5d6b e4bd 617f 8fbe 2282 91bd dd9f 03be
00000080: 09ed f4bf 936a f5bd a9b0 0ebf 80e4 c4bb
00000090: 5c1a b6bc 53ee 5dbe ef8c e23d a067 b83b
000000a0: 6ae5 8c3b d452 2c3f fe8e 083f 7067 783c
000000b0: 614b 343e 980a 22bd 4161 25be 901d d13b
000000c0: 357f e3bf 4031 3e3b 4f3f 08bd 3f79 b63d
000000d0: 000b 60ba f0e9 eabe cce9 a03c 31bb 7f3c
000000e0: ebd2 67be c360 5fbf 5d77 e5bf 794f a13d
000000f0: 0ead 21be 9e57 cf3d 16f5 b73d 4c81 463d
00000100: 92d1 793d e776 4abe 029d 02bd 00e3 e3ba
00000110: 97f6 3cbd f226 e6be 8659 24bd b750 24be
00000120: 8498 4e3e b69d 09bf 7edc 30be c064 bdbb
00000130: efb0 5abe a293 bfbe 7e70 14bd 52f3 b13e
00000140: afe9 97be 0082 b6b9 25d8 70be 9f7d 93be
00000150: 22fd 7bbd 006f 333c 3c6c f93c c06f a63d
00000160: 6010 23be 0de8 61be ea27 7cbd 85c4 dbbf
00000170: 5fa4 9a3e f5d9 e13c a8b1 c5bc 6a54 403d
00000180: 57e1 a6bd 30d0 2fbd b609 fdbd 0a25 23bd
00000190: dea2 06be 4a0c babd 5a12 3bbd dc99 c93e
000001a0: a615 8e3c 3850 1fbd 7052 083c 70a5 ca3b
000001b0: c7ff 0bbe f348 f4bc 9bf3 eabd 045a 113d
000001c0: 509f f73b 96ba d73d ac17 b5be d06a 5ebd
000001d0: 71cf 38be a6b1 e93e 760c 22bd bf07 73be
000001e0: 297a 123e b0de ad3c dcd6 b73e 59d5 9d3d
000001f0: 5906 9cbe c538 e9bf fd6b ccbd 243e 2b3d
00000200: 62cd d7bf 7ecd 08be ab17 88be 2c38 3cbd
00000210: 3886 0dbf de96 893d a2ec 04bf aa6b a23c
00000220: a580 03c0 7a4f 59bd 6447 4abf e833 343d
00000230: 372b 1bbf 1cb3 ebbf a6d7 28bf d0fa b6be
00000240: 5e9f c5be 1ec4 a3be 1c1f adbe 90cd cabc
00000250: c2bf 7a3d a838 c03e 04ef 62be 40f2 11bd
00000260: b847 b33c 364c 0cbe 84a1 d23c df56 14bc
00000270: b06e 6abc 59aa 0d3d f449 c23e b518 06bc
00000280: 4714 56be a0bb 47bd 5a4e 6ebd 7688 efbc
00000290: eb80 4fbc 5057 dcbb 8f5c 9cbe 2e16 b5bd
000002a0: ad70 db3c c05c c43c a6a0 bfbf 73ef 05be
000002b0: 521b 25bd 6a0a 87bc 4b94 d8bd 78f1 853d
000002c0: 65fd afbe 2fe9 053d d426 18bd d729 18be
000002d0: e9a5 0dbb a6bb 5fbd 56b6 e63b 368d 7ebd
000002e0: ff15 f7bf 9ad8 d0bf 86c3 edbd 3a01 203d
000002f0: 40f8 23bd 1c41 99bd 1c7f 44bd baaf 90be
00000300: 201e 973d 80a7 e1bc 60c2 63bd c640 edbd
00000310: 2235 c8bf c0d8 5fbd 75d6 b33d a0bf 49bd
00000320: 95bf d53d 074f 78bc 60b4 bc3b fd36 8cbd
00000330: 0915 e63c 63e5 dbbe 00c3 32be 6dde bbbf
00000340: 25ef 0abe 7058 ebbf 7285 70bd 32d2 27be
00000350: 983a 73bd f1c8 c1be cee3 6cbd 50b9 ecbf
00000360: a864 f5bc 46fa 193d 7843 c93c 9ddb 313e
00000370: 1f97 02c0 b63f 0b3d 8ce5 33be 8412 783c
00000380: 1c7b 72bd 0c72 82bc 8223 6fbd 7395 1f3e
00000390: e337 e43b 372c 7dbf 6fa6 c1bf 9024 7c3c
000003a0: b1f6 cdbe 2c50 6bbc 30e5 593d 88dd 1c3d
000003b0: 354a f7be 200c 7ebb d333 02c0 49b0 81bf
000003c0: 8ee6 cc3d 3ad2 68bd c5f5 aebc 88af 1dbc
000003d0: 50bd f7be 88a5 753c d23b 613d 8362 0cbe
000003e0: d36f a2bf 5404 0ebd 8842 e93c f0c2 873c
000003f0: 64c5 1e3d 1228 25bd 5d26 a8bd 1079 443c

network.3.bias f4 [256]
0.2373774 -0.0041893004 0.21988463 -0.06382376 0.28099108 0.005161954 0.21979828 0.29170105
-0.05990574 0.27964544 -0.030414972 0.112964995 0.21025331 0.2659328 0.17156726 -0.01619642
0.21651693 0.23944314 0.19702527 0.1950972 -0.045267936 0.22269435 -0.07074052 -0.018862695
0.19372429 0.38363084 -0.072859086 0.2630621 0.20750652 0.29575554 0.1502659 -0.014036485
0.123779714 0.17451596 0.12065117 0.20430304 0.29324996 -0.06767682 -0.02395458 0.15197423
0.059199408 0.1702998 -0.02219779 0.22884518 0.14688344 0.29690364 0.24716648 -0.014014824
-0.019929264 -0.044587024 -0.026872726 -0.034028124 -0.06808789 -0.04975264 0.23988812 0.2558258
0.1979881 0.23946033 0.31797507 -0.031441864 0.3131767 -0.0041672797 -0.06580674 0.092938475
-0.023415849 0.25147408 -0.045379788 0.2693268 -0.012036497 -0.0005764821 -0.0047117607 -0.052774567
0.021725371 -0.05408407 0.23327658 -0.0684667 -0.03351959 0.2225827 0.23346083 0.25411344
-0.010801933 -0.070272915 0.32695654 -0.025134813 -0.0732268 0.26237082 -0.015398743 -0.04483567
0.182019 -0.030998075 -0.021941613 -0.03511973 -0.018143272 0.10977389 -0.04785118 0.21384662
0.046749886 0.21853542 0.0037131829 -0.0020525407 0.3616959 0.18390611 -0.010982045 -0.011830687
0.19793946 0.0028797602 0.2988941 0.28219214 0.17681582 -0.026467877 0.13199046 0.111950524
0.0025158236 0.35328096 0.04875136 0.18631713 -0.06210485 -0.00840285 0.032418877 0.29990673
-0.07337315 0.2032417 0.03354779 -0.058553834 0.23620781 0.23802567 0.14558715 -0.0043871524
0.12886591 -0.05715779 0.1879567 -0.03990823 -0.0477799 0.20623864 -0.04161705 -0.01885617
0.063865006 0.32796815 0.30603364 -0.044837918 -0.06335852 0.24442106 0.2343028 -0.0042388323
0.1684002 0.1946606 -0.043526113 -0.012381979 0.15093328 0.012192304 -0.070018604 0.16769294
0.25671265 0.2547909 0.2082733 0.22159748 0.15890178 0.26565805 0.2153513 -0.016157186
0.2913167 0.24305761 0.08350143 -0.020459598 -0.058857422 -0.016211318 0.32528803 0.18191369
-0.06404948 -0.06577913 0.27917624 -0.07458904 -0.04871332 0.0027405538 0.35876933 0.2424602
-0.05719493 -0.06062045 -0.021183234 -0.015990201 -0.05117861 -0.015097589 -0.059126437 0.24820478
0.18921924 0.2204642 -0.062305104 -0.047754455 -0.0502754 -0.048083518 0.26641452 -0.022293918
-0.026255438 0.21310101 -0.05592498 0.18107621 0.21173799 0.28807843 -0.007294462 -0.0671518
0.09150267 -0.07180568 0.18804666 -0.0447292 0.0007069908 -0.03851986 -0.037014328 -0.028238157
0.2435723 0.26828426 0.38185093 -0.02095702 0.19544809 0.26121613 0.21323958 -0.01786112
0.1518497 -0.038314033 0.24845414 0.253545 -0.031447295 0.24276964 -0.059107203 -0.036737442
0.1350397 0.047747444 -0.060943812 0.2139282 -0.09724412 -0.041982412 0.040599447 -0.03221009
0.14388798 -0.05966613 0.2511997 0.2583198 -0.05794957 0.17247348 -0.039703164 0.2272146
-0.07812828 0.22965808 -0.05556892 -0.049731247 0.06641912 0.1325178 -0.0048810514 0.25798142
0.16131233 -0.06909412 -0.019803986 0.047462758 0.24390994 0.18827887 -0.005951299 0.1952488
00000000: 1013 733e 6646 89bb 7029 613e 08b6 82bd
00000010: 10de 8f3e 9c25 a93b cd12 613e d759 953e
00000020: b95f 75bd b02d 8f3e d228 f9bc 315a e73d
00000030: a54c 573e 5828 883e 54af 2f3e 5bae 84bc
00000040: 9db6 5d3e 9530 753e fec0 493e 8fc7 473e
00000050: df6a 39bd fd09 643e 68e0 90bd f085 9abc
00000060: a95f 463e 436b c43e 2537 95bd 13b0 863e
00000070: 977c 543e 456d 973e 4edf 193e 49f9 65bc
00000080: 3880 fd3d 50b4 323e f617 f73d d134 513e
00000090: dc24 963e 259a 8abd 653c c4bc 229f 1b3e
000000a0: 147b 723d 1263 2e3e 24d8 b5bc 6456 6a3e
000000b0: 9d68 163e c103 983e 3619 7d3e 6f9e 65bc
000000c0: b242 a3bc e2a0 36bd 3124 dcbc 1361 0bbd
000000d0: aa71 8bbd 6dc9 4bbd 3ba5 753e 99fb 823e
000000e0: 64bd 4a3e 1735 753e a1cd a23e 2fc9 00bd
000000f0: b258 a03e ad8d 88bb afc5 86bd 8756 be3d
00000100: 98d2 bfbc 36c1 803e 28e0 39bd 34e5 893e
00000110: ba34 45bc 0f1f 17ba 1d65 9abb 252a 58bd
00000120: 68f9 b13c 4287 5dbd 0ee0 6e3e 4538 8cbd
00000130: d64b 09bd b8ec 633e 5b10 6f3e 281b 823e
00000140: 97fa 30bc 3feb 8fbd d966 a73e 86e7 cdbc
00000150: eff7 95bd 7855 863e 024b 7cbc 9ca5 37bd
00000160: 3063 3a3e adef fdbc e6be b3bc b5d9 0fbd
00000170: 33a1 94bc 22d1 e03d 99ff 43bd 9cfa 5a3e
00000180: cf7c 3f3d c0c7 5f3e df58 733b eb83 06bb
00000190: 3430 b93e e251 3c3e 09ee 33bc 7fd5 41bc
000001a0: a4b0 4a3e 5cba 3c3b a608 993e 7d7b 903e
000001b0: 350f 353e 29d3 d8bc 8228 073e 5146 e53d
000001c0: 84e0 243b 3ee1 b43e 82af 473d ebc9 3e3e
000001d0: a861 7ebd 1bac 09bc a8c9 043d 608d 993e
000001e0: a944 96bd 981e 503e 6869 093d 25d6 6fbd
000001f0: 76e0 713e 00bd 733e cc14 153e 1ac2 8fbb
00000200: 6df5 033e 491e 6abd b977 403e d076 23bd
00000210: dbb4 43bd 3930 533e a476 2abd 4178 9abc
00000220: a8cb 823d 71eb a73e 71b0 9c3e f7a7 37bd
00000230: 1dc2 81bd 8449 7a3e 13ed 6f3e e7e5 8abb
00000240: 1a71 2c3e 1c55 473e 7048 32bd c9dd 4abc
00000250: 418e 1a3e 3bc2 473c ea65 8fbd b3b7 2b3e
00000260: d76f 833e f473 823e 9945 553e 73ea 623e
00000270: 26b7 223e 5504 883e 0d85 5c3e 135c 84bc
00000280: 7627 953e 18e4 783e cc02 ab3d e39a a7bc
00000290: 7b14 71bd 99cd 84bc 278c a63e 9547 3a3e
000002a0: 602c 83bd 35b7 86bd 30f0 8e3e 23c2 98bd
000002b0: 9e87 47bd dd9a 333b 9db0 b73e 7d47 783e
000002c0: 3b45 6abd 264d 78bd 7688 adbc e2fd 82bc
000002d0: aaa0 51bd e15b 77bc 902e 72bd 6529 7e3e
000002e0: b0c2 413e 5ec1 613e a333 7fbd 2d9a 43bd
000002f0: 94ed 4dbd 39f3 44bd 7c67 883e bca1 b6bc
00000300: a515 d7bc 2737 5a3e 9811 65bd 0b6c 393e
00000310: d8d1 583e 047f 933e 6206 efbb e286 89bd
00000320: c065 bb3d db0e 93bd 4e8f 403e f735 37bd
00000330: 5955 393a 00c7 1dbd 569c 17bd b553 e7bc
00000340: 046b 793e 8e5c 893e f781 c33e 0eae abbc
00000350: 8b23 483e 1fbe 853e 7a5b 5a3e 7c51 92bc
00000360: 7d7e 1b3e 2def 1cbd c36a 7e3e a6d0 813e
00000370: e1ce 00bd 9b98 783e 651a 72bd 007a 16bd
00000380: d947 0a3e d392 433d 38a0 79bd fe0f 5b3e
00000390: ed27 c7bd c0f5 2bbd 9b4b 263d baee 03bd
000003a0: 5f57 133e 7964 74bd 3f9d 803e 7e42 843e
000003b0: 875c 6dbd e39c 303e c99f 22bd f2aa 683e
000003c0: b801 a0bd 7d2b 6b3e 3c9c 63bd feb2 4bbd
000003d0: bf06 883d bfb2 073e 3af1 9fbb 2416 843e
000003e0: 0f2f 253e 3881 8dbd f83b a2bc 4f68 423d
000003f0: 87c3 793e 2dcc 403e 1d03 c3bb 4def 473e

network.6.weight f4 [256, 256]
0.5727493 -0.5784518 0.03104403 0.043938395 -0.31727532 -0.24220699 -0.06944046 -0.44369626
-0.058800444 -0.43262756 -0.04883048 -0.41263786 -0.524317 -0.43663657 0.030352699 -0.010451645
-0.022170745 -0.5242639 -0.58221227 0.17832425 -0.043030404 -0.0656082 -0.052158497 -0.037522763
0.26245755 0.107336074 -0.03296113 -0.5146047 0.03726994 -0.2055445 -0.082420066 0.03774798
-0.47958004 -0.09033314 -0.3939444 -0.6171566 0.002791901 0.0106839435 0.025851175 -0.073408194
0.014842582 -0.5245623 0.03257084 -0.08792467 -0.3490675 -0.02699142 -0.2001009 0.030403666
-0.04934427 -0.034564815 0.018083844 -0.03919415 0.043962054 -0.042037535 0.20700383 -0.48876667
-0.527457 -0.5375836 -0.20932387 0.02742587 -0.12952507 0.002692163 0.059353895 -0.29434353
0.03245123 -0.31429377 -0.545843 -0.71504575 0.0544011 0.022295892 -0.040813625 -0.018761538
-0.39180222 -0.007023973 0.1421173 0.007816806 -0.6021109 0.02135595 -0.34756154 -0.2284644
0.045823403 -0.028057499 -0.19176748 0.023303542 -0.018794062 -0.12761477 0.054441974 0.01595144
-0.10448801 0.024037495 -0.031633254 0.059195157 0.020881623 -0.51883614 -0.05112508 -0.047909804
0.19664408 -0.23387219 -0.6341713 0.049870975 -0.28429943 0.19095273 -0.020265384 0.0016914979
-0.34988132 -0.612146 0.08286792 -0.3832071 -0.050969157 -0.06225349 -0.08880687 0.42301762
-0.031917084 -0.18958619 -0.6177878 -0.31240776 -0.0027057454 -0.009610605 0.06072096 -0.16224283
-0.030359551 0.23408546 -0.2065838 -0.038268425 -0.2801284 -0.13799132 -0.10414727 -0.029034205
0.071334936 0.04763051 -0.06496913 -0.049842022 0.012843147 -0.43194818 -0.04832825 -0.0070323953
0.0404831 0.24564071 -0.317047 -0.035768926 -0.048557937 -0.2165788 -0.62762177 0.02291359
-0.3044832 -0.33299154 -0.009523253 -0.028201401 -0.38323435 0.029529741 -0.049582317 0.09696291
-0.07190084 -0.26220277 -0.026598742 0.26052257 -0.3419665 -0.24865878 -0.2584087 0.0027558059
0.26083156 -0.16988759 -0.3149717 0.060898133 -0.042260587 0.021592237 -0.73208094 -0.11062473
0.041397687 -0.051703505 -0.101040825 0.034971967 0.036652863 -0.016482748 0.16688184 -0.52356017
0.0038485974 0.054255825 -0.025536738 -0.050631642 -0.05642917 0.0041381237 0.030924805 -0.48988938
-0.24224207 -0.082987845 0.07785277 -0.0068334895 -0.0020442754 0.033313945 -0.4892449 0.072201714
-0.04299286 -0.07102524 0.027083606 0.07164763 -0.2877075 0.09131878 0.0383274 -0.05864436
-0.12049902 -0.0049967095 0.13050458 -0.049246658 -0.015104689 0.00029725747 0.022828564 0.036629748
-0.60798323 -0.6016006 0.11900514 -0.023662211 -0.09080122 -0.25540784 -0.20609696 -0.034092188
0.39650908 -0.009117059 0.187845 -0.01690734 -0.026766049 -0.6983819 -0.0030461177 -0.009817705
-0.0012713384 -0.22873536 -0.311968 -0.015346306 -0.0043979124 -0.005392267 -0.27554652 0.020235788
-0.03694864 -0.006992303 -0.038705654 -0.16290812 -0.04546202 0.15288474 0.046019875 -0.13590685
0.052423973 -0.5614708 -0.025007665 -0.017024674 -0.079453304 0.120889716 0.026253566 -0.7177423
-0.31916198 0.050324544 -0.004071012 -0.0098984605 -0.071404524 0.089688085 -0.03355217 -0.5189502
00000000: b39f 123f 6b15 14bf 0d50 fe3c bff8 333d
00000010: e971 a2be 1c05 78be cd36 8ebd 282c e3be
00000020: bcd8 70bd 5c81 ddbe 7802 48bd 4545 d3be
00000030: a439 06bf d48e dfbe 39a6 f83c 603d 2bbc
00000040: 6c9f b5bc 2936 06bf dd0b 15bf a29a 363e
00000050: a640 30bd 985d 86bd 26a4 55bd 78b1 19bd
00000060: d660 863e 04d3 db3d 4002 07bd 22bd 03bf
00000070: 5da8 183d 427a 52be dacb a8bd a09d 1a3d
00000080: 848b f5be 9500 b9bd 15b3 c9be fafd 1dbf
00000090: 53f8 363b b50b 2f3c d8c5 d33c 0957 96bd
000000a0: 4d2e 733c b749 06bf 0069 053d d911 b4bd
000000b0: fab8 b2be 1c1d ddbc 40e7 4cbe 1c11 f93c
000000c0: 381d 4abd d693 0dbd 9224 943c 0c8a 20bd
000000d0: 8e11 343d 8d2f 2cbd d0f8 533e a03f fabe
000000e0: 6c07 07bf 149f 09bf ff58 56be 38ac e03c
000000f0: 38a2 04be 006f 303b 121d 733d 32b4 96be
00000100: 95eb 043d 1deb a0be 5ebc 0bbf 3d0d 37bf
00000110: b0d3 5e3d e0a5 b63c 302c 27bd ccb1 99bc
00000120: 4d9a c8be 5b29 e6bb 3387 113e 1012 003c
00000130: f123 1abf acf2 ae3c 96f3 b1be 92f2 69be
00000140: 52b1 3b3d d7d8 e5bc b25e 44be 12e7 be3c
00000150: 01f6 99bc 72ad 02be 8cfe 5e3d 98ac 823c
00000160: cffd d5bd 48ea c43c df91 01bd 9f76 723d
00000170: f00f ab3c 72d2 04bf 8868 51bd 123d 44bd
00000180: 115d 493e 317c 6fbe 0d59 22bf 8245 4c3d
00000190: b28f 91be 1d89 433e 9703 a6bc 40b5 dd3a
000001a0: a523 b3be 9ab5 1cbf a8b6 a93d b933 c4be
000001b0: 09c5 50bd 84fd 7ebd 60e0 b5bd c495 d83e
000001c0: 7dbb 02bd e222 42be 5727 1ebf e9f3 9fbe
000001d0: e052 31bb cd75 1dbc 8bb6 783d fc22 26be
000001e0: 98b4 f8bc 19b4 6f3e b48a 53be 5abf 1cbd
000001f0: fd6c 8fbe 994d 0dbe 2a4b d5bd 24d9 edbc
00000200: 0d18 923d 3618 433d 890e 85bd 2627 4cbd
00000210: 106c 523c 5028 ddbe d8f3 45bd 0270 e6bb
00000220: 9bd1 253d 3d89 7b3e fc53 a2be 7082 12bd
00000230: b0e4 46bd d5c6 5dbe d2ab 20bf 48b5 bb3c
00000240: 39e5 9bbe de7d aabe 6b07 1cbc a006 e7bc
00000250: 4b37 c4be 5be8 f13c d416 4bbd 7d94 c63d
00000260: bf40 93bd 713f 86be 9be5 d9bc 3763 853e
00000270: 3c16 afbe 68a0 7ebe 254e 84be c09a 343b
00000280: b78b 853e 03f7 2dbe f843 a1be 5270 793d
00000290: 7019 2dbd 34e2 b03c a869 3bbf 388f e2bd
000002a0: 9f90 293d 0ec7 53bd 7eee cebd c43e 0f3d
000002b0: 5021 163d d406 87bc 13e3 2a3e 0a08 06bf
000002c0: c038 7c3b 5b3b 5e3d 6c32 d1bc 2063 4fbd
000002d0: 4622 67bd 1999 873b 0456 fd3c c8d2 fabe
000002e0: 4e0e 78be 88f5 a9bd 4671 9f3d 77eb dfbb
000002f0: 40f9 05bb 3474 083d 4f7e fabe 7ede 933d
00000300: 4819 30bd ae75 91bd 70de dd3c febb 923d
00000310: 664e 93be 5705 bb3d 31fd 1c3d 1235 70bd
00000320: 31c8 f6bd 70bb a3bb fea2 053e ddb6 49bd
00000330: a879 77bc 39d9 9b39 f802 bb3c 1309 163d
00000340: caa4 1bbf 7f02 1abf f8b8 f33d 41d7 c1bc
00000350: fdf5 b9bd d1c4 82be 150b 53be 40a4 0bbd
00000360: 3d03 cb3e b85f 15bc 715a 403e 4381 8abc
00000370: 7944 dbbc 28c9 32bf 60a1 47bb 70da 20bc
00000380: 0aa3 a6ba 9a39 6abe 45ba 9fbe 136f 7bbc
00000390: 5d1c 90bb 9db1 b0bb 6f14 8dbe 86c5 a53c
000003a0: 7557 17bd b01f e5bb d289 1ebd 63d1 26be
000003b0: 6236 3abd d18d 1c3e 567f 3c3d 2a2b 0bbe
000003c0: 85ba 563d 8dbc 0fbf e0dc ccbc 5477 8bbc
000003d0: 6ab8 a2bd 0795 f73d b811 d73c f6bd 37bf
000003e0: 3369 a3be 1c21 4e3d 2066 85bb 272d 22bc
000003f0: 893c 92bd 63ae b73d 006e 09bd ecd9 04bf

network.6.bias f4 [256]
1.2949725 -0.054378178 0.624822 0.83889174 -0.05668319 -0.15590431 0.96537334 1.2593046
0.9153346 0.08518587 0.65885687 -0.4151621 0.2789926 0.8211916 0.5912377 1.6428148
1.3919772 -0.08813651 0.3196707 0.9481349 0.8812243 -0.33305427 -0.106234476 0.9551431
1.2243956 1.28736 -0.08076874 1.1866517 -0.058937892 0.9118509 0.8774462 0.9566237
1.5409801 0.7541064 1.0610187 0.9010261 0.55345595 0.7443807 0.90085953 0.864529
0.0953897 0.83284354 0.6907945 0.7675639 0.7616349 0.4442003 1.3104217 -0.069356896
0.93217456 0.79679215 0.8650818 0.58259237 0.6141804 1.0201397 0.8087068 0.90007323
0.3611876 1.1963834 0.7168867 0.819475 0.86166185 0.019097954 0.9566587 1.0252968
0.5561426 -0.039914224 0.7791909 1.4370582 0.84883225 0.6535442 1.3123564 0.4366915
0.6084596 0.93768615 0.19665845 0.8341079 0.9112582 0.772903 0.67974293 -0.07440829
0.06365072 1.2585876 0.8962028 -0.03122335 1.0368208 0.31145918 1.949792 0.9338355
1.2686323 0.8814092 0.9371012 0.9711691 -0.05149257 0.8555767 1.0435512 0.8550985
0.8558933 0.7612165 1.1339649 0.84360033 1.2444626 0.89776766 0.000113892864 0.23616469
0.05751031 0.95438683 0.15956633 1.0535666 0.7408358 -0.042332698 0.8018618 0.886158
0.9704311 -0.09053963 0.8849198 0.7642751 0.5672305 -0.061718043 1.1947284 0.7862854
2.1796017 1.6111748 0.5986549 0.913699 0.87861484 0.8998869 -0.048746064 0.72018695
0.74216306 0.71343946 0.7407531 1.7890517 1.1660812 0.011238119 1.537935 -0.09322579
0.9036006 0.94221497 0.9045377 0.033683684 0.8011915 0.086887844 0.67114127 0.9335313
0.71941024 1.0121232 0.987746 0.4605212 1.8401991 0.9234993 0.19050984 0.765112
0.96479654 -0.029291112 0.8505385 0.9489442 -0.11528634 1.4060435 0.62918144 1.2658995
-0.037463963 1.49637 0.7112854 -0.0769974 0.8376008 1.0043641 0.6976858 0.9460713
0.90226305 0.86957765 0.6158272 0.9645049 0.8926644 0.7315867 0.9978976 -0.08109515
0.9571342 1.259115 1.0775925 0.7472231 -0.044121798 -0.0741737 0.9204839 0.8206333
0.39213288 0.97030103 -0.115403965 0.8070957 0.6325029 -0.105369754 -0.02588301 0.2147539
0.9173234 -0.09918587 1.295775 0.60971075 0.8130252 0.8322722 1.0663371 -0.017063117
2.1726477 0.91479975 0.9493592 0.45452723 2.2294357 0.991298 0.54538053 0.11909151
1.184265 0.93475085 0.95679 0.6364227 0.68507963 -0.08753635 0.70513284 0.94179946
0.7758081 0.89909875 -0.071971774 0.21937548 0.83828384 1.128027 0.8312927 0.36364508
0.17650683 -0.061373476 0.73751956 0.7431085 0.020003589 -0.029112201 -0.059253104 -0.027048396
0.1152834 1.5307308 0.16484162 0.86886317 0.8776292 0.83850443 0.6464455 0.86753744
0.52984375 0.5070852 0.936768 0.7207733 0.53465366 0.8294616 0.7574697 0.7604914
0.8985576 0.9847929 0.91781396 0.54846776 0.82399535 0.9447229 1.5998356 -0.10485537
00000000: a9c1 a53f a7bb 5ebd 56f4 1f3f 9cc1 563f
00000010: a22c 68bd 61a5 1fbe b522 773f e530 a13f
00000020: 5e53 6a3f ee75 ae3d d8aa 283f 2090 d4be
00000030: 1ed8 8e3e 9d39 523f 5b5b 173f c147 d23f
00000040: 4f2c b23f ea80 b4bd e1ab a33e f8b8 723f
00000050: ea97 613f 1786 aabe 7691 d9bd 4284 743f
00000060: ffb8 9c3f 36c8 a43f 156a a5bd 34e4 973f
00000070: dc68 71bd 106f 693f 50a0 603f 4ae5 743f
00000080: d63e c53f 1e0d 413f 76cf 873f a6a9 663f
00000090: 4aaf 0d3f bc8f 3e3f bb9e 663f c651 5d3f
000000a0: ad5b c33d 3c35 553f e9d7 303f 117f 443f
000000b0: 81fa 423f 396e e33e e6bb a73f fd0a 8ebd
000000c0: fea2 6e3f 92fa 4b3f 0076 5d3f c624 153f
000000d0: ed3a 1d3f f093 823f 6907 4f3f 336b 663f
000000e0: 95ed b83e 1723 993f e385 373f 1dc9 513f
000000f0: df95 5c3f 5073 9c3c 96e7 743f ed3c 833f
00000100: 5d5f 0e3f 197d 23bd 0e79 473f 86f1 b73f
00000110: 124d 593f ac4e 273f 4bfb a73f 0796 df3e
00000120: 02c4 1b3f 330c 703f d560 493e 1888 553f
00000130: 3848 693f f9dc 453f a203 2e3f 6063 98bd
00000140: 4f5b 823d 6619 a13f 8c6d 653f 1cc8 ffbc
00000150: 8bb6 843f 9477 9f3e c992 f93f d80f 6f3f
00000160: 8b62 a23f 09a4 613f dde5 6f3f 8a9e 783f
00000170: e0e9 52bd 1307 5b3f 1693 853f bce7 5a3f
00000180: d31b 5b3f 16df 423f c325 913f 31f6 573f
00000190: 8d4a 9f3f 1ad4 653f c4d9 ee38 28d5 713e
000001a0: ee8f 6b3d b252 743f 5b65 233e 45db 863f
000001b0: 6aa7 3d3f 0d65 2dbd d146 4d3f 40db 623f
000001c0: 2c6e 783f d76c b9bd 1b8a 623f 88a7 433f
000001d0: 0536 113f 0fcc 7cbd dcec 983f 004a 493f
000001e0: 987e 0b40 fa3a ce3f 7341 193f 2de8 693f
000001f0: e7ec 603f fd5e 663f f4a9 47bd 2c5e 383f
00000200: 66fe 3d3f f8a3 363f ffa1 3d3f a5ff e43f
00000210: 2642 953f 1620 383c 0edb c43f 2aed bebd
00000220: 5e52 673f 0035 713f c88f 673f e7f7 093d
00000230: e31a 4d3f 41f2 b13d eacf 2b3f e8fb 6e3f
00000240: 452b 383f 418d 813f ecdc 7c3f 6fc9 eb3e
00000250: a58b eb3f 736a 6c3f 0315 433e 61de 433f
00000260: e8fc 763f eaf3 efbc e4bc 593f 02ee 723f
00000270: 3f1b ecbd 3cf9 b33f 0912 213f ff08 a23f
00000280: d073 19bd 0d89 bf3f cd16 363f d0b0 9dbd
00000290: 026d 563f 018f 803f 899b 323f bb31 723f
000002a0: b6fa 663f a49c 5e3f daa6 1d3f cbe9 763f
000002b0: a785 643f 4449 3b3f 3876 7f3f 3715 a6bd
000002c0: bf06 753f ae2a a13f 8dee 893f 034a 3f3f
000002d0: 0fb9 34bd 61e8 97bd d5a4 6b3f 0615 523f
000002e0: a4c5 c83e a665 783f ea58 ecbd d39d 4e3f
000002f0: b6eb 213f 19cc d7bd 9b08 d4bc 72e8 5b3e
00000300: b5d5 6a3f f621 cbbd f5db a53f 0116 1c3f
00000310: 6b22 503f ca0f 553f bc7d 883f f3c7 8bbc
00000320: a90c 0b40 5130 6a3f 3409 733f cbb7 e83e
00000330: 13af 0e40 b5c5 7d3f 0f9e 0b3f 40e6 f33d
00000340: ff95 973f d54b 6f3f 30f0 743f 99ec 223f
00000350: 6161 2f3f 4246 b3bd 9683 343f c519 713f
00000360: 5c9b 463f 562b 663f f065 93bd f7a3 603e
00000370: c599 563f 3063 903f 99cf 543f b02f ba3e
00000380: 35be 343e c162 7bbd 15ce 3c3f 5c3c 3e3f
00000390: 91de a33c b67c eebc 62b3 72bd 9994 ddbc
000003a0: b419 ec3d fdee c33f 3ecc 283e d16d 5e3f
000003b0: 4fac 603f 3aa8 563f 747d 253f ef16 5e3f
000003c0: d7a3 073f 56d0 013f 07d0 6f3f 9984 383f
000003d0: 10df 083f 9857 543f 89e9 413f 90af 423f
000003e0: df07 663f 631b 7c3f dbf5 6a3f 6268 0c3f
000003f0: 5cf1 523f 5cd9 713f 6ac7 cc3f 6abe d6bd

network.8.weight f4 [3, 256]
0.40350366 -0.15200758 -0.0799902 0.0089392895 -0.00229645 0.027343605 -0.17828603 0.40186104
0.53203267 0.06988354 0.22253312 -0.17561053 -0.09137831 0.7744657 -0.09648664 0.34867367
0.26514632 0.020981321 -0.09429892 -0.03660574 0.010362069 -0.22963978 0.012647788 -0.12034008
0.50240374 0.4447552 0.0029040587 0.30843195 0.007852391 0.12372315 0.40201348 -0.017298942
0.37390038 -0.14187649 0.3441425 -0.10698298 -0.07327162 0.1932343 0.09799184 -0.09454166
0.18951793 0.34376693 0.41399896 0.45411164 -0.08038082 0.7220434 0.34316134 -0.014600692
-0.046992607 -0.08955835 0.0037658962 -0.08838086 0.63807166 0.0076205544 0.74279916 -0.16519345
-0.29441047 0.34528682 -0.10240471 -0.06709386 0.39700523 0.07262549 -0.0019964774 0.37976894
-0.10156283 -0.09034239 0.11320319 0.38656762 0.27293426 0.21100849 0.32368362 0.20115261
0.98449904 -0.13733439 0.21172452 0.43328175 -0.1641984 -0.10831333 0.3120728 -0.009047478
0.39758626 0.31466362 -0.019721238 0.0846042 0.5891401 0.059759185 0.38059565 -0.037308045
0.43495363 -0.08850128 -0.14539433 -0.18581627 -0.16146766 -0.07781572 0.7591011 -0.07405196
-0.07371157 -0.031579413 0.16325468 0.85397965 0.3548584 -0.06569001 0.29632625 0.2387313
0.270422 0.26245746 0.5905688 0.16091384 -0.87619096 -0.049074024 -0.09833424 -0.10551848
-0.14631078 0.09219652 -0.098299384 -0.065962985 -0.09354268 -0.03558863 0.33273175 -0.051398568
0.39457795 0.8393479 -0.10005869 0.027400391 -0.10122622 -0.11192493 0.11198999 0.68582976
-0.110427186 -0.8612463 -0.094266064 0.3733327 0.323862 0.107307106 0.8310822 0.042708218
-0.059030116 -0.16512595 -0.11771133 0.11221469 0.027347226 0.22035655 -0.17527644 -0.057079725
0.44551188 0.95792025 0.5776781 -0.11739377 0.39519164 -0.13231476 0.30200216 -0.08461942
0.0963566 0.16643557 0.5486636 -0.038785774 0.033977505 0.31832847 -0.08645614 0.34601057
-0.046658475 0.32344088 0.9733438 0.042469475 0.05111292 -0.008451151 0.42925054 0.5181533
0.08514967 0.35299057 -0.08856324 -0.12637718 0.52183986 -0.06837442 0.3385022 -0.050634366
-0.10221184 0.285988 0.7647183 -0.121018425 -0.012003012 0.041573852 -0.13955629 0.43268642
0.62614733 0.4144253 -0.0018416422 0.31062305 -0.112754054 -0.005016237 -0.00456065 0.54659534
-0.20244011 -0.008210646 0.6190621 -0.12619309 -0.07837111 -0.096331105 0.4147383 -0.17858388
0.3591694 0.35324174 -0.033616144 -0.10061174 0.41944823 0.47903308 -0.70312244 0.36873648
0.44273332 -0.12063176 -0.1613165 0.38751215 0.59956783 0.1222743 0.24988814 -0.1318246
-0.087455645 0.4626099 0.008221949 0.24119686 -0.08811827 0.60008043 -0.08766163 -0.2729902
0.24617065 0.002372991 -1.1751655 -0.074014775 0.12741292 0.12411458 -0.041263063 0.23490824
0.10444147 0.28539622 0.39074534 0.5396282 -0.09082471 -0.09577973 0.5271464 0.5366377
-0.07908964 -0.084089555 -0.10406296 -0.69195145 -0.06601761 -0.09272632 0.03518111 -0.08817126
-0.012828072 0.11574606 -0.15775235 -0.9533074 -0.0989184 -0.048725963 0.4146292 0.020781899
00000000: 0898 ce3e e0a7 1bbe e7d1 a3bd 1976 123c
00000010: 0a80 16bb b2ff df3c 9d90 36be bbc0 cd3e
00000020: 4b33 083f 1a1f 8f3d b9df 633e 3fd3 33be
00000030: 8d24 bbbd 6243 463f ca9a c5bd 5b85 b23e
00000040: 42c1 873e 05e1 ab3c cb1f c1bd e7ef 15bd
00000050: abc5 293c b126 6bbe ab38 4f3c dc74 f6bd
00000060: 889d 003f f4b6 e33e 0552 3e3b cbea 9d3e
00000070: 51a7 003c 9062 fd3d b6d4 cd3e 83b6 8dbc
00000080: df6f bf3e 1248 11be 7233 b03e e519 dbbd
00000090: 6e0f 96bd 36df 453e f2af c83d 0f9f c1bd
000000a0: fd10 423e 3802 b03e acf7 d33e 5281 e83e
000000b0: b39e a4bd d6d7 383f d8b2 af3e be37 6fbc
000000c0: 527b 40bd 5e6a b7bd 41cd 763b 0601 b5bd
000000d0: aa58 233f d8b5 f93b 1628 3e3f 7928 29be
000000e0: f8bc 96be 6fc9 b03e 90b9 d1bd 8168 89bd
000000f0: 4544 cb3e acbc 943d 55d7 02bb 1371 c23e
00000100: 2c00 d0bd 6e05 b9bd 13d7 e73d 31ec c53e
00000110: 0abe 8b3e 9c12 583e dcb9 a53e f3fa 4d3e
00000120: 2108 7c3f 63a1 0cbe 50ce 583e 1bd7 dd3e
00000130: a023 28be 61d3 ddbd 02c8 9f3e e03b 14bc
00000140: 6d90 cb3e 971b a13e 6f8e a1bc f844 ad3d
00000150: e3d1 163f 0cc6 743d 6fdd c23e 52d0 18bd
00000160: 3eb2 de3e 2940 b5bd 40e2 14be 9f46 3ebe
00000170: c757 25be d95d 9fbd 7354 423f 8ea8 97bd
00000180: 17f6 96bd 6a59 01bd 3c2c 273e 699e 5a3f
00000190: 00b0 b53e 7c88 86bd 13b8 973e fa75 743e
000001a0: c174 8a3e d360 863e 842f 173f 99c6 243e
000001b0: 0d4e 60bf d801 49bd 7663 c9bd 131a d8bd
000001c0: 7ed2 15be 87d1 bc3d 3051 c9bd 9a17 87bd
000001d0: 4e93 bfbd 62c5 11bd d15b aa3e 4e87 52bd
000001e0: 1f06 ca3e 81df 563f 92eb ccbd c976 e03c
000001f0: b14f cfbd e638 e5bd 025b e53d 8a92 2f3f
00000200: a627 e2bd a37a 5cbf 910e c1bd 7725 bf3e
00000210: 3dd1 a53e d4c3 db3d cec1 543f d0ee 2e3d
00000220: 90c9 71bd c716 29be a312 f1bd d1d0 e53d
00000230: 4a07 e03c 26a5 613e ab7b 33be 6ecc 69bd
00000240: 221a e43e 433a 753f b6e2 133f 256c f0bd
00000250: 8f56 ca3e 857d 07be 07a0 9a3e f24c adbd
00000260: 9c56 c53d 166e 2a3e 3875 0c3f d5dd 1ebd
00000270: ff2b 0b3d f3fb a23e eb0f b1bd 4c28 b13e
00000280: f51c 3fbd 0b9a a53e 0f2d 793f 79f4 2d3d
00000290: c85b 513d b276 0abc bac6 db3e b2a5 043f
000002a0: f362 ae3d 2ebb b43e a560 b5bd 0569 01be
000002b0: 4c97 053f e307 8cbd 2950 ad3e fb65 4fbd
000002c0: 7154 d1bd 056d 923e 94c4 433f 82d8 f7bd
000002d0: 48a8 44bc 5849 2a3d d8e7 0ebe 1389 dd3e
000002e0: 314b 203f 8e2f d43e 4263 f1ba fc09 9f3e
000002f0: 99eb e6bd 3f5f a4bb 8171 95bb aced 0b3f
00000300: 764c 4fbe f285 06bc db7a 1e3f c338 01be
00000310: 0881 a0bd 3e49 c5bd 9458 d43e b1de 36be
00000320: 0de5 b73e 1adc b43e 15b1 09bd 870d cebd
00000330: ebc1 d63e d343 f53e d5ff 33bf 07cb bc3e
00000340: f1ad e23e c90d f7bd 2730 25be fe67 c63e
00000350: 477d 193f f36a fa3d ade2 7f3e 07fd 06be
00000360: f21b b3bd 34db ec3e 5bb5 063c 4ffc 763e
00000370: 5a77 b4bd df9e 193f f187 b3bd 5fc5 8bbe
00000380: 2914 7c3e 2f84 1b3b d36b 96bf 0f95 97bd
00000390: 8878 023e c92f fe3d 7503 29bd c98b 703e
000003a0: 69e5 d53d 741f 923e c60f c83e 1325 0a3f
000003b0: 4e02 babd 2a28 c4bd 11f3 063f 1761 093f
000003c0: c0f9 a1bd 2537 acbd f61e d5bd bb23 31bf
000003d0: 3e34 87bd 4ce7 bdbd 111a 103d 2293 b4bd
000003e0: d52c 52bc 450c ed3d d589 21be f40b 74bf
000003f0: bb95 cabd e094 47bd 474a d43e cd3e aa3c

network.8.bias f4 [3]
-0.81674373 -0.6299451 -0.49104604
00000000: 1e16 51bf 1544 21bf 636a fbbe
