EGP_Only_mountaincar/abrupt/egp/seed_0/online_stream_model.pth (torch, 535757 bytes, 8 tensors)

network.0.weight f4 [256, 2]
00000000: 3a22 1f3e 2b29 8ebe 5e68 8f3e 233d 51c0
00000010: 0d4f 1c3f aa6f ab3e af56 233f ba26 983e
00000020: 107b d8be e081 443f b64a 843e 4270 e03e
00000030: 4c1f 1e3f 64a8 853f 1f1f a0bd e36f 00c0
00000040: d313 bd3d edec 1dc0 b81d 903e d984 503f
00000050: 498a 9c3e 68ae ee3f bcd6 603d 0100 07c0
00000060: fcd3 883e 28a0 4abe e27f 393d 17f1 b8bf
00000070: b0a0 5cbd fc2f 2cbf e2f6 cc3e 1d48 9f3f
00000080: 7a96 ea3e 2aff aa3e 5c17 b0be 793d e2bf
00000090: 6fd1 913d a19f 48c0 ef92 163f d212 de3e
000000a0: 5613 d43e 9715 bbbf fbf1 a43e 5030 c93f
000000b0: e675 ff3d 92ae d33f 9736 70be c69b 4ec0
000000c0: ccd4 1f3e dd8e 283f 0533 423f 8102 a53f
000000d0: e0e2 ce3c 1042 14bf c5cf 88ba ed3c 21c0
000000e0: b37f 1c3f 0060 23bb 795b c73d 3437 30be
000000f0: 7395 49bd 5318 2e40 5b1f e43e f089 c23f
00000100: 9390 323f 385c fd3d 5ade 5e3d f5a5 dfbf
00000110: 2911 87be 9592 79c0 e672 86bd ffe3 dbbf
00000120: 701e ddbe d1fe 55bf 4c25 a63e b84b 1040
00000130: d290 81be 3fab 9fbe 1f55 e13e f310 e13f
00000140: 1579 a93e 99a0 98bf 25c1 e23d a88b ef3f
00000150: 4b87 243f 2780 49bf a585 fc3e 1d78 d0be
00000160: d97d 5c3e d8d2 d73f b288 393e 8b56 2fc0
00000170: 15fa 78bb 15b1 cdbf 2f06 5a3e 204e 1540
00000180: 2d67 77be 3f50 8f3f 7629 94be e350 223f
00000190: d6b3 ecbe 0d49 ca3d 13c6 8dbc 16a3 893f
000001a0: d080 173d 2098 823d b1b4 093d f9d0 a0bf
000001b0: 40e4 10bc da9b b73e 0544 0a3e 0aee 32c0
000001c0: 2ea7 8a3e e64c cb3e c760 21bf 774f 49bf
000001d0: 6052 efbd bfe8 203f 55c5 bb3e 1fe0 983f
000001e0: 7cc0 4c3f 8916 be3f f075 46bd 9719 babf
000001f0: 7c01 923e 5ed3 e63e da15 ad3e be3b c5be
00000200: 1edc e73e e3c1 053f 02a8 a93e dfb2 2fc0
00000210: f075 bc3d c0f7 ecbc a2c4 bd3e f6fd e03f
00000220: 3d3e ff3e 8c93 31bf 4c03 ddbe 35d3 d33d
00000230: 8bdc 1fbd b3c8 bcbf 316f 083e 81bd 0c40
00000240: 0976 d7be 7597 17c0 a7b9 d23d 9a5b 04c0
00000250: e858 98bd 0822 873e c6b2 443e c7b5 cdbf
00000260: badc 8ebd 7922 303f cedc f43e 3f39 413f
00000270: 846b 713e 104f efbd 505d 393f 5ae1 14bf
00000280: 115a 0c3d 9536 4540 9bb4 303e 9884 1140
00000290: 3924 3d3f 8ffa a0bf 56b0 893e f3b7 88be
000002a0: 34e2 09bd bd90 bcbf a2ff 723e 9910 f73f
000002b0: 3023 d3bd d32c 4ac0 1b67 bf3e 0116 edbf
000002c0: b975 403e ed96 e4bf dfdb d13d 341d bdbf
000002d0: 6a76 273f f063 eb3f d9dc 87be 95a3 dfbe
000002e0: 224f 023f 7297 fa3e 6cff 663d 906b d1be
000002f0: af2d 573d fd45 12c0 cd5b 353f b413 2040
00000300: 4380 f9bd 93e4 35c0 38a7 cebe ee73 0dc0
00000310: abd0 44be 0055 2dbf ad2a 3cbd f3e1 37c0
00000320: 7a12 903e bce0 a3be 04f2 b5be 0bdc 41bf
00000330: 3681 603e a93b 4e40 de9f cf3e 197b b73f
00000340: 66d2 873e 199d 253f d8ba 71be b07d 793d
00000350: 9dbb 043e a33f dd3f 1a67 f83e 866e 07bf
00000360: 0200 c03d 3f87 c1bf b099 303d cade f1bf
00000370: 94e8 6f3d cc7b 00c0 7678 b7be c6d7 1fbf
00000380: 806e 7a3c a69e d53e cbf0 de3e d2ff 00bf
00000390: 231e 2b3e be35 0cc0 a488 0e3f 71da 0f3f
000003a0: 26c3 2e3d 437a 7abe 1934 163f d0e4 e1bd
000003b0: 54c2 d3be 1c2d 16bf b3d6 733d 9c90 20c0
000003c0: a84c ea3e 6567 aa3f d4bf b2be 018e 51c0
000003d0: 2d96 bebe 8472 c8be e0ab 193d a267 e53e
000003e0: e8a5 603e de63 2a40 4459 d43e 7dbf 1bc0
000003f0: 13cd 583f ba3a 533f 4757 23bf 7766 643f
0.155404 -0.27765784 0.28009313 -3.2693565 0.6105812 0.3348363 0.63804144 0.29717046
-0.4228139 0.76760674 0.2583825 0.43835646 0.61766505 1.0442014 -0.07818436 -2.006829
0.09232297 -2.4675858 0.28147674 0.8145271 0.30574253 1.8646975 0.054892287 -2.1093752
0.2672423 -0.19787657 0.045287974 -1.4448575 -0.05386418 -0.6726072 0.40032107 1.2443882
0.4581793 0.333978 -0.34392822 -1.767501 0.071200244 -3.134743 0.5881795 0.43373734
0.41421002 -1.4615964 0.32215866 1.5717869 0.12473659 1.653765 -0.23458324 -3.2282577
0.1560852 0.6584299 0.758591 1.2891389 0.025254667 -0.57913303 -0.0010437897 -2.5193436
0.61132354 -0.0024929047 0.09734244 -0.17208558 -0.04921479 2.7202346 0.44555172 1.5198345
0.6975185 0.12371105 0.05441127 -1.7472521 -0.2638028 -3.8995717 -0.06564884 -1.7178954
-0.43187284 -0.83591944 0.3245033 2.2546215 -0.25305802 -0.31185338 0.44010255 1.7583297
0.3310019 -1.192401 0.11071996 1.8714495 0.6426894 -0.7871117 0.49320713 -0.4071664
0.21532382 1.686122 0.18118551 -2.7396572 -0.0037990857 -1.6069666 0.21291421 2.3328934
-0.24160452 1.1196364 -0.28937882 0.63404673 -0.46230954 0.098772146 -0.017306363 1.0752895
0.03698808 0.06376672 0.033619586 -1.2563773 -0.008843482 0.35861093 0.1350251 -2.7957788
0.27080673 0.39707106 -0.63038296 -0.7863688 -0.11685634 0.6285514 0.3667399 1.1943396
0.7998121 1.4850627 -0.048452318 -1.4539059 0.28516757 0.45083135 0.33805734 -0.38522142
0.45285124 0.5224897 0.33135992 -2.7452924 0.09202182 -0.02892673 0.3706408 1.7577503
0.49852172 -0.69365764 -0.43166578 0.10343019 -0.039028686 -1.4748749 0.13323666 2.1990664
-0.4208224 -2.3686192 0.102893166 -2.068091 -0.074388325 0.2639315 0.19208822 -1.6071099
-0.06975694 0.688026 0.4782471 0.75477976 0.2357617 -0.11685002 0.7240801 -0.5815636
0.03426558 3.0814564 0.17256396 2.2737179 0.73883396 -1.2576464 0.26892346 -0.26702842
-0.03366299 -1.4731671 0.23730329 1.930194 -0.10309446 -3.1589859 0.3738335 -1.852234
0.18794908 -1.7858559 0.10247015 -1.4774537 0.6541506 1.8389874 -0.2653568 -0.4367949
0.50902 0.4894367 0.056395933 -0.40902376 0.0525338 -2.2855217 0.708432 2.5012026
-0.12182667 -2.842076 -0.40361953 -2.2102008 -0.19220226 -0.67707825 -0.045939136 -2.8731658
0.28139096 -0.32007396 -0.35536206 -0.75726384 0.2192429 3.2223914 0.40551656 1.4334441
0.2652771 0.64692837 -0.23606431 0.06091088 0.12962194 1.7285045 0.4851616 -0.5290302
0.093750015 -1.5119399 0.043115318 -1.8896115 0.058571413 -2.007556 -0.35834092 -0.6243862
0.015285134 0.41722602 0.43543085 -0.5039035 0.16710715 -2.1907802 0.5567725 0.5619269
0.042666577 -0.24460702 0.58673245 -0.11029971 -0.41359198 -0.5866258 0.059530925 -2.5088263
0.4576161 1.3312804 -0.34911978 -3.2742922 -0.3722395 -0.39149868 0.03751743 0.44805628
0.21938288 2.6623454 0.41474354 -2.4335625 0.8468792 0.82511485 -0.6380505 0.8921885

network.0.bias f4 [256]
00000000: 7825 adbd 0b07 073e 2d9c cfbe b6d9 fabe
00000010: c2a2 abbe ec8b 41be a17d 17be 3367 7f3d
00000020: 83b0 e53c 436d 29bd 98f3 92bd 4220 173c
00000030: 74d2 1bbe d0bf a83d 48a1 54be 3d72 18bd
00000040: adbc d9be f5e8 92be 17e8 e03b 077e aabe
00000050: e916 12be 5d52 c7bc 7d40 3dbd d2d7 56be
00000060: e486 2abe a4d9 5bbe 9bce 31bf 96a9 18bd
00000070: a306 eabe 13f9 4cbd 37ea f2bc e228 07bd
00000080: 6696 23bf 21f7 883c 6cf9 7abe e3c3 5e3d
00000090: 652c b0be 06eb 193e e230 1abf 14ba a9bd
000000a0: fff7 343e 9fb4 33bd 33e2 00be 366c 80be
000000b0: c6a9 51bd 8471 a53d 6456 883d 3c7c 89bd
000000c0: 17ad 4dbe 7496 dabe a8ed 11bf df0c b7bc
000000d0: a128 2ebf c078 903d 9ccb 2bbf 3fd6 423d
000000e0: 1cdc c8be be81 03bf 4ca6 1cbe 4146 d0bc
000000f0: 99d1 77be f238 433d f061 15bf 1e7d 2ebf
00000100: d4c4 b7be fed1 273e 07aa d0be 60f4 c1bd
00000110: 9e51 c0bd 4550 a5be 4e77 363d c204 5ebd
00000120: 7218 acbe fca5 113e c944 a9be e1a2 3d3e
00000130: 30a6 fbbd fe73 783e 8c47 1bbe 0211 6ebe
00000140: c7b1 a8bc b2ee 82bd f179 16be 0a58 d4be
00000150: 09a5 453d c1e6 78bd f7df ebbd b364 ae3e
00000160: 01fb 393e 039f f33d 533a 2fbe c065 57be
00000170: 2fb0 e4bd 50bf eabc 0fb2 263c db64 47be
00000180: 77bb efbd 9bd2 b3be cd62 99be 7a9a 95bd
00000190: bfd6 2abf 13ef f9be 0388 a5bd 92d4 c3bd
000001a0: 8444 fcbe 8b2c 22bf 2df4 36bd cffb 8dbe
000001b0: fce3 de3d 8bef ce3d 3765 193c 358e fabe
000001c0: 54e0 15be 1031 663e 2597 373e 4904 9fbd
000001d0: d7e6 fcbc f472 23bf cfad 18bf fd8f ab3b
000001e0: 4679 42bd d86c a1be 318f 88be f0df d0bd
000001f0: 06d9 9dbd 51d0 c13e a5da 8dbe da73 07bf
00000200: 01de babe 7ce3 e2be 1471 23bf 1c14 24be
00000210: ba7a 6ebe a969 8cbd e78a 20bf f48b 01be
00000220: 6e49 f2bd 29c2 fbbd 7ed0 45bd dd61 9bbe
00000230: 9030 f6be 2065 afbd 1dbb d1be 20aa 123e
00000240: c692 ed3d 126b 2ebf c277 dcbd 20ea 60be
00000250: b498 6ebd c6cd 0abd f5ff a3bd 713a 06be
00000260: e2a3 ebbd ba21 863d c7a8 30bf cc43 16bf
00000270: 3dbb dcbe 8447 52be fff4 d3be 8af3 e7be
00000280: d6e9 8dbd dfba 04bf e46e 70be c66f 38be
00000290: d2d9 873d 8a97 1ebe 8018 02bf 2981 31bf
000002a0: 0d91 60bd cdf9 053e c14b 19be af9d 69be
000002b0: e030 55be 9fe1 a3be 9244 5ebe 43e9 02be
000002c0: 89ba 063e 6816 1abe 9328 aebe 5ee7 103e
000002d0: 9419 e0bc b007 8fbd 5044 0cbd 302b 27bd
000002e0: d684 2c3e 06fe 673d c129 6abc 68f4 5dbe
000002f0: 110d 1ebe 4041 11bf 6cc0 fabc b74b 10bf
00000300: 8bbb 843e 6e3e 8e3d 32f3 533d 3d54 8abe
00000310: 9482 1fbf 12ce 163b 9a41 9dbc 887c 28bd
00000320: afed 61be 9b8a a23d 699c fdbc 3045 23bc
00000330: 3915 913e 933e 563e 2b79 4fbe 3043 3f3d
00000340: f4ab 4ebe 221e dbbd ffcc 6cbe 1054 0dbe
00000350: 575c 03bf 4cfd 2bbf 4b56 7b3d 5f72 cfbe
00000360: b187 803d f24b 09be 49b3 d23d cc45 8a3d
00000370: 7b8e b5bd b66f 23bd 71b9 173e 24a8 adbe
00000380: 6dd2 09be b47a ccbe 08b9 debc 55b1 6fbe
00000390: 181e 81be ae8e 33bd aca1 e1be 7857 3cbd
000003a0: 9b3b 613e da00 633e 4d72 9d3e 5e1c 8b3d
000003b0: 4a8e c9bd bb4d 72be e84e 95be b852 503e
000003c0: 83c8 febe 4b93 42bd 5611 ab3d 72dc 6fbe
000003d0: 5741 cf39 10fb e2be 37b6 12bf 6c7a 99be
000003e0: ef5e a13e 8762 28bf 2c71 acbd 8fc0 0cbf
000003f0: d386 b6be 67dc fabd 94e0 d8be 2ba9 aabe
-0.08454412 0.1318628 -0.4054884 -0.48994225 -0.33522612 -0.18901032 -0.14794017 0.062354278
0.028038269 -0.041363966 -0.07175368 0.009223999 -0.15217 0.0823971 -0.20764649 -0.03721832
-0.4252676 -0.28693357 0.0068636048 -0.33299276 -0.14266552 -0.024331266 -0.04620408 -0.20980766
-0.16653019 -0.21469742 -0.6945588 -0.037271105 -0.45708188 -0.050042223 -0.029652698 -0.032997973
-0.63901365 0.016719403 -0.2450921 0.05438603 -0.3440887 0.1503106 -0.6023084 -0.08287445
0.17672728 -0.043873426 -0.12586288 -0.25082558 -0.0511873 0.08078292 0.06657103 -0.06713149
-0.2008556 -0.42692912 -0.5700326 -0.022345005 -0.68030745 0.07054281 -0.6710756 0.047567602
-0.3923043 -0.51369846 -0.15297812 -0.025424125 -0.24201049 0.04766173 -0.58352566 -0.68159664
-0.35892355 0.163887 -0.4075472 -0.09470439 -0.09390567 -0.32287803 0.04454737 -0.054203756
-0.336124 0.14223474 -0.3306029 0.18519165 -0.12287557 0.24262998 -0.15164012 -0.23248675
-0.020592583 -0.06393184 -0.14694954 -0.41473418 0.048253093 -0.06076694 -0.11517327 0.34061202
0.18162157 0.118955635 -0.17112093 -0.21034908 -0.11166417 -0.028655678 0.010174288 -0.19472067
-0.11705678 -0.35121617 -0.29958192 -0.07304855 -0.66733927 -0.48815212 -0.08082583 -0.09562029
-0.49271023 -0.6334922 -0.044666458 -0.27731177 0.10883328 0.10104283 0.00936251 -0.4893662
-0.14636356 0.22479653 0.17928751 -0.07764489 -0.030871792 -0.6384728 -0.5964021 0.0052356706
-0.047478937 -0.31528354 -0.26671746 -0.10198963 -0.077074096 0.37854245 -0.27705875 -0.5291115
-0.364975 -0.44314182 -0.6384442 -0.16023296 -0.23289004 -0.068560906 -0.6271195 -0.12651044
-0.11830412 -0.122928925 -0.048294537 -0.303481 -0.48083925 -0.0856421 -0.4096307 0.1432271
0.116002604 -0.68132126 -0.107650295 -0.21964312 -0.058251098 -0.033887647 -0.08007804 -0.13108231
-0.115058675 0.065494016 -0.69007534 -0.586972 -0.431116 -0.20535094 -0.41397855 -0.45302993
-0.06929366 -0.5184764 -0.23479801 -0.18011388 0.06633343 -0.15487495 -0.50818634 -0.6933771
-0.05482583 0.13083573 -0.14970304 -0.22814058 -0.20819426 -0.32008073 -0.21705845 -0.12784295
0.13157095 -0.1504761 -0.3401533 0.1415076 -0.027355947 -0.06983888 -0.034244835 -0.04081267
0.16847548 0.05663874 -0.0142921815 -0.21675265 -0.15434672 -0.5674019 -0.030609332 -0.5636553
0.25924334 0.06945501 0.0517456 -0.27017394 -0.6230862 0.002301101 -0.01919632 -0.041134387
-0.22063325 0.07936593 -0.030958371 -0.009965226 0.28336504 0.20922308 -0.20261066 0.046694934
-0.20182782 -0.10699107 -0.23125075 -0.13801599 -0.51312774 -0.67183375 0.061361592 -0.40516946
0.06275881 -0.13407877 0.10288102 0.06751594 -0.088650666 -0.039901458 0.14816834 -0.33917344
-0.13459177 -0.39937365 -0.02718784 -0.2340749 -0.25218272 -0.04383724 -0.44068658 -0.045981854
0.21995394 0.22168294 0.30751267 0.0679252 -0.098415926 -0.23662464 -0.29161763 0.20344055
-0.49762353 -0.04750375 0.08352916 -0.23423937 0.000395308 -0.4433217 -0.5730929 -0.29976213
0.3151774 -0.6577534 -0.08420023 -0.5498132 -0.35649738 -0.1224907 -0.4235884 -0.3333219

network.3.weight f4 [256, 256]
00000000: 980f 673d 4542 043c f8c4 533c 284e e4bc
00000010: 34ed 76bd 78d8 0dbd 1837 883c 67c3 2bbd
00000020: dc5f 353c 5093 f73b b4df fcbc de95 b6bc
00000030: 5c96 7fbd 3463 94bd 445f 343d 5c8f 89bd
00000040: 7e35 0f3d a430 82bd 02ac 97bd f624 70bd
00000050: aa35 013d ed1d 8ebd 81fd 223d 5f7a 6fbd
00000060: e2f5 6e3d 9431 61bd a236 34bd fd0c abbd
00000070: c025 abbb 9101 133c e49e 93bc 47ec 03bd
00000080: 5e3f 5dbd 1e0d 093c 481c 78bb 18dc 72bd
00000090: 4c31 3dbd 9537 32bc c0d4 c93a 14c5 4bbd
000000a0: 8c3d 77bd f31f d8bc c675 0fbc 54d4 e23c
000000b0: c9dd 39bd ab7b 19bd 0d6f 61bb ffc4 8b3c
000000c0: 007a 93bd 403b f63c 1c99 d0bc 05a3 a9bc
000000d0: ac2e e33c 6893 7fbc d055 633d 8716 963c
000000e0: 16c3 0ebd 3cb0 ac3c f0e8 533d 2381 adbb
000000f0: b853 333c b273 39bd ccfa ba3c 6282 38bd
00000100: 60af 1c3d e08e 06bc 4027 993c d414 9abd
00000110: b5c8 bebb d527 debc afcf 0fbd 5f28 3e3d
00000120: f851 083d 75aa a73c 340b 45bd 96fd df3c
00000130: 9c91 cf3c 9a89 5dbc f4fc 063d 5c30 133d
00000140: 1e14 0d3c ef66 b0bc 391d 14bd a098 4ebb
00000150: 5e28 43bd 8a76 773d 4acd 953c 1693 fb3c
00000160: de5b f6bc 1c80 963c 2e71 1bbd c4b9 0f3c
00000170: e95b b1bc ec6c cd3c 8de4 58bc 5edf 593d
00000180: 3a8b 14bc 3703 6abd 8a06 c2bb f7ca 3f3d
00000190: 7008 f73b f8bf 34bc 9f9b 5abd 5cb9 c43c
000001a0: 10c9 743d b08d 4e3d 9244 50bd 7480 fe3c
000001b0: 8858 ec3a cfa5 b9bb 6366 283b 1ab6 2e3d
000001c0: 006c a8ba 95be 43b8 03dd 2bbc 3d07 8abd
000001d0: 1082 87bd 2068 b9bc f85b 0bbd 7575 203c
000001e0: b49a 78bc 5025 91bd f654 2cbc 4a30 7ebd
000001f0: f447 803c 1a94 823c 2221 01bd 62e6 0bbd
00000200: bcb9 ae3c 8648 0a3d 5885 f63c c803 4abc
00000210: 5f1e c3bb dc72 22bd ec57 03bd 502d 4dbc
00000220: 2bdf 4abd 840c 913c cd25 c83c 44b7 453d
00000230: b375 ecbc 1de4 afbd 0a6d 343d beb5 81bc
00000240: fa6f 47bc 0093 a1b9 b02d 373c 6011 a8bd
00000250: b486 443d 2bfc b0bd 0076 e0b9 ea62 133d
00000260: 8c58 e53c 9007 80bb 00f8 1d39 7873 62bd
00000270: 9140 a4bd 6e51 70bd 263b 0abd b061 ba3b
00000280: 2b64 89bc 98cc 343d 6f33 6abd f280 6a3c
00000290: f726 bdbc 74d6 fbbc 54ac 203a 3a78 23bd
000002a0: 4f5e d0bc 7164 c2bd 6117 14bd 6181 463c
000002b0: 238d 0b3d ff87 8ebd 5801 413c eee7 43bd
000002c0: 670c e5bc d213 68bc 187f 643d 4464 3fbc
000002d0: 7243 4ebc 4ca1 803c 2587 2dbd 3837 97bc
000002e0: b269 05bd 4e82 ffbc b876 b2bd c009 50bd
000002f0: f8fa 38bc 7a5f 2bbd df1a 5fbd 9a95 78bd
00000300: d907 9ebc d07d b7bd 485d 2dbd 6c14 ed3c
00000310: ba25 223d ac96 73bd 4d57 36bd 985d 79bc
00000320: 371c 8ebd 546f 9cbd 576b 45bd e67c 70bc
00000330: 5733 3c3c 292c f2bb 5e69 8abc e029 df3a
00000340: 6008 ccbc a46b adbc d429 a33c cee2 2d3d
00000350: 44e3 b0bc 283b 33bd 7fa6 66bc 5cfd 4fbd
00000360: 4996 8abd 124e 9ebd f580 89bb f730 fc3b
00000370: d8d8 1dbc b6ce 83bd 299b c4bd 168c b53c
00000380: 9160 2d3d 9c8a 2ebd f57a 713c 1fa1 80bd
00000390: b07f 43bd 03d2 d0bc 785c 70bc 073d 5abb
000003a0: a153 66bd 2de9 d4bc 4164 23bd 44f1 67bd
000003b0: a96e 303c eba9 ecbc 1083 a03b bd79 03bd
000003c0: 3e20 6cbd ee3b 36bd b1a7 91bd 588e 4e3c
000003d0: 81d0 34bd 345b dfbc ec26 af3c 20db ddbc
000003e0: 6931 cfbc 5015 e8bb 2e8e f03c 0030 d33a
000003f0: 5d6e 85bd 11ad 82bd 4594 b3ba d80b 2d3d
0.056411356 0.0080724405 0.012925379 -0.027869299 -0.06028481 -0.03463027 0.016627833 -0.041934397
0.011070218 0.007555403 -0.030868389 -0.02228826 -0.062399253 -0.07245484 0.044036165 -0.06716797
0.034963124 -0.06356934 -0.07405855 -0.058629 0.03154532 -0.06939302 0.03979254 -0.05846631
0.05833996 -0.054978922 -0.043997414 -0.08352087 -0.005223006 0.008972541 -0.0180201 -0.032207754
-0.05401551 0.008364944 -0.0037858654 -0.05929193 -0.04618959 -0.01087751 0.0015398487 -0.049748495
-0.06036143 -0.026382422 -0.008756107 0.027689137 -0.045377526 -0.037471455 -0.0034398467 0.017061708
-0.07201004 0.03005755 -0.025463633 -0.020707617 0.027732216 -0.015599109 0.05550176 0.018321289
-0.034854017 0.021080129 0.05173582 -0.0052949353 0.010945253 -0.04527635 0.022824667 -0.045046218
0.038253188 -0.008212775 0.018695474 -0.07523504 -0.005822266 -0.027118603 -0.035110172 0.04642522
0.033281296 0.020467022 -0.048106387 0.027342599 0.025337987 -0.013521576 0.03295608 0.03593479
0.008610753 -0.021533458 -0.03616068 -0.0031524077 -0.04764592 0.060415782 0.018286366 0.030709784
-0.030073103 0.018371634 -0.037949733 0.008772317 -0.021650271 0.025076352 -0.0132380845 0.053191535
-0.009066397 -0.057131972 -0.0059211897 0.04682442 0.0075388476 -0.011032097 -0.053371068 0.024014167
0.05976206 0.050428092 -0.050846644 0.03106711 0.0018031755 -0.005665518 0.0025695793 0.042654134
-0.0012849569 -4.6669116e-05 -0.010489705 -0.06739662 -0.06616604 -0.022632658 -0.034023255 0.009793629
-0.015173603 -0.07087195 -0.010518303 -0.06205777 0.01565931 0.015939761 -0.03152574 -0.034155257
0.0213288 0.03376057 0.03009288 -0.012330003 -0.0059545483 -0.03966032 -0.03206627 -0.01252301
-0.049529236 0.017706163 0.024432087 0.04827048 -0.028864717 -0.08588431 0.0440493 -0.015833732
-0.012172693 -0.00030817837 0.011180326 -0.08206439 0.047980025 -0.08641847 -0.00042812526 0.035983004
0.027996324 -0.0039071515 0.00015065074 -0.0552859 -0.080201276 -0.058671407 -0.033747815 0.005687915
-0.016771397 0.04414043 -0.057177957 0.0143129695 -0.023089869 -0.030741908 0.00061291945 -0.03990958
-0.025435595 -0.09491814 -0.03615511 0.012115807 0.034070145 -0.06959533 0.0117801055 -0.047828607
-0.027960015 -0.014164882 0.05578527 -0.01168162 -0.012589322 0.015701912 -0.042365212 -0.018458948
-0.032571502 -0.031190064 -0.0871405 -0.05079055 -0.011290304 -0.0418391 -0.054468986 -0.060689546
-0.019290851 -0.08959544 -0.042325288 0.028940402 0.03958676 -0.059469864 -0.04451685 -0.015220068
-0.06938975 -0.07638422 -0.04819807 -0.014678216 0.01148685 -0.007390518 -0.016895946 0.001702603
-0.024906337 -0.021169491 0.019917406 0.042452626 -0.021592744 -0.043757588 -0.014077782 -0.05077873
-0.06766946 -0.077297345 -0.004196281 0.0076962668 -0.009634219 -0.06435911 -0.09599907 0.022161525
0.04232842 -0.042612657 0.014738788 -0.062807314 -0.047729194 -0.025490766 -0.014670484 -0.0033300535
-0.0562321 -0.025990093 -0.03989053 -0.056626573 0.010768571 -0.028889617 0.0048984364 -0.03209852
-0.057647936 -0.044490747 -0.07112063 0.01260718 -0.044144157 -0.027265169 0.021380864 -0.027082026
-0.025292115 -0.007082619 0.029364672 0.0016112328 -0.06515191 -0.06380666 -0.0013700804 0.042247623

network.3.bias f4 [256]
00000000: c27a efbc 4348 c7bc c9cb fc3d 2830 2c3e
00000010: f6d0 983d f150 21bd 3bbc 6bbd 5d1d 123d
00000020: 0062 a23e 1f20 213e a2dc d13d 5b78 f4bd
00000030: 66ae 9cbd ac2d 193e 5968 823d b54f 94bd
00000040: 40c0 4b3e 4b30 543e cf66 30bd 24ac eb3d
00000050: 2923 2fbc dac7 92bd 38c2 883e 222e 693e
00000060: 7527 663e d099 653e 2ba7 0c3e 4e7c 3e3e
00000070: e3ce 2bbd ce7e bc3d 1d63 2f3e 46af 19be
00000080: fb37 f43d d5c4 84bd afc5 e03c 221f 553d
00000090: 0c9d 1a3e 3303 38bd 8740 153e 3c78 3a3e
000000a0: 60c8 343e 759e 2c3e f8a8 79bd 33eb 863d
000000b0: 8eb7 e5bc f41e 453e ab65 a0bc 5c77 853e
000000c0: 5f52 08bd 759c d6bc 5c91 ce3d 35e1 6cbe
000000d0: 1d90 47bd dd8a 1b3d 531d 823e 172f 32bd
000000e0: 02d5 7a3e 8d95 89bd 3e13 063e 2814 07bd
000000f0: 8b51 2a3e 5363 6e3e 4acf f43d 2dda 27bc
00000100: 284a ad3d 41d6 29ba 4a93 6b3e 6448 f33d
00000110: 9d3f 0dbd 08e4 32bd c3d9 80bd a2b4 633e
00000120: a97c d4bc 58fd d4bc a280 c83d e63b f93d
00000130: bbb3 26bd 973a 863e 6587 3b3e 430c af3d
00000140: 63cb 4c3e 5ebb 823d 527e 513e f442 1abc
00000150: 9a39 623d 60b2 603d 693c 00bc 5733 3dbd
00000160: f7c0 37bd 4da0 e5bc d6aa 0d3e 42a1 c63d
00000170: 2052 2c3e 835b 8dbd 0964 9e3d 50b1 cb3d
00000180: 6244 e23d 971b a43e 5be9 723d bff4 973e
00000190: 6996 41bd b370 a7bc d20d 153e 45a6 e8bb
000001a0: 4c23 093e 857c 153e 04eb 70bc afc0 963d
000001b0: 88b8 cfbc 94af 3abd dc58 8f3d d4f7 493e
000001c0: 377f 90bd 9156 4bbd 1d93 4f3d 7345 babc
000001d0: 3033 933e c509 5ebd 0429 b13e 0dd5 d4bc
000001e0: 334c 32bd 339d acbd 0261 2a3e 54fa 3f3d
000001f0: e5eb 79bd 823c afbd 92b0 873c 467a 493e
00000200: 36a3 b23d f98f 95bd 64fe 8fbd f7c8 863d
00000210: 7981 8a3c bbda 19bd d52b d23d df65 c33d
00000220: 4418 323e 89fc 16bd 5eb9 633e 479e e3bc
00000230: ac89 be3c e19d 7fbd 3782 9cbd be6b b13d
00000240: 3d82 843e d6c9 8bbd f80c 2abd 427a 833e
00000250: 9104 4f3e c60c d0bc 9ad9 32bd 0c56 803d
00000260: ab3a 543e b629 6c3e 1689 213b 7984 203e
00000270: 1cfa 323e 709b 4c3e 361b 273e 5f59 76bd
00000280: 4652 233e 82d0 9cbd 8a21 01bd 26be b83d
00000290: e22c 70bc e537 73bd 1a3c 403e db19 2c3e
000002a0: a9cf 053e a8f3 eabc addf 87bd ffed 0f3e
000002b0: 9e82 123e a1d6 143e a4ae 14bd e55a b03e
000002c0: a4c7 9ebd 50da b33d c0da 8a3d 725b 233e
000002d0: 3cc5 8d3b db15 16bd 76f6 2b3e 2fae 81bc
000002e0: fb73 95bd 951b 833e c0f4 2e3d 43c8 66bd
000002f0: c490 a23d 251a 573e 0eca 7e3d 70ff 173e
00000300: 3360 6abd c270 f3bc 1375 6e3d 98c8 a93d
00000310: 9792 c7bc feea 023e 1b25 2ebe af28 d7bc
00000320: 216b 353d 9ae0 7f3e a90b c0bc de90 aa3d
00000330: 7261 8abc 046e 9abc e25b 63bd ada5 a83d
00000340: 497e 7a3d 96ea 143d db57 c439 5855 1ebe
00000350: 1470 263e ba19 85bb dfba e43d fb0a 5f3e
00000360: 7a14 dcbc 50aa 913e 6e3b 003e e91b ae3e
00000370: 5502 f83d 24c1 39bc 6f11 833e 5b8e 81bd
00000380: 2fac 4d3d 478e c3bc bf6d 83bd 3de6 90bc
00000390: 1d20 1bbd e3be c7bc 64a7 93bd 0cfd f7bc
000003a0: 45c0 16bd ddc2 e03d b294 aebc 8e68 c43d
000003b0: 8974 4b3e 6df9 553e 7de1 1dbd 2260 f33d
000003c0: c024 823e bc9a fabb 1761 f03c 1f04 6f3e
000003d0: 053d 313b 753d 2cbd cf53 5d3e 5d40 433e
000003e0: f609 2f3e 9cf7 bcbc c55e 803d a1a7 cebc
000003f0: e1cc cd3d 5ab1 ed3d f143 993d d435 783e
-0.02923334 -0.02432645 0.123435564 0.16815245 0.07461731 -0.039383832 -0.057552557 0.035672534
0.31715393 0.1573491 0.102471605 -0.119370185 -0.07650451 0.14958829 0.06367559 -0.072417654
0.19897556 0.20721547 -0.043066796 0.115074426 -0.010689535 -0.07167025 0.26710677 0.22771505
0.22475989 0.22421956 0.13735645 0.18602106 -0.04194535 0.092038736 0.17127652 -0.15008268
0.1192474 -0.06482855 0.027438013 0.052031644 0.15098971 -0.044924926 0.14575396 0.18209928
0.17654562 0.16857322 -0.060952157 0.065878294 -0.028041627 0.19250089 -0.019579729 0.26067626
-0.03328168 -0.026197651 0.10086319 -0.23132785 -0.04872142 0.037974227 0.25412998 -0.04350194
0.24495319 -0.06717978 0.13093278 -0.032978207 0.16632669 0.23280077 0.119536 -0.010244888
0.0846141 -0.00064787647 0.23005405 0.11879042 -0.034484494 -0.0436745 -0.06291535 0.22236875
-0.025938349 -0.02599971 0.0979016 0.12169628 -0.040698748 0.26216576 0.18313368 0.085472606
0.19999461 0.06383394 0.20458344 -0.009415377 0.055230714 0.05485761 -0.007826903 -0.04619154
-0.04486176 -0.028030539 0.138347 0.09698726 0.16828203 -0.0690222 0.07733924 0.09945929
0.11048199 0.320523 0.059304576 0.29678914 -0.047262583 -0.020439481 0.14556053 -0.007099899
0.13392371 0.14598282 -0.01470447 0.0736097 -0.025356546 -0.0455776 0.069993705 0.19723445
-0.07055514 -0.049643103 0.050677408 -0.022738194 0.2874999 -0.054208536 0.34601605 -0.025980497
-0.0435297 -0.08428421 0.16638568 0.04686959 -0.061015982 -0.08556463 0.016563687 0.1967555
0.08722536 -0.07302851 -0.07030943 0.065813 0.01690744 -0.037562113 0.102622665 0.09540915
0.17392069 -0.03686193 0.2223868 -0.027785433 0.023259006 -0.062406424 -0.07642024 0.08663128
0.25880614 -0.068256065 -0.041516274 0.25679213 0.20216586 -0.025396716 -0.043664552 0.06266412
0.20725505 0.23062786 0.002464836 0.15675534 0.17478222 0.1998117 0.16318974 -0.060143825
0.15949354 -0.07656957 -0.031526126 0.09020643 -0.014659138 -0.059379477 0.18772927 0.16806738
0.13067497 -0.028680637 -0.0663446 0.14055632 0.14307639 0.14535 -0.036299363 0.34444347
-0.07752922 0.08781874 0.067800045 0.15952852 0.0043264907 -0.036641937 0.16793236 -0.015830128
-0.07297512 0.2560698 0.04271388 -0.05634333 0.07937768 0.21006067 0.062204413 0.14843535
-0.05722065 -0.029716853 0.05821712 0.08290213 -0.024361892 0.12784955 -0.17006342 -0.026264517
0.04429162 0.24988022 -0.02344306 0.083284125 -0.016892169 -0.018851288 -0.05550755 0.08234725
0.06115559 0.03635653 0.0003744949 -0.15462244 0.16253692 -0.0040619047 0.11168455 0.21781532
-0.026865233 0.2845025 0.1252267 0.3400567 0.1210982 -0.011337552 0.25599238 -0.0632598
0.050213035 -0.023871554 -0.06417417 -0.017687911 -0.037872422 -0.024383014 -0.072096616 -0.03027203
-0.036804456 0.10974667 -0.021311138 0.09590255 0.19868673 0.2089593 -0.03854512 0.1188357
0.25418663 -0.0076478403 0.029343171 0.23341416 0.0027044427 -0.042050797 0.21614002 0.19067521
0.17093644 -0.023067288 0.06268076 -0.025226416 0.10048843 0.11606093 0.07483662 0.24239284

network.6.weight f4 [256, 256]
00000000: c5b2 5dbd 66ac 253c 1530 02bf 249f 7dbe
00000010: 80bf e6bd 8eb3 213d 53e4 653c b5bc 8c3c
00000020: 9a59 b5bd 3b65 83bc 76f9 5ebd 1c6a 8dbd
00000030: 324e 28bc 001e e03d 3367 cdbd 0b68 8ebb
00000040: c892 9d3d 6c28 1c3d 72bd 603d dd30 86bb
00000050: e314 96b9 c20c 4c3d acff 893a 16cd cfbd
00000060: 1caa a03d 934c 0fbe 689f 83be db4b e2bd
00000070: 4810 6d3c b6f6 6abe 76ec ec3d ce0b b5bd
00000080: 3d18 89be a8fb f2bc bae6 c2bd b0b4 94be
00000090: aacc 7abe f98e 613d c24b 98be b90e a6bd
000000a0: 78f3 b63d 7afc 323e 24d6 1abd 45fb 18be
000000b0: 8c17 cebb 9fc8 14be 6420 583d be7a 1bbe
000000c0: 632c 513c d18f 31bc 6b0d 88be 8640 cfbd
000000d0: b946 683d 69b7 c1bd 89c4 0ebd f0da 3d3c
000000e0: ce05 6fbd ae44 193d b936 0ebe e5e2 37bd
000000f0: 18d6 17be 0ccc c3bd 3771 20be 6d24 3cbd
00000100: ceb5 913d 3907 bb3c f51a 14bf ed41 45be
00000110: 5001 8dbb f8b9 36bd c063 94bc e769 a7bc
00000120: f8e2 683d d21a 22bd 66f5 a1be 77e5 7cbe
00000130: 51d3 e33c 745f 1c3d c7d7 2dbf d288 08bf
00000140: 947a ac3e d206 85bd d2c4 913d 7e7f 0cbd
00000150: 3c84 f0bd cfad 34be 905a b63c d1b1 463d
00000160: 083d 0d3c 8a49 6ebd 3b85 03be 6e75 3bbf
00000170: 640e d8be a484 6cbd da9c 12bf 5030 87be
00000180: 0f17 7c3d 2594 c13d b82b 57be 1487 b93c
00000190: 4a0a 1abd 12da 14bd 34ec 46bd 53af 24bd
000001a0: a495 91bd 8f96 f9be 5f78 a6bc 8375 06bf
000001b0: 8ce8 bb3c a9df 4c3c 756b 46be 089a 1b3d
000001c0: 969b b6bc 5ce9 923c 5a53 56be d803 5fbd
000001d0: dc8a 12be 231d 66bd becc 8abc 64e6 37bd
000001e0: a0c4 fb3b ad86 89bd 0070 3dbe fa2b 343d
000001f0: 7b7e 37be 8d38 45be d956 f5be da67 4abe
00000200: 32ab 1abf e0cb f33b eb5c e33b 9356 99be
00000210: 54e3 da3c 319a 03bd 8c47 0abb 04a6 9abe
00000220: 9120 15be 0e73 05bd 4b45 273d 2f58 4dbf
00000230: 0871 a7bc 342d 4abd 94b6 4fbd b0ba 6cbe
00000240: e054 6ebc 3d2c 393d c05d 0b3d 9eee bdbc
00000250: 7500 5abe fc7d d53c c225 3dbf dea8 023c
00000260: bc41 a2bd 7ada 9ebd 826e 9b3d 28d7 67bd
00000270: b8f7 2bbe d1ad 39be c0c8 63be 4bbb b2be
00000280: 634b c7bc 4033 6f3c ccca dd3c 07b7 8bbe
00000290: 596f 6e3c fb79 09bc 85f2 bdbd bf5f 013d
000002a0: 62fc cabd 5c7e aabc fa05 f3be 4a69 503c
000002b0: 4cfe bbb9 3147 bfbe 2a96 7e3d 22e6 bc3d
000002c0: 60f7 463c 602a 99be 6e0a b3be be9a 233e
000002d0: 9a13 44bf ced4 eebc 7895 25bd 7af3 8c3b
000002e0: 100b 10bc 64e5 713d cbbf 3ebf a481 133d
000002f0: 225d debe f607 b63d e16e 47be f468 06be
00000300: 8485 e23c 0069 9dbc 7996 2fbf 87e2 89be
00000310: 9ce1 c6bc f19b 95bc 4f5f a33b 969e 0fbd
00000320: 7909 e03d e50c e13e b42d 6f3d b3c6 aa3d
00000330: 8fc1 143d c7e8 16bc ee90 01bd 6841 103d
00000340: 25ce bfbd 1b65 50bf 5fa4 ce3c 3683 c1bd
00000350: edd1 cabd a548 66bd 0600 093c becc 0abd
00000360: 06a9 3abd 8c37 973d fd7b 5ebd 80df 7d3c
00000370: 1a04 ccbe 097d 1ebd 24bb 1bbd 2b7f 82bd
00000380: f6af dcbe a818 5e3c f3c4 49bc a569 84bd
00000390: 132c 973d 20b5 19bd b40d ab3d 1f98 46bd
000003a0: 83f2 02bf 5c4c dbbe 4199 ac3b 4797 0cbf
000003b0: 7431 37bd cced 0cbe d23e 72bf 2734 d9be
000003c0: 806d 0d3d e5fe 133d 2e78 543c ae28 3a3d
000003d0: 3532 843d 3e5f 403d a798 f5bc 249e abbd
000003e0: e7a6 813e 8085 f93b ec43 06bf 3053 2dbd
000003f0: 8db1 893b ffb7 09be fcca 0ebf 8c0f efbd
-0.054125566 0.010111904 -0.5085462 -0.24767739 -0.112669945 0.039477877 0.0140314875 0.017179826
-0.08854981 -0.016039481 -0.054437123 -0.069050044 -0.010272549 0.10943222 -0.10029449 -0.004345899
0.07694012 0.038124487 0.05486817 -0.0040951804 -0.0002862579 0.049816854 0.0010528467 -0.10146539
0.07844946 -0.13994054 -0.25707555 -0.110496245 0.014469214 -0.22945675 0.11568539 -0.08840142
-0.26776305 -0.029661015 -0.09516664 -0.29044104 -0.24492136 0.05506799 -0.297453 -0.08108277
0.08933157 0.17479125 -0.037801877 -0.14939602 -0.006289428 -0.14529656 0.052765265 -0.15183541
0.01276693 -0.010837511 -0.26572737 -0.10119729 0.05670807 -0.09458811 -0.0348554 0.011587843
-0.058355145 0.037419014 -0.13888063 -0.044894118 -0.14827764 -0.09560403 -0.15668188 -0.045933176
0.071147546 0.022830592 -0.57853633 -0.1926343 -0.004303135 -0.044610947 -0.01811397 -0.02043624
0.05685708 -0.03957636 -0.31632537 -0.24696909 0.027810724 0.03817697 -0.67907375 -0.5333377
0.3368727 -0.064954415 0.071176186 -0.034301274 -0.11743972 -0.17644428 0.02225998 0.048509423
0.008620508 -0.0581756 -0.12843792 -0.7322606 -0.4219848 -0.057743683 -0.57270586 -0.26404047
0.061545428 0.094520845 -0.21012771 0.022647418 -0.03760747 -0.03634078 -0.048565105 -0.040206265
-0.0710862 -0.4874768 -0.02032107 -0.5252306 0.022938035 0.012504497 -0.19376929 0.037988693
-0.022290986 0.01793354 -0.20930234 -0.054447025 -0.14310783 -0.05618013 -0.016943332 -0.044897452
0.0076833516 -0.067151405 -0.18499756 0.04398725 -0.17919342 -0.19259854 -0.47917822 -0.19766179
-0.60417473 0.0074400753 0.006938567 -0.29948863 0.026719727 -0.03212947 -0.0021099774 -0.30204785
-0.14563204 -0.032580428 0.040837567 -0.8021268 -0.02043964 -0.049359515 -0.05071123 -0.2311809
-0.014546603 0.045208205 0.034024954 -0.02318507 -0.21289237 0.02606105 -0.7388574 0.007974831
-0.07922694 -0.07756515 0.07589437 -0.056601673 -0.16793716 -0.18132712 -0.22244549 -0.34908518
-0.02432794 0.014599621 0.02707424 -0.27288076 0.014552915 -0.008390899 -0.092747726 0.03158545
-0.099114195 -0.020812206 -0.47465497 0.012720415 -0.00035856885 -0.37359002 0.062154926 0.09223582
0.01214394 -0.29915142 -0.34968895 0.15976998 -0.7659241 -0.029154208 -0.040425748 0.0043014856
-0.0087917 0.059056655 -0.745114 0.036012307 -0.4343043 0.08888237 -0.1947589 -0.13125974
0.027651556 -0.019215107 -0.6858898 -0.2693064 -0.0242775 -0.018262835 0.004985727 -0.03506335
0.10939307 0.4395515 0.058393195 0.0833868 0.036317404 -0.009210772 -0.031632356 0.035218626
-0.09365491 -0.81404275 0.025224863 -0.094488546 -0.099033214 -0.056221623 0.008361822 -0.033886664
-0.04557135 0.073836416 -0.054317463 0.015495181 -0.3984688 -0.03869346 -0.038020268 -0.063719116
-0.43102998 0.013555683 -0.012315023 -0.064654626 0.07381453 -0.03752625 0.08352223 -0.048484918
-0.51151294 -0.42831695 0.0052672927 -0.5491833 -0.044724897 -0.13762587 -0.94627106 -0.42422602
0.034528255 0.03613176 0.012968106 0.04544895 0.06454889 0.04696583 -0.029980017 -0.08379772
0.2532265 0.0076147914 -0.5244739 -0.042315662 0.004202074 -0.13449095 -0.5577848 -0.11672887

network.6.bias f4 [256]
00000000: d22c a63f 1002 603f a6d0 a2bd 9295 96bd
00000010: bf6c 6c3f 6299 9f3f 40d4 563f 16f3 9b3f
00000020: ea0f 773f 20ba 8b3f 8434 883f e3f1 7a3f
00000030: 9674 593f 3ada b03f 194c 9e3f 3bc5 ab3f
00000040: 6255 a63f b4ac 97bd da5f a43f ca91 733f
00000050: 6778 633f 4824 aa3f 9b46 883f 28ed 923f
00000060: b526 9e3f ca5e ab3f d0ca 693f b7c7 873f
00000070: cb95 20bd 3225 773f f288 86bd 4ec4 a83f
00000080: 909d f63c 4ca7 923f 4d16 6c3f e9f8 a9bd
00000090: dad0 9c3f f699 a03f 8e6a aa3f d889 863f
000000a0: 39f1 9c3f bdcc 973f 07e6 95bd 7e39 79bd
000000b0: 87c1 9a3f 4845 9d3f 0979 893f edd8 8c3f
000000c0: cc8f 8e3f 7116 883f 2552 8b3f 33c2 6e3f
000000d0: bedc 963f 2444 883f 78b3 a63f 4ee7 a83f
000000e0: 90d2 c1bd edc4 843f 3703 a23f 49b1 693f
000000f0: 27e2 653f b056 6f3f d1dc f73e 43d0 853f
00000100: 9491 603f fa66 9d3f 3f37 35bd 8eda 9dbd
00000110: f79c a63f 4efc a53f b5e7 873f 5d3f 983f
00000120: 0570 8a3f 599a b6bd 02a4 5d3f 68c5 5c3f
00000130: 3dfd 903f 9efa 5e3f c392 793f cfd4 893f
00000140: 10c0 a73f 9706 953f a62e a63c 0ecb 9d3f
00000150: 12ea 843f ec25 a63f e3ec 8d3f b0fd 773f
00000160: 1a63 613f d9c3 ab3f eb11 9f3f 2ca6 973f
00000170: b73e 913f a8bb 913f 9424 b23f de00 623f
00000180: 35a6 af3f aacc 833f ae84 153f e42e 9fbd
00000190: fa88 903f d826 7d3f b40e 9e3f ba8f 543f
000001a0: f4b7 8f3f f006 b6bd 38b8 af3f f4c6 7e3f
000001b0: 9cb0 5b3f c1b2 05bd 79cf 753f bd89 b13f
000001c0: 92ac 983f e339 8a3f a9e0 913f 812e 853f
000001d0: 04a9 663f a363 733f fafb 823f abbb 833f
000001e0: 7ba9 773f 3338 933f 4c38 a33f e9d5 553f
000001f0: 61c3 893f 4793 933f 169c b53f 74eb a53f
00000200: 2b85 8f3f 2ba9 6d3f 81ac 8d3f cc13 843f
00000210: a110 873f 9adb eabd 57be 833f 3301 963f
00000220: 8324 5a3e d777 563f dee7 743f 55c2 8b3f
00000230: 7f43 e23e 31b1 5a3f 30f3 743f efda 873f
00000240: 789b 893f 3bc2 8b3f 1f67 9b3f 74ef 943f
00000250: d149 9e3f d2ec 8f3f b849 ac3f e6d4 443f
00000260: 701d abbc 0848 a13f 9d87 983f 781b 563f
00000270: 04ec 12be 1b6b 943f 8932 a33f 055c 923f
00000280: 9ea8 8f3f b6f8 4a3e be85 7e3f 3d93 9e3f
00000290: 42bc 9e3f 3110 953f 51fd 9c3f 4326 983f
000002a0: bb6f 8bbd 1179 56bd 8f69 8d3f 3ab9 ae3f
000002b0: 61af a73f 7a4e e7bc 529a 9f3f 806a a83f
000002c0: 276e 983f 92c7 553f 5620 b73f ba51 a63f
000002d0: 010d 993f a1b4 90bd 217b 923f 4427 8d3f
000002e0: f961 643f 7937 af3f 8b4e 6a3f 7043 8a3f
000002f0: cd35 683f c02f 943f 3549 8fbd 63b4 70bd
00000300: 8a6e 843f 798f e3bc cd9a a63f 79ca a23f
00000310: 63d8 5c3f f2d2 b83f 7347 7d3f f1b0 cfbd
00000320: 6428 943f cc33 9f3f ef6f ae3f fb78 963f
00000330: 18a4 653f a5b7 953f 7332 b0bd f80f 8b3f
00000340: 9b66 973f eac3 723f 481c 923f 8320 9a3f
00000350: 17fa 963f 6d12 883f 3d3a 243f b1a5 a8bd
00000360: c2d8 a13f 784e 263f 6f73 993f a4c2 aa3f
00000370: dc56 4a3f c6e8 863f 18db 8d3f 3327 8d3f
00000380: a144 6a3f 605f 703f 257e 5e3f f785 723f
00000390: 4063 8b3f 4522 883f 8481 a9bc 8d76 8a3f
000003a0: 97c6 903f 8f10 a93f 193b 8e3f ddf8 4e3e
000003b0: 9992 5abd 50b3 ac3d d207 733f 423e 943f
000003c0: 9d23 8a3f 1061 853f d4e2 993f 6b9e 573f
000003d0: 63ff 9e3f 26a0 ac3f 6a59 753f b513 873f
000003e0: 18a3 983f d9cb 8d3f ba29 9f3f 73fc a6bd
000003f0: 5417 6a3f 2879 bb3f a6b1 aa3f 6f5a 723f
1.2982428 0.8750315 -0.07949953 -0.07352747 0.92353433 1.2468684 0.8391762 1.2183559
0.9650866 1.0916176 1.0641026 0.9802534 0.8494352 1.3816597 1.2366973 1.3419565
1.2994807 -0.074059874 1.2841752 0.9514433 0.88855594 1.3292322 1.0646547 1.1478624
1.2355562 1.3388302 0.9132509 1.0607823 -0.039205354 0.9654113 -0.06569089 1.3184907
0.030104429 1.1457305 0.9222153 -0.08299429 1.2251236 1.2546985 1.3313768 1.0510817
1.2261115 1.1859356 -0.07319265 -0.060845844 1.209031 1.2286768 1.0740062 1.10037
1.1137633 1.0631849 1.0884444 0.93265074 1.1786115 1.0645795 1.302352 1.3195589
-0.0946399 1.0372597 1.2657231 0.9128614 0.89798206 0.9349165 0.48410657 1.0454181
0.87722135 1.2297051 -0.04424214 -0.077077016 1.3016652 1.2967622 1.0617586 1.1894337
1.0815436 -0.08916158 0.8657838 0.8623872 1.1327282 0.8710116 0.97489566 1.0768069
1.3105488 1.1642636 0.020285916 1.2327592 1.0383933 1.2980323 1.1087917 0.9687147
0.8804184 1.3419143 1.2427343 1.1847587 1.1347264 1.1385393 1.3917413 0.88282573
1.3722597 1.0296834 0.5840558 -0.077726156 1.1291802 0.98887396 1.2348237 0.8303181
1.1228013 -0.08888042 1.3728094 0.9952233 0.8581636 -0.032641176 0.96019703 1.3870159
1.1927664 1.0798916 1.1396686 1.0404817 0.9010165 0.9507391 1.0233147 1.0291647
0.9674298 1.1501526 1.2751555 0.83529526 1.076275 1.152932 1.4188259 1.296248
1.1212515 0.92836255 1.1068269 1.0318542 1.055195 -0.11467667 1.0292462 1.1719116
0.2130299 0.8377661 0.956663 1.091868 0.4419212 0.8542662 0.95683575 1.0613688
1.075057 1.091865 1.2140845 1.1635575 1.2366277 1.1244147 1.3459997 0.7688736
-0.02088806 1.2600107 1.1916386 0.83635664 -0.14347845 1.1595186 1.2749797 1.1434332
1.1223333 0.19821438 0.99422824 1.2388684 1.2401202 1.1645566 1.2264806 1.1886677
-0.0680842 -0.05236155 1.1047839 1.3650277 1.3100396 -0.028235663 1.246897 1.3157501
1.1908616 0.83507645 1.4306743 1.2993691 1.1957093 -0.07065702 1.1443826 1.1027608
0.89211994 1.3688804 0.915261 1.080183 0.90707093 1.1577072 -0.06996385 -0.05876578
1.0346234 -0.027778374 1.3015991 1.271804 0.8626768 1.4439375 0.9893715 -0.10141171
1.1574826 1.2437682 1.362791 1.175567 0.8970351 1.1696669 -0.086033724 1.0864248
1.1828188 0.9483019 1.1414881 1.2041172 1.1795071 1.0630623 0.64151365 -0.08234728
1.2644274 0.64963484 1.1988353 1.334065 0.79038787 1.0539787 1.1082487 1.1027588
0.9151097 0.9389553 0.8691123 0.94735664 1.0889664 1.0635458 -0.02069164 1.0817429
1.1310605 1.3208178 1.1111785 0.20212121 -0.053362463 0.08432639 0.9493381 1.15815
1.0792118 1.0420246 1.2022347 0.842261 1.2421688 1.3486373 0.9583956 1.0552889
1.1924772 1.1077834 1.2434609 -0.081536196 0.91441846 1.4646349 1.3335464 0.9466924

network.8.weight f4 [3, 256]
00000000: fdce fe3e 8d99 debd 67bc 96bc 00d9 18bd
00000010: 41ba 29bf 762a c13e efe4 bdbd 5c44 013f
00000020: 93d1 a3be e2a4 fa3e 0546 17bd f817 eb3d
00000030: 087d c2be 742a 703f 4768 223f c1be 033f
00000040: 64cc b33e c892 ebbc 6976 2d3f 76ba a0be
00000050: 337f bfbd 2649 193f a89e cd3e f271 88be
00000060: 0f9c 173f b672 433f 72e8 17be 32e4 c53e
00000070: f1e9 72bc c605 07be b8b3 223d cf8d 093f
00000080: 96cc 70be 098b a0be 86dd a9bc ddbf 3dbc
00000090: 4130 c03e b9eb b53e fd5a fc3e a5d3 a43c
000000a0: 86c4 ee3e dd4d d5be 2e4c 1dba 244b 0d3c
000000b0: 0fbc a83e 4ea6 0e3f 1483 6ebe aa5e 75be
000000c0: e08e 453f 289e 9c3d 91bb 32be 089b 14be
000000d0: 2233 0b3e 0c50 b8bf 001b c73e 8914 8bbf
000000e0: e78b 233c ede0 78be c09c 053f 7745 54bd
000000f0: e849 f0bd 4140 35bd dc90 29bf 4f8a b2bd
00000100: 5f08 843d 17ce 743e 8392 f43c 6708 163b
00000110: 1721 153f f8bb 173f 3179 a0be 8913 633f
00000120: 6f56 98be 6ea5 073d 0f52 ce3c 8c94 2abc
00000130: 1b5e 83be c016 30be adc1 163f d0e2 1ebe
00000140: f5dc c63e 92a4 b5be 8e84 333e a514 e93e
00000150: 1599 a0bd c73d 4c3f 4bba 8dbe fa7d ba3e
00000160: c809 c8bf 1a01 173f 7f88 163f cbfd e23e
00000170: f1dd 96be 0e9f a7be 131f e73e e058 d03d
00000180: c5ff 853f ecf2 63be caba 343f 67ca 263d
00000190: da27 f6be 48a8 49be 29ec a43d 88c0 6cbe
000001a0: 7792 463f d598 873b 5590 0d3f e51e f2be
000001b0: 042e f43c 5d40 f23c b67a 37bf 8e77 143f
000001c0: 889f dc3e 9631 f9bc fa96 99be 9fab 0fbd
000001d0: bb30 64bc 551a 19be 827f 07bf 187f 983f
000001e0: a789 08bf 724e f83e 8b1e 363f b36e 70bd
000001f0: fcfd 1abe 1b83 99be d119 7d3f 9766 cf3e
00000200: 96c5 8ebe cd20 9fbe 7cbc 4fbe ae36 96be
00000210: 3d06 21be db3c 863c 0206 8cbe 7949 99be
00000220: 7dbc 9fbd a237 003e 76ea 5cbf 5d45 013f
00000230: f94e cc3e a1c0 3fbe 8580 a6be ce42 b5be
00000240: 9cf4 d3be dc39 a1be 3f15 e53e f8a9 40bf
00000250: d63a 113f ec4c 9fbe 28b9 293f 4e70 4dbd
00000260: a837 ccb9 a0f0 103f 112d 81be 6fcf 63be
00000270: 8c49 7ebb c042 86be 1917 163f f002 cfbe
00000280: b7e3 133f 6735 f33d 311f 3bbe b62d ec3e
00000290: 9421 85be 1d96 94be 85c5 94be 84d4 a33e
000002a0: 4d94 3fbd 87a0 063c 5bf8 5fbe 96cf 273f
000002b0: 492e e73e 2eae 823d e311 023f 7976 083f
000002c0: 096a 493e 187e 10bd bdbe df3e e4a7 053f
000002d0: b651 cc3e 309d 12bd 0927 253f 20d9 8ebe
000002e0: 007e a8bd 93c7 f53e dd61 9cbe 3838 e63e
000002f0: ba5f 68bd a8c0 88be 5857 7ebb e8d5 b63b
00000300: 17f9 90be 30d5 49bd 920f 073f f998 0f3f
00000310: e2bb 07bf eb0f 0e3f 03d3 d23e 1f99 70bc
00000320: d9c2 0e3e 1473 fd3e 6004 143f 9f50 383e
00000330: 5561 80bd 5581 d03e e33c e13c 08cf e1be
00000340: d9ac f73e 6607 5fbf c753 3b3f 9f18 95be
00000350: e3c6 633f b845 cbbe 8345 98bf b00e dfbc
00000360: e32c 193f 970b 413f 3614 3bbf 7ef0 4f3f
00000370: 9ab1 a53c d5a0 4ebe 282f e43e fba1 223f
00000380: 9ece 0dbf 3237 903e 4313 91bd cb12 31be
00000390: acd2 73be 264f b1be 9014 803b 2437 9abe
000003a0: 8bbf 893d ffe4 c73e 20be ecbe 62d7 253c
000003b0: 0bb3 14bd ff17 5e3f de1d 84be 1422 a23f
000003c0: 03ef 943e 95db c43d 857f d03e 7f31 cfbe
000003d0: 6532 1f3f 8042 1f3f 62ad d0bd a948 5c3f
000003e0: 3fb4 8d3f bdf6 e7be fde0 153f 123a 833b
000003f0: 7108 93be 4dc9 c33e 719b 113f 942d f3bd
0.49767295 -0.10869131 -0.018400384 -0.037316322 -0.66299826 0.37727708 -0.09272181 0.50494933
-0.3199583 0.4895392 -0.03693201 0.11479181 -0.37986016 0.9381478 0.63440365 0.5146294
0.35116875 -0.028756514 0.67758805 -0.31392258 -0.09350433 0.5987724 0.40160108 -0.26649433
0.592225 0.7634691 -0.14834765 0.38650662 -0.014826284 -0.13185796 0.039722174 0.5373201
-0.23515543 -0.31356075 -0.020735513 -0.011581388 0.37536815 0.35531405 0.4928817 0.020120451
0.4663431 -0.41660967 -0.00060004264 0.008623872 0.32955977 0.5572251 -0.2329219 -0.23961893
0.77171135 0.076473534 -0.17454363 -0.14512265 0.13593724 -1.4399428 0.38887787 -1.0865642
0.009982086 -0.24304552 0.52192307 -0.05182406 -0.117328465 -0.04425073 -0.6623666 -0.087177865
0.06446909 0.23906742 0.029855018 0.0022893192 0.58253616 0.5927119 -0.31342462 0.88701683
-0.29753444 0.03311675 0.025185613 -0.010411393 -0.25657734 -0.17196178 0.58889276 -0.1551621
0.38840452 -0.3547712 0.17531034 0.45523563 -0.07841698 0.79781765 -0.27681193 0.36424237
-1.5627985 0.58986056 0.58802027 0.44334254 -0.29466203 -0.32738537 0.45140895 0.101732016
1.046868 -0.22260636 0.7059752 0.04072037 -0.4807728 -0.196931 0.080528565 -0.2312032
0.7756724 0.004138092 0.5529836 -0.47289196 0.029807098 0.029571706 -0.7167162 0.57994926
0.43090463 -0.030419152 -0.29997998 -0.03507578 -0.013927634 -0.14951451 -0.52928936 1.1913786
-0.5333504 0.4849735 0.71140355 -0.05869932 -0.1513595 -0.29982838 0.9886752 0.40507957
-0.2788512 -0.31079713 -0.20286745 -0.29338592 -0.15725036 0.01638644 -0.27348334 -0.29938868
-0.07799623 0.12521222 -0.8629526 0.50496465 0.39904 -0.18725826 -0.32519928 -0.3540253
-0.4139756 -0.31489456 0.44742772 -0.7525935 0.567304 -0.31113374 0.6629815 -0.05015593
-0.0003895138 0.56617165 -0.25229695 -0.22247098 -0.0038801162 -0.262228 0.58628994 -0.4043193
0.5776934 0.1187542 -0.18273617 0.46128625 -0.2600218 -0.29020777 -0.29056945 0.31998074
-0.04677229 0.008216984 -0.21872084 0.65551126 0.451525 0.063808784 0.5080854 0.53305775
0.19669355 -0.035276502 0.4370021 0.52209306 0.3990609 -0.035794437 0.6451269 -0.27900028
-0.082271576 0.48003826 -0.30543414 0.44964767 -0.056731917 -0.26709485 -0.0038809385 0.005579699
-0.2831504 -0.049275577 0.52758133 0.5609279 -0.5302106 0.5549304 0.41176614 -0.014684944
0.13941516 0.4950186 0.57819176 0.17999505 -0.062685646 0.40723673 0.027494853 -0.44103265
0.4837406 -0.87120664 0.7317471 -0.29120347 0.8897535 -0.3970163 -1.1896213 -0.027228683
0.59834117 0.7540831 -0.73077714 0.81226337 0.020226289 -0.2017854 0.44567227 0.6352841
-0.553934 0.2816711 -0.07083752 -0.17292325 -0.23810834 -0.34630698 0.0039087012 -0.30120194
0.06725987 0.39041898 -0.46238804 0.010122152 -0.03630356 0.86755365 -0.25804037 1.266665
0.290886 0.096121944 0.4072229 -0.4046745 0.6218627 0.62210846 -0.1018932 0.8604837
1.1070632 -0.45305434 0.5854643 0.0040047253 -0.28717378 0.38239518 0.5687781 -0.11873928

network.8.bias f4 [3]
00000000: d301 febe 77eb 5fbe a63b 3abe
-0.49610767 -0.21867166 -0.18186817
