runs/abrupt/egp/seed_2/online_stream_model.pth (torch, 535757 bytes, 8 tensors)

network.0.weight f4 [256, 2]
00000000: 898c 2d3e 8985 24c0 36f2 bb3e e2cd 17bf
00000010: 3022 5d3d 861b 1abf c9c8 7fbd ca5c ddbf
00000020: 5f17 1c3f 2443 963e 0f28 edbe 6831 35bf
00000030: 63c9 7c3d a4c3 4fc0 2a92 9abe e4f4 203f
00000040: 4e96 f73e c6fd 7bbe 4e13 e83e 9813 843e
00000050: 2001 01bf f44a 1fbe 6bc3 cabe d39e 6bc0
00000060: 1ac3 fc3e b806 11bf d80c 973d c0e9 cfbe
00000070: a7da 343f a21a e4be 4287 513e 2aa7 2840
00000080: 489c 723e 5070 b8be 9861 94be 026a 1f3f
00000090: 537e 263d 7250 3b40 178c d6be 6042 093f
000000a0: c423 90bd 0d81 65c0 603b 813c ee3b 843e
000000b0: c450 82be 4569 173f 6ada f33e e07c 7a3d
000000c0: 5118 7ebd 5c3f e8bf d06c 463d d854 17c0
000000d0: cd5f 1dbe e1cf 31c0 d528 6f3d a85c c8bf
000000e0: 9680 fc3c 9732 f5bf 7e49 8c3d 0bf3 4ac0
000000f0: 001d db3d 9b5d 1d3f e819 f03d c4b0 69be
00000100: d2c1 79bd 9031 16c0 c026 8bbe 102d e2bf
00000110: e883 b6bd 6218 23bf 4b86 0a3f b03f f93d
00000120: b9f2 3f3f 3537 0540 6f47 233f 8010 e3bd
00000130: 54d4 f1bd 7a13 1fc0 c8ad 793e 86fc 5940
00000140: a2fe 993e 1817 fabd 0113 033e a4aa eebf
00000150: 4a85 cb3c 2767 0ac0 a8c1 693e 4937 d7be
00000160: 40d7 1a3c 30ce 573e 058f 5f3f 092a 1a3f
00000170: 99bc 02bf 3c4c 41be 480d 85bd ebd2 0a3f
00000180: 4d4b 353e c49e 2140 f5c8 803e b3c2 cfbf
00000190: 2b66 1b3d aeab 3ac0 49c5 1fbf 0a8f a13f
000001a0: ca58 053e f971 0240 94c7 d93e 3acb abbf
000001b0: 6814 00be d7d1 12bf 7025 bebd fa38 18c0
000001c0: c34e 0fbf 942b b93f 6824 92bd ea62 ab3e
000001d0: b645 19bf fbbb 0e3f a982 02be 4d33 0cc0
000001e0: 060a 0c3e ed0c 1fc0 8e67 0dbe 1d22 41c0
000001f0: d6aa b33e 8144 213f 2d68 2b3e ca07 14c0
00000200: bd6c 21be e697 0440 f9d3 a23d bc08 0cc0
00000210: c661 383e 5c2e f23e 81e7 333e 00c4 0fc0
00000220: 52f3 833e f7e3 0c40 d6b5 15bf 31d8 e13f
00000230: b04c ce3e b742 af3e a088 5e3e cec2 d9be
00000240: e60e 553c 07ca c4bf 2cc2 513e 40e1 ff3d
00000250: d0f5 4e3d 2226 c83e bcea 153f a4f1 133f
00000260: d0dd 9a3e cb89 f3be 43c3 f93c 1061 f2bf
00000270: 343c 863d f260 cdbf 8360 e0be 9ad9 3cbe
00000280: 361e bbbe a313 16c0 e30a b0be 27a7 1f3f
00000290: f8d2 1bbf b777 8c3f 9db1 eb3b 4ff6 22c0
000002a0: 4944 993d a542 11c0 166e f63e 02b2 5abf
000002b0: fd9e a7be 063b 69c0 c065 8cbe 8c3e 08be
000002c0: 0854 4e3e 9803 bc3d 7393 73be 2fb7 84bf
000002d0: 5527 b3bd fbf5 4bc0 2c60 2d3e 2294 dfbf
000002e0: 4722 143f 799c eb3f 2696 cfbc d1a4 eabf
000002f0: e3ea ecbd 43d4 30c0 406e 1f3e 9f5c d0be
00000300: e01b dfbd 4bbd 153f 735e 7f3e 956c 20c0
00000310: 3aaf c13e 401c 81bd 345c aebe e061 f33c
00000320: 7b9c 2a3f 31aa 8bbe 42c4 ab3e a92f 38c0
00000330: c028 fe3d fa4e 0dbf b4cf 893d fedb 3e3f
00000340: 7d5b 8e3c 8199 0fc0 6839 e33e 866c 4f3f
00000350: 41b6 873d 5fc0 1bc0 a595 2e3e 8e66 10c0
00000360: fef5 d93e 60ea e33c 7346 1fbe d404 bfbe
00000370: 1f79 103f 7843 c0be 903c 853d 3b14 013f
00000380: 2ecf a43e 28e2 fdbd a01e c2bc e48e fcbe
00000390: 4b47 513e 027f 3440 5866 b83e 19fc d63e
000003a0: 1216 463e 5d91 703f 04f6 fc3e 404a 0ac0
000003b0: 0188 563f 31fa b5be c54f 6e3e 97d9 703f
000003c0: 8109 0e3f 625c d23e 4284 83be c8f9 963d
000003d0: 2f69 0bbe eea1 663f 4384 8e3d 997b c9bf
000003e0: 68e1 753e 206b 17be a8f9 953d d0b4 00bd
000003f0: 2980 94be 10ac 2cbd ed98 0cbf 6cba 2b3f
0.16948141 -2.5706503 0.3670823 -0.5929853 0.053987682 -0.6019825 -0.062447343 -1.7293942
0.6097316 0.293481 -0.46319625 -0.7077851 0.061715495 -3.246316 -0.3018964 0.62873673
0.4835686 -0.24608526 0.45327228 0.257962 -0.5039234 -0.15555936 -0.39602217 -3.6815689
0.493676 -0.56650877 0.073754966 -0.40608025 0.70646137 -0.4455157 0.20461753 2.635203
0.23692429 -0.36023188 -0.28980708 0.6227113 0.040647816 2.926785 -0.41903755 0.53616905
-0.07038072 -3.5860016 0.015775383 0.25826973 -0.25452244 0.59145004 0.47627574 0.061154246
-0.06203491 -1.8144336 0.048443615 -2.3645535 -0.15368576 -2.778313 0.05838855 -1.5653276
0.030823033 -1.9156064 0.06849955 -3.1710842 0.10698891 0.61470956 0.11723691 -0.22821337
-0.060975857 -2.346775 -0.27178 -1.7670002 -0.08911878 -0.6370908 0.54111165 0.121703506
0.7497974 2.0814946 0.63780874 -0.110871315 -0.118080765 -2.4855638 0.24382699 3.4060378
0.30077082 -0.12211436 0.12800218 -1.8645825 0.02484383 -2.162546 0.2282778 -0.42034367
0.009450734 0.21074748 0.87327605 0.6022039 -0.5106903 -0.18876737 -0.06496674 0.54228085
0.17704506 2.5253153 0.25153318 -1.6231292 0.03793923 -2.9167285 -0.6241041 1.2621777
0.13022152 2.0382063 0.4253508 -1.3421395 -0.12507784 -0.5735144 -0.092844844 -2.3784776
-0.55979556 1.4466424 -0.0713585 0.33473903 -0.59871995 0.55755585 -0.12745155 -2.1906312
0.13675699 -2.485164 -0.13809034 -3.017707 0.35091275 0.62995154 0.16738959 -2.3129754
-0.15764137 2.0717711 0.07950587 -2.188033 0.18006048 0.47300994 0.1756878 -2.246338
0.25771576 2.2014139 -0.58480585 1.7644101 0.40292883 0.34230587 0.21731806 -0.42531437
0.01300404 -1.5374154 0.20484227 0.12494135 0.050527394 0.39091593 0.585613 0.5779059
0.30247355 -0.47566065 0.030488616 -1.8935871 0.065544516 -1.604521 -0.43823633 -0.18442383
-0.36546487 -2.3449485 -0.34383306 0.6236443 -0.6086879 1.0974034 0.007192804 -2.5462835
0.074837275 -2.2696927 0.48130864 -0.8542787 -0.32738486 -3.6442275 -0.2742138 -0.1330511
0.20149243 0.09180373 -0.23786716 -1.0368403 -0.08747736 -3.1868885 0.16931218 -1.7467082
0.57864803 1.8407127 -0.025340151 -1.8331548 -0.115682386 -2.7629554 0.15569401 -0.40695664
-0.108939886 0.58491963 0.24938373 -2.5066273 0.37829 -0.063042164 -0.3405472 0.029709756
0.6664502 -0.27278283 0.3354817 -2.877909 0.12410116 -0.55198634 0.06729069 0.7455443
0.01737761 -2.2437441 0.44379735 0.8102497 0.06626559 -2.4336164 0.17049272 -2.2562594
0.4257049 0.02782172 -0.15554218 -0.3730837 0.56434816 -0.37551475 0.06505692 0.50421494
0.32189316 -0.123966515 -0.023696244 -0.49327767 0.20437352 2.820252 0.36015582 0.4198921
0.19344357 0.93971807 0.49406445 -2.1607819 0.83801275 -0.35542443 0.23272617 0.94082016
0.5548325 0.41086107 -0.25686842 0.07371861 -0.13614343 0.90090835 0.06958821 -1.5740844
0.24011767 -0.14786959 0.07323009 -0.031422436 -0.29004028 -0.04215628 -0.54920846 0.6708133

network.0.bias f4 [256]
00000000: f12c 763d 2e0d 30bf a8a2 debd ce9f 673d
00000010: 0dbe 983e dfb1 99be 0217 babb 9f99 41be
00000020: b310 e4be 2520 0cbf 884f 34bf 6573 b9be
00000030: 0d11 06bf b941 13bf 0d99 f7be 065d 96bd
00000040: 127a cfbe c2fd b6be d7c9 d33b 013c 8dbe
00000050: 97f9 debd a629 1fbf 9647 26bf 65f4 01bf
00000060: 4047 6e3d 1c16 043e b689 1abe 0212 c33d
00000070: 43b9 c23d f484 0ebb 2778 b1be 556b 83be
00000080: 5811 42bd 4ff9 64be 275f 2bbf 4abe 8f3e
00000090: 9a35 5fbe 32a3 2ebf 33e4 04be 8e2d c0bd
000000a0: bd46 bcbe 2b1d 1b3e 2f36 df3d 2595 f1bd
000000b0: 05b8 dcbe 4c05 85be c07b 20bf 4da3 03bf
000000c0: 3eac 8dbd 2ec3 f23d 9f45 bc3c 1571 01bf
000000d0: 1800 5ebd 1a58 483e 1c18 a6be 278b 9b3d
000000e0: fecd f3be 320f 60be 384f dbbe bac9 09be
000000f0: 2bff 363d c18b 18be 0adf 1ebf bbdb 473e
00000100: ee57 07be c155 083e 6744 a23b c91a 8c3d
00000110: d87e 83bd dc63 efbe 5c62 263e 3859 dbbd
00000120: 3dcd 973d 959b d0bb 7d6e d4be cbfd cb3b
00000130: e5a2 16be dc5e 9f3c 9956 cd3d 9339 0ebf
00000140: fd57 9abe 7ba4 34bf 9b11 ebbe ed6d f23d
00000150: 2ea2 0b3e e715 5f3e 0937 9abe c31e 2fbf
00000160: 686b 3abe b3d1 44be ec9a f3bd 9058 973d
00000170: 9836 1cbe 3405 973d 8d4a 83bd f667 57be
00000180: a790 cdbe 27a3 db3d 987d 1dbf 5b59 20bf
00000190: 7a43 32bf bad3 1b3e 2e01 01bf 1930 033d
000001a0: 07e0 8ebc 4369 1e3c 1c70 0d3e c071 453e
000001b0: ead8 23bf d0e7 6ebe a18c 1abf 3242 efbe
000001c0: 8495 0fbf 2a04 35bf aa0f 9cbd 3c76 e6bc
000001d0: 281a c8bb 5947 693e d6de 03bd 3550 6bbc
000001e0: 7a46 863e 7390 12bf 914d efbd 2aec d63d
000001f0: 1cf8 d2be fc7b b1be c859 f0be 995c eabe
00000200: 320d ebbe 4c93 16bf 0037 b7be 7f1a 0a3d
00000210: c53b 3cbd 9ecc 41bd ba50 23bf 1b7e eabe
00000220: e26a 33bf 073f 09bf a4d1 48be 5a61 52be
00000230: 1e58 593c 8f17 ebbe 6a86 15be b1be 0dbf
00000240: b789 0f3e b9a6 a2bd 3613 0cbf 00f7 b7be
00000250: f466 19be 22a5 30bc bb9e b6bd 8018 a43e
00000260: 8d94 d03d f7b7 31bd 0f52 69bd 5615 80be
00000270: 8fc4 32bf 516b 183e 62be 49be d1e3 7d3d
00000280: 5e81 0dbf d852 0dbf db8b c4be f5f6 18bc
00000290: ea3f 933c 1968 8d3d 10c6 7dbe 003a 58bd
000002a0: 42f9 f1be 0024 dabc 22ed 17bf 30bd 76bd
000002b0: 5836 4abe dbbb 24be bbc8 0e3a cf79 0b3e
000002c0: 3ce9 72be 61d2 a7be 555a 7dbe e4a4 1cbf
000002d0: fe82 e4bc eb05 3bbe 2a4c 61bd 0ae2 14bf
000002e0: 57c4 83bc d89f 42bd 303f a5bd d6f4 56bd
000002f0: 84dd 21bf 9c54 e23d d7d3 d1be 1a61 8bba
00000300: b53d 6bbe 50cb 20bf 90a7 eebd a1af 0fbe
00000310: e0a0 a1be 8b57 21bf 3c65 47be d9aa 243e
00000320: 1161 1cbf 598a 9b3c 99cf 8ebe 73b2 8ebe
00000330: b01c b8be 41c3 82be 38af 503e be96 87be
00000340: 643c 86bd 32d8 2dbf 81a0 acbe e307 f3bd
00000350: 4a9c 82bd 6a8a dfbe 682e 9d3d 6c6a 81be
00000360: fd6b babe eff4 a2be d3cb 65be 5a74 03bf
00000370: 7042 fc3b 68bd 02bf 6e24 33bf d20e 20bf
00000380: 5007 d73d a6d5 a13d bee1 7e3c 83c9 33bf
00000390: a6c2 27bf f8b3 f4bd 1c48 163e 4046 ee3d
000003a0: 2c03 bebe 5e3b 893e 71d9 e8be 6b2d d1be
000003b0: 1833 8b3d 2f57 b3bd c297 2bbc 7563 d3be
000003c0: 904e 26be c8b8 83bd 4670 15bf 42e8 843d
000003d0: 0975 b4bd 2507 f03d 71bb a6be f7c9 c3bb
000003e0: b4e9 61bd cca8 2bbb 4893 c7bd 8615 3fbd
000003f0: c85c 05be ced0 0dbe 17ff 2bbf 301f 45be
0.060101453 -0.6877011 -0.10870868 0.056548886 0.29832497 -0.30018517 -0.0056790123 -0.18906258
-0.4454399 -0.5473655 -0.70433855 -0.36220852 -0.5236977 -0.5752216 -0.48358956 -0.073419616
-0.4052282 -0.35740477 0.00646327 -0.27584842 -0.10887449 -0.62172925 -0.6495298 -0.5076354
0.058173418 0.12899059 -0.15091595 0.09524919 0.09507992 -0.0021746727 -0.3466198 -0.25667825
-0.04737982 -0.22360729 -0.66942066 0.28074867 -0.21797791 -0.68217766 -0.12977676 -0.09383689
-0.3677272 0.15147845 0.108990066 -0.11796025 -0.43109146 -0.25980604 -0.6268883 -0.5142105
-0.06917618 0.11853634 0.022982417 -0.50563174 -0.05419931 0.19564858 -0.3244027 0.075949006
-0.47618097 -0.21880797 -0.42833877 -0.13455859 0.04467694 -0.14897062 -0.6205908 0.19517414
-0.13217136 0.13313963 0.004952002 0.06841046 -0.06420678 -0.46755874 0.16248459 -0.107103765
0.07412193 -0.006366203 -0.41490546 0.006225323 -0.14710577 0.019454412 0.10026283 -0.555566
-0.30145255 -0.7056348 -0.4591187 0.11837373 0.13636085 0.21785699 -0.30120113 -0.68406314
-0.18205035 -0.19220619 -0.118947834 0.07389939 -0.15255201 0.07374039 -0.06410704 -0.21035752
-0.40149423 0.10724478 -0.61519766 -0.62636346 -0.6963421 0.15217486 -0.50392425 0.03202829
-0.017440809 0.009668651 0.13812298 0.19281673 -0.6400286 -0.23330617 -0.6037083 -0.4673019
-0.5608752 -0.7070948 -0.07620175 -0.02813255 -0.0061066337 0.22781123 -0.032194935 -0.014362385
0.26225644 -0.5725166 -0.116847165 0.104942635 -0.41204917 -0.34664905 -0.46943498 -0.4577377
-0.45908505 -0.5881851 -0.3578415 0.033716675 -0.04595544 -0.04731428 -0.63795054 -0.45799336
-0.70084965 -0.536118 -0.19611222 -0.20544949 0.013265638 -0.4591641 -0.14602056 -0.55369097
0.14017378 -0.07941956 -0.54716814 -0.35930634 -0.1498068 -0.010781558 -0.08916994 0.32049942
0.10184584 -0.043388333 -0.056963023 -0.25016278 -0.69831175 0.14884688 -0.19701532 0.06198484
-0.55275524 -0.55204535 -0.3838795 -0.009336223 0.017974813 0.06904621 -0.24782586 -0.052789688
-0.4726048 -0.026628494 -0.5934621 -0.060239017 -0.19747293 -0.16087286 0.0005446781 0.13620685
-0.23721784 -0.32777694 -0.2474149 -0.61189103 -0.027894493 -0.18263976 -0.055004276 -0.5815741
-0.016084833 -0.04751572 -0.08068693 -0.052479587 -0.6322863 0.11051294 -0.40981933 -0.0010633797
-0.22972758 -0.6281023 -0.11653054 -0.14031841 -0.3156805 -0.63024205 -0.19472212 0.16080798
-0.6108561 0.018986868 -0.2789276 -0.2787052 -0.35959387 -0.25539592 0.2037934 -0.26482195
-0.06554487 -0.6790801 -0.33716205 -0.11866739 -0.06377466 -0.4366029 0.07674867 -0.25276506
-0.36410514 -0.31827495 -0.22441034 -0.51349413 0.0076983497 -0.5107026 -0.6997746 -0.62522614
0.104994416 0.07902078 0.015556751 -0.7022936 -0.65531385 -0.11948389 0.14675945 0.11634493
-0.37111795 0.26803106 -0.45478395 -0.40854964 0.06796855 -0.08756863 -0.010473194 -0.41286817
-0.16240907 -0.064317286 -0.5837444 0.06489612 -0.08811385 0.11720113 -0.3256488 -0.005975004
-0.055154517 -0.002619314 -0.097448885 -0.046651386 -0.13023674 -0.13849184 -0.6718611 -0.19250178

network.3.weight f4 [256, 256]
00000000: 6fd1 47bf 8ce4 c3bc a0c8 e7bb 6927 48bd
00000010: 7995 25bc be22 6a3c 694e 65be 920d 54be
00000020: 58b3 b9bc 3097 05bc 401e 20bd 3373 1dbe
00000030: 807b 08bc 708c da3b 6074 34bd c7c6 bfbf
00000040: b4e3 f4bc cbd8 4f3d d85b 16be 474d 78bd
00000050: 58a1 0fbf 4868 04bd 1085 3b3d 805b 393d
00000060: 9e94 2ebd b30d be3d 6360 10be 93ab 7b3e
00000070: 726f 2b3e 30b5 06bf 0062 2fbb c045 233b
00000080: eaf9 eb3d f043 4ebe 18c2 043c b372 00bd
00000090: 1897 3abd 0607 4a3d d0cb b9be 8a83 dabf
000000a0: c045 233d 3537 183e 1db7 193e ac22 4bbd
000000b0: 002f 43bc 8668 54be 1a7f c43b 80a8 26bc
000000c0: 2296 f0bf 3f1f 40bf e510 babe 7d71 55be
000000d0: 5944 e1bf 3e56 e7be b8c2 603d 3170 9abc
000000e0: 5466 d9be c2b5 2dbd b982 76bd 04e3 53be
000000f0: a284 0cbf 23e0 dbbe 78ec 343c 756f 813e
00000100: 7e99 22bf 96ba 1a3e 6378 27bf 0c15 7fbf
00000110: 5c08 d0be 35e0 85be aa49 06bd eebe 313d
00000120: f4d1 f43d 8a99 47be 269e 173d 68e2 57be
00000130: b67c 183d accd a5bd bcc6 4c3e b293 e53c
00000140: d67d 9bbe 50e7 35bc 73c1 1fbe c0e3 083e
00000150: 5673 333e 965c 66bc bf39 70be a43b b33c
00000160: 4a97 1c3d bb93 2bbe 5c62 8cbe c23a 89bf
00000170: 1601 c3bd e555 b43d 3300 703e fea5 3f3d
00000180: ce40 77bd 6cf3 6ebf 28cc c73c 4ce6 ff3c
00000190: 0a18 6b3d ef12 65bf cefc 483d 8b73 94be
000001a0: 391d 9dbe b2a8 74be 0120 2b3e eb15 463e
000001b0: ce2f 683d 1c36 64bd 06ae 4dbd f822 9fbc
000001c0: a8a3 45bc 40cf 1e3d 6437 d4bf cba0 95bd
000001d0: 316b ffbe 896e e8be 8d94 eb3a c3b1 4fbf
000001e0: b77f 7d3d 2081 27bb a951 04bf c43e 493e
000001f0: 5483 8d3c 5811 333c 927f 413d fb25 14bf
00000200: 5b6f 48be 1eac 73bd c849 25bd a216 c7be
00000210: 66d6 4ebe 5f83 0cbc 8821 703d bcc8 663d
00000220: 6015 21bb 463b 83be e019 3fbb 1ff8 37bd
00000230: 3a0b 24bf f7a6 823c cebc 023d 588c 3a3c
00000240: 5905 87bd ad90 35be 50f8 96bb 9a58 3ebd
00000250: aa92 01be 6ffd a8be 8cd4 843d 3649 abbd
00000260: 0716 c83d a68a aebf dba7 ce3d db78 5bbd
00000270: bc0d e73c df93 a3bd d121 80bb a2e8 3fbf
00000280: f063 823b 1826 cebc 2906 81be 7fd3 f43d
00000290: 10a3 cebe 7846 a93d dd6f 4dbd 979a 113d
000002a0: cebf 77bd b9be 18be 16cc 45bd be75 b7bf
000002b0: 2a21 5fbd 048a 26bd 3a9a 8abe d3e3 8e3e
000002c0: d545 8abd 731a 05bf c27b ba3c e06e a7bb
000002d0: 1e17 b6bc 8aad 353d be9b 47bf 4a0b 5ebd
000002e0: dc10 10be c185 81be ff70 e03c b0da 90bb
000002f0: 306c 09bc 7cc2 08bf 3aa5 393d a9e5 74be
00000300: 162f 5dbe 4e4a 033d f805 0abd 3e6a c8be
00000310: 2113 81be cc4d 6d3d 9477 573d d76f 613e
00000320: 7843 323c 4554 95be 4641 adbe 3898 2abc
00000330: 3c83 303d d085 01bc c66f 43be 3e64 c03c
00000340: d7a9 d5bf 60fd 3bbb 30e0 603c 9ba0 abbe
00000350: 8471 f8bb 90c0 47bd 85e4 963d 539a 62be
00000360: 5a24 93be 1157 cebe cfb9 023e aac0 0fbd
00000370: 8323 0dbe 98ba 96bc 3824 3f3d 1021 02bd
00000380: 8db3 2d3e 5106 76bd e8da ddbc 6e75 2d3d
00000390: a0cc f93b 68b1 c9bd 346a 4f3e ef91 1e3e
000003a0: de93 d7be 5cce 0b3e 4073 9e3a 1441 743d
000003b0: a66c 3dbf a7ca 27be df67 91be ac60 36bd
000003c0: e614 2e3d 84da 57bd 4086 ecba b65d b73d
000003d0: 5d32 6abc a6c0 0ebe 6292 543d 5494 31be
000003e0: 63e2 26bc 085f 3dbe 111d 0fbf e5ab 75bf
000003f0: 708d 103e 1e56 29be f0e9 23bc 4cca c5bd
-0.78053945 -0.02391269 -0.007073477 -0.04886571 -0.010106438 0.01429051 -0.22393192 -0.20708302
-0.022668526 -0.008153722 -0.03909135 -0.15375976 -0.008330226 0.0066695735 -0.044056296 -1.4982537
-0.029893734 0.05074386 -0.14683473 -0.060620572 -0.56105566 -0.032326013 0.045781195 0.045253277
-0.0426222 0.09279957 -0.14099269 0.24577169 0.16741732 -0.5262022 -0.0026761293 0.00249134
0.11522277 -0.20143104 0.008102916 -0.031359386 -0.04555425 0.049323104 -0.3628831 -1.7071393
0.03986144 0.1486481 0.15011258 -0.049593613 -0.011913061 -0.20742998 0.005996597 -0.0101720095
-1.8795817 -0.7504768 -0.36341015 -0.20844074 -1.7598983 -0.45182985 0.0548732 -0.018852325
-0.42460883 -0.042409666 -0.06018326 -0.20692068 -0.5488988 -0.4294444 0.011042707 0.25280347
-0.6351546 0.1511024 -0.6541807 -0.9964149 -0.40631378 -0.2614762 -0.032785095 0.043394975
0.11954108 -0.19492164 0.037016056 -0.21082461 0.03722831 -0.080958694 0.19997686 0.028024528
-0.30369443 -0.0111025125 -0.15601139 0.1336813 0.17524466 -0.01406016 -0.23459528 0.021879025
0.038230218 -0.16755573 -0.27418792 -1.0721056 -0.095216915 0.088054456 0.23437576 0.04678916
-0.060364537 -0.9334018 0.024389341 0.031237744 0.057395972 -0.89482015 0.04906922 -0.28994402
-0.30686358 -0.23892477 0.16711427 0.19344299 0.056686215 -0.055715665 -0.05021479 -0.019425854
-0.0120629445 0.038771868 -1.6579404 -0.073060594 -0.49886468 -0.45396832 0.0017973349 -0.8113062
0.061889376 -0.0025559142 -0.51687104 0.1965285 0.017274536 0.010929428 0.0472408 -0.57870454
-0.19573729 -0.059490316 -0.040353566 -0.38884455 -0.20198974 -0.008576243 0.058625728 0.05634378
-0.002457939 -0.2563116 -0.002915971 -0.04491436 -0.6407963 0.015948756 0.03191834 0.011386
-0.06592817 -0.1773097 -0.004607238 -0.046471216 -0.12653604 -0.33005854 0.064858526 -0.08363573
0.097698264 -1.3636062 0.1009061 -0.053582054 0.028204791 -0.079871885 -0.003910281 -0.74964345
0.0039791986 -0.025164649 -0.25200012 0.11954402 -0.40358782 0.08265394 -0.05015551 0.03554782
-0.060485654 -0.14916505 -0.048290335 -1.4332807 -0.054474987 -0.040658966 -0.2707079 0.2790819
-0.06751601 -0.51993483 0.02276409 -0.005109653 -0.02222782 0.044354953 -0.7797202 -0.054209985
-0.14068931 -0.2529736 0.02739763 -0.004420601 -0.00838761 -0.5342176 0.045323588 -0.23915733
-0.21599993 0.032053284 -0.0336971 -0.39143556 -0.25209907 0.05793552 0.052604273 0.2201532
0.010880344 -0.29165855 -0.33838862 -0.010412268 0.043093905 -0.007905439 -0.19085607 0.0234853
-1.6692456 -0.0028684959 0.013725325 -0.3352097 -0.0075818915 -0.048767626 0.073678054 -0.22129183
-0.28738672 -0.403008 0.12766193 -0.03509585 -0.13783078 -0.018399522 0.0466654 -0.031769812
0.16963024 -0.060064618 -0.027081922 0.042348318 0.00762327 -0.09848291 0.20255357 0.15485357
-0.42105 0.13652939 0.001208879 0.059632376 -0.7399391 -0.163859 -0.2839956 -0.044525787
0.0425004 -0.052698627 -0.0018045381 0.08953421 -0.014294234 -0.13940677 0.051897414 -0.17341739
-0.010185811 -0.18493283 -0.55903727 -0.95965415 0.14116454 -0.16536757 -0.0100045055 -0.09657726

network.3.bias f4 [256]
00000000: f464 6b3e 295a 663e 9454 c43e a8bf 72bd
00000010: a198 503e 3251 293e 2cf5 3a3e d9be bb3e
00000020: 0611 9d3e bc6c b0bc d443 5d3e ac02 2a3e
00000030: 21ef f33d 8ad5 61bd 0048 82bd 5817 6abd
00000040: 3727 8dbd 0259 813e 9e2f ab3e 99c3 f43e
00000050: 8571 963e ca7f 173e 74b8 46bd 218d 923e
00000060: 0d26 a13e 0be7 293e 5f3a 893e 33d4 a43c
00000070: bc72 87bc 01d6 6a3e 3a4b 8d3e 3189 17bd
00000080: 36ea ffbc a76a 1e3e 950e 813e 3b85 c13e
00000090: 40f5 a43e 396b 5a3e 9c6c 04bd dff7 c43e
000000a0: 69ab e73e 2c29 fd3d d419 f73e 3874 0a3e
000000b0: d5c5 f53e e8a0 533e 6186 a5bc 3406 7ebd
000000c0: 2f53 30bd 7898 6ebd 9afd 55bd e809 48bd
000000d0: a9e0 74bb fd19 3dbd 4baf 8dbc 19e6 823e
000000e0: d9b8 613e 61ec 973e bf11 bdbc a243 c0bc
000000f0: 1753 853e b092 783e 88dc e5bb 9a0b 763e
00000100: 3fd2 89bd bafa dfbc ca8f 733e 1ddb 893e
00000110: 0834 24bd 7592 563e 1581 e53d 54b6 273e
00000120: 65eb 883e 878a 8b3e 7dd7 8e3e 5c01 d43e
00000130: 036d 8c3e 67f6 763e ff2d 12bb 9483 113e
00000140: cab9 8d3e b3fb 00bd f040 44bd 87eb 80bd
00000150: 1071 82bd 4661 803e 1e12 94bd 3d8b c3bc
00000160: 75fc a3bc 4ba3 9e3e fec5 83bc bfd0 7ebc
00000170: f827 8bbd 38a1 1f3e 8a39 823e 3188 993e
00000180: f972 663e 4871 2cbd e161 c3bd 6c24 463e
00000190: 79e3 863e f9d0 4c3e 75db b03e 9149 713e
000001a0: 68d8 a03e 5a65 ec3e d02a 22bd e8a7 9c3e
000001b0: 0a43 85bd 3e6b f43e 3a8a 54bd 88cb 5f3e
000001c0: 369a 933e deeb 463e 0164 473e 64f5 81bd
000001d0: cf50 81bd 501b 9d3e 4a54 32bd df7c ea3d
000001e0: 654b 953e bdd4 40bd 56d4 433e 7844 e13e
000001f0: c444 66bd f503 03bc 42f5 8c3e 82b6 603e
00000200: eb3d 663e 6dcd a43e 4cf6 853e 338f fb3e
00000210: 2757 98bd fa97 90bd e7c2 9cbd 3d89 94bd
00000220: a1d8 a63e 0e76 603e 6606 a53e 95c5 043e
00000230: b992 ea3e d15d 983e 96f4 0f3e 25e3 9d3e
00000240: 43f4 813e 1cdb 403d 5a30 9f3e 11eb bbbc
00000250: dc8a a23e 9a92 733e f506 49bd 1cf7 a43e
00000260: 8802 ce3e ad9c 46bb 78d2 7b3e 95e6 853e
00000270: 03eb 943e 1d58 353e 1952 963e aeca 01bd
00000280: 84eb 793e 3240 3cbc 99aa f73e 9dcd 9c3e
00000290: 65c4 913e 0519 763e 1a33 6d3e 1dae 123e
000002a0: 1afc 883e 8659 633e 86d7 9b3e 3b8e 583e
000002b0: b8f0 a13e d976 993e 7711 01bd 77f7 663e
000002c0: af1c 9d3e b445 eabc 60d0 8d3e 4c3f a23e
000002d0: b0f7 7c3e bf3f fc3d c507 853e 9541 49bd
000002e0: e67c 7ebd 074b 8abd 0526 d73d 4115 99bd
000002f0: f8d9 733e 4ad4 6b3e 6405 513e 3c5c 523e
00000300: fd1b ac3e 2019 73bd ca46 793e eca2 9c3e
00000310: 146d 933e 1206 18bd fcf9 a2bb 4ed3 943e
00000320: 9995 94bd 3478 653e 9286 a4bc bb49 d13e
00000330: d6bc a73e 5911 50bd 6be2 653e 7485 7fbd
00000340: d4d7 9a3e 33bd 943e a092 83bd d235 07bd
00000350: 72b7 59bd 808c e63e 4f73 dd3d 5103 b6bc
00000360: 720c 01bc 7534 833e 7f9f 7c3e 59e4 303e
00000370: 9d18 aebc 6e8f a33e ea7d a53e 9643 d5bc
00000380: 58e6 723e 0513 a03e a8ed 573e d759 a13e
00000390: a1e1 513e 251b 463e 2ea3 01bd 6926 fb3d
000003a0: 33e3 0bbd 572d db3e 836a 9b3e bcd8 7cbd
000003b0: 4720 d5bc 0dcd a03e 07c6 c8bc 2cf7 b63e
000003c0: fb3b c33d 7802 073f 7549 7cbd 84d8 da3d
000003d0: 1e4c be3e cfe0 8e3e 829c ba3e 7fb5 993e
000003e0: f6b4 56bc 7e44 edbc a08b 743e 0f3c 8e3e
000003f0: 0bbf 813e 1717 813e 0b88 933e 2a9c 373e
0.2298773 0.22495331 0.38345778 -0.05926481 0.20370723 0.1653488 0.18257588 0.36669043
0.3067705 -0.021536224 0.21607906 0.16602582 0.119108446 -0.055135287 -0.06361389 -0.05715117
-0.06892245 0.2526322 0.33434767 0.4780548 0.29383484 0.14794841 -0.048515752 0.28623298
0.31474343 0.16592042 0.26802346 0.020120716 -0.016534202 0.22933199 0.27596456 -0.03699607
-0.03123961 0.15470372 0.25206438 0.3779696 0.3221836 0.21329965 -0.03233014 0.3847036
0.45247963 0.123613685 0.48261893 0.13520896 0.48002496 0.2066685 -0.020205678 -0.062017635
-0.04304808 -0.058250874 -0.052243806 -0.048837572 -0.0037365353 -0.046167362 -0.0172955 0.25566176
0.2204317 0.2967253 -0.023079751 -0.02346975 0.26039955 0.24274707 -0.0070148148 0.24027863
-0.067295544 -0.027341235 0.2378532 0.26924983 -0.040088683 0.20954306 0.11206261 0.16378146
0.26742092 0.27254125 0.2789878 0.41407287 0.2742692 0.24117433 -0.0022305248 0.1421035
0.27680808 -0.03149004 -0.04791349 -0.06294923 -0.06369221 0.25074214 -0.07230018 -0.023870105
-0.020017842 0.30983958 -0.016085621 -0.015552699 -0.06794733 0.15588844 0.25434524 0.29986718
0.22504796 -0.04210022 -0.09540153 0.19349831 0.26345423 0.20001592 0.34542432 0.2356322
0.31415105 0.46171075 -0.03959161 0.30596852 -0.06506927 0.4773807 -0.051889636 0.21854985
0.2882859 0.19425914 0.19471742 -0.06345633 -0.06314241 0.306849 -0.043537416 0.114495985
0.29159084 -0.047077883 0.19123968 0.4399755 -0.056217924 -0.007996549 0.27530867 0.21944621
0.22484557 0.32187977 0.26164472 0.4913269 -0.07438498 -0.07060237 -0.07654362 -0.072527386
0.3258715 0.21920034 0.32231444 0.12965997 0.45815066 0.29759076 0.14058146 0.3083736
0.2538167 0.04708396 0.31091577 -0.022939237 0.31746566 0.23786393 -0.0490789 0.3221978
0.40236306 -0.0030305788 0.24592006 0.26152483 0.2908555 0.17709394 0.2935951 -0.03168743
0.24406248 -0.011489915 0.48372343 0.3062562 0.2847015 0.24032982 0.23164025 0.14324231
0.26754838 0.22202119 0.3043787 0.21148007 0.31628966 0.29973486 -0.031510796 0.22555338
0.30685946 -0.02859769 0.2769804 0.31688917 0.2470386 0.12316846 0.2598249 -0.04913481
-0.06213083 -0.067525916 0.105052985 -0.07474757 0.23813617 0.230302 0.20412213 0.20542997
0.33615103 -0.059350133 0.2434341 0.3059305 0.28794158 -0.037115164 -0.004973648 0.29067463
-0.07255096 0.22409135 -0.0200837 0.40876564 0.32761258 -0.050797794 0.22449653 -0.06238313
0.3024279 0.29050598 -0.06424451 -0.03301031 -0.053153463 0.45029068 0.10813009 -0.022218378
-0.007876502 0.2562596 0.24670218 0.17274608 -0.02125197 0.31945366 0.32322627 -0.026033204
0.23720682 0.3126451 0.21086752 0.31513855 0.20496227 0.19346292 -0.03164976 0.122631855
-0.03415222 0.4280803 0.303547 -0.06173013 -0.026016368 0.3140644 -0.02450849 0.35735452
0.09532925 0.5273814 -0.06159349 0.10685828 0.37167448 0.2790589 0.3644753 0.30021283
-0.013104668 -0.028963324 0.23881388 0.27780196 0.25341067 0.2521293 0.2881473 0.17930666

network.6.weight f4 [256, 256]
00000000: 0ff5 ec3d e497 143e 6307 f93d 9616 253d
00000010: 2781 863e 567e 493e a9c6 533e a5d4 5e3e
00000020: f184 c43d d650 253d 4763 c23d e3f7 4dbd
00000030: ee66 bf3d 070f d63c 9291 0dbd 0679 13bc
00000040: 34f8 413d b10d ccbe ed97 153e e3fd 713e
00000050: ed8f ba3c 1dc1 da3b a09f e9bc 83e8 6abd
00000060: 3c71 41bd 9afa 9e3e db65 3cbd eddd 1e3c
00000070: 7718 4dbd 69be c7be d86f a4be 79b7 453d
00000080: 034a e63c 5e7c 073e 1c1e f83d 1cd9 873d
00000090: eb17 5b3e 18d1 6c3e 343b f63c fb1b 6d3e
000000a0: 2802 8e3e 7047 bc3d 59e1 2b3e efb8 f73c
000000b0: 4778 f83d 76ba e53d 0835 643d d251 523d
000000c0: 6ab3 893c 48db 653d acf5 043d d0e0 4dba
000000d0: c7a4 7f3b 1688 fbbc 3757 53bd 1725 da3c
000000e0: 73cf 0b3e b2aa ca3c 48d5 873c 8d57 3bbd
000000f0: 0d28 fb3d 2467 043e 069d 383d 6720 273e
00000100: 90d7 9f3c 2fd9 213d 207d 4dbe f9fc f5bd
00000110: d90d c0bc 5939 8ebc ad7e 16be 9fa4 293e
00000120: 0b08 bfbe 6986 4cbc 370e 4f3e 2aaf 743e
00000130: 543a 20be 6519 173e 5d4e e83d c09e 573e
00000140: 13ef 473d fb78 0abf 7b64 8c3d 8ba3 ef3b
00000150: cc2f 3dbd d11a 13be da49 17bd c148 a63c
00000160: 8e45 0b3d bc37 66bd 220a 1f3d 6cf7 25bd
00000170: 87ec 05bd 6af0 913d a4fe 6f3e 6042 623d
00000180: e98e 8abe fc34 ba3b 5d5e 0abe f6d1 ad3e
00000190: 2f4e 02be 2514 c6bd 8e8f 9d3e 57e8 7bbe
000001a0: 6473 1ebc 555a 283e fe39 623d fdfc 933d
000001b0: 3418 b3bc 769b 033e f85f 4dbd 28e5 9cbe
000001c0: 3c4d 413e 375d 16bf 44fa db3d 053d 48bd
000001d0: 1443 e63b a3c9 723e 1c11 973d ad2a da3d
000001e0: 5332 b53d 0aa6 28bd 3376 183e 140b a83d
000001f0: dacf 13bd 5f2c 983d b2ed ae3e 06e8 50be
00000200: 4df8 883d 9c28 ba3e e58e 1cbe a968 573e
00000210: fe2f 663d e87f 51bc e6b5 6bbd ec33 9dbc
00000220: c117 c63d 7de4 84be f106 253e 3a20 b33d
00000230: c80e a93d e439 bebd 5000 853d de1a ae3d
00000240: f306 e03e c1f7 e63d ba20 483e 0b21 bc3c
00000250: d2d9 a93e 3461 0bbe 587b ef3c 2c73 033f
00000260: ab19 c93d 3103 2fbe 044d 3abe f69a 173e
00000270: 1117 86bd ea6c 1a3e 44ab e03c 8858 6bbc
00000280: 4ff9 84be fed0 51bd 4713 533e 9b4b 0e3d
00000290: ed8d b93e a050 4e3e c11a e8be 5b56 ee3d
000002a0: 9030 8d3e 62bd 24be 3c98 a33e 7a7f 0b3d
000002b0: 039e 3c3d 8504 11bd 715d f53c 1f33 e23d
000002c0: df14 603e db64 dbbd 50e8 943e 701b e73e
000002d0: 02b4 ec3d c35a 963d 26bb 0abe 97f9 a83c
000002e0: 101d 293c 7b74 05bd 8330 3e3d 240b 12bd
000002f0: e8f5 ee3d 0c7b 883d bd43 aa3d 88a0 f13d
00000300: 009c aa3e e853 0fbc de74 3d3e a0a0 023f
00000310: b1e9 4a3d 9b47 783d f844 60bd 7d6b e9bd
00000320: 78f6 fa3c d8e4 01bf 7930 28bc 926a 053e
00000330: e9e9 0b3e c4c0 8ebc ee68 b43d 383d 153d
00000340: 8345 453e 96f0 363c 4420 ccbc c38a 63bd
00000350: a06f 03bc 15b1 4b3e c72d e23d f0df 293c
00000360: 0099 e7bc 9e7d ccbc 4b4a 353e 284b f73d
00000370: 6e4a 923d 6505 9bbc 4b10 483e 0919 1fbd
00000380: 712e 0f3e 2492 4c3e 09e0 febb 5a17 1a3e
00000390: 470e f43d 3c99 96be 6da2 1b3d 0c46 efbd
000003a0: 7824 5f3c df7d 093e 8475 253e b295 86bd
000003b0: e1bf 0ebd 63eb 9dbd 1c6f 64bd 309f bf3d
000003c0: ab1c 1c3d 8ccf 833e 781c 343c 86c3 bb3d
000003d0: 3571 c73d 1e4c 86bd 8a8a d53d e644 af3e
000003e0: fb7e f43b c09f be3a 188e 383e 68c1 45bd
000003f0: 09e6 bb3d 4ce4 99be fbcf 823e e972 8b3e
0.11570179 0.14511067 0.12159612 0.040304743 0.2627041 0.196771 0.20681252 0.21760805
0.09595669 0.040360294 0.09491592 -0.05028523 0.09345804 0.026130212 -0.034562655 -0.009001022
0.047355846 -0.39854196 0.14608736 0.23632006 0.022773707 0.006675853 -0.028518498 -0.057350647
-0.04722713 0.3105057 -0.045995574 0.009696466 -0.05007216 -0.3901246 -0.3211658 0.048270676
0.028111463 0.13231036 0.12115118 0.06633207 0.21395843 0.23126638 0.030057527 0.23155205
0.2773602 0.09193313 0.16785182 0.03023955 0.12132316 0.11217205 0.055714637 0.05134756
0.016809184 0.056117326 0.032460853 -0.0007853629 0.0039008127 -0.03070454 -0.051596846 0.026629014
0.13653354 0.024739597 0.016581193 -0.04573779 0.122634985 0.1292997 0.045071624 0.16320954
0.019511968 0.039513763 -0.20067263 -0.12011141 -0.023444103 -0.01736133 -0.1469676 0.16566704
-0.37310824 -0.012483218 0.20220266 0.23894945 -0.1564725 0.14755781 0.113430716 0.21056652
0.048811983 -0.5409085 0.06855103 0.007313197 -0.04618816 -0.14365698 -0.036935665 0.020298364
0.03400188 -0.056205496 0.038828023 -0.040519163 -0.032696273 0.071259335 0.23436981 0.05523908
-0.27062157 0.0056825858 -0.13512559 0.3394925 -0.12725137 -0.09671811 0.30773586 -0.2460035
-0.009671066 0.16440709 0.055231087 0.07225988 -0.021862127 0.12852272 -0.05014035 -0.30643582
0.18877119 -0.58735985 0.10741094 -0.048886318 0.0070270393 0.23709731 0.0737631 0.10652671
0.08847489 -0.041173972 0.1488884 0.08205238 -0.036086895 0.07430338 0.34165722 -0.2040101
0.066879846 0.36359107 -0.15288885 0.21036018 0.056198113 -0.012786843 -0.05754652 -0.019189797
0.096724994 -0.25955573 0.16115929 0.08746381 0.082547724 -0.092883855 0.064942 0.08501218
0.43755302 0.11277724 0.19543734 0.022964975 0.33173996 -0.13611299 0.02923362 0.51347613
0.09819349 -0.17091061 -0.18193442 0.14805207 -0.06547368 0.1508061 0.027425416 -0.014364369
-0.25971457 -0.0512247 0.20612822 0.03474007 0.36241093 0.20147943 -0.45332912 0.11637565
0.27576113 -0.16087869 0.31952083 0.034057118 0.04604913 -0.0354047 0.029951783 0.11044907
0.21882962 -0.10712596 0.2908349 0.4513812 0.11557771 0.0734153 -0.13547954 0.020626826
0.01032187 -0.032581788 0.046432983 -0.035655156 0.11667997 0.06664094 0.08313701 0.11798197
0.33322144 -0.008748032 0.18501613 0.51026344 0.04953927 0.060615163 -0.054753274 -0.11397455
0.030635104 -0.5073981 -0.010265463 0.13028935 0.13663448 -0.017425902 0.08809076 0.036435336
0.19264798 0.011165759 -0.02491773 -0.055552255 -0.008022219 0.1989177 0.110438876 0.010368332
-0.028271198 -0.024962243 0.17704122 0.12074882 0.071431026 -0.01892347 0.19537465 -0.038842235
0.1398256 0.19977623 -0.007778172 0.1504797 0.11916786 -0.29413784 0.0379967 -0.11683282
0.013619535 0.13426922 0.1615811 -0.06571521 -0.03485096 -0.07710912 -0.055770025 0.093565345
0.038113277 0.25744283 0.010993116 0.091681525 0.097383894 -0.06557487 0.10426815 0.34232253
0.0074614263 0.0014543459 0.18022954 -0.04828015 0.09174735 -0.3005699 0.25549302 0.27236107

network.6.bias f4 [256]
00000000: 71b2 223f 4f2b 50bd b861 573f a2e3 693f
00000010: 4d01 a3bd 1193 0e3f 810a 49bd 91f5 2c3f
00000020: 7af6 503f 6db0 203f 1746 92bd 40d6 603f
00000030: 1700 973f d7e6 a0bc b001 0e3f 5ef6 543f
00000040: cb5c 01be 3173 6f3f e141 233f e090 c13e
00000050: 85d9 b33f f6a6 8a3f f3c3 413e 6370 5d3f
00000060: 96a0 9dbd 541d 243f 46f1 423f e2e5 7c3f
00000070: 78a0 693f 94de 223f 1ef1 d93f 9933 863f
00000080: 0b39 043f 4db3 0b3f 4ece 843f ebbf 743f
00000090: 64f1 143f d7b7 2c3f 543b 97bd 1529 9cbd
000000a0: 3e78 d93e 0fa2 4e3f e976 7b3e bb25 743f
000000b0: 679b 073f 97ff 743f 24a5 223f b35f ecbc
000000c0: 22bb 163f a155 7c3f 8a52 99be c8b5 683f
000000d0: 4387 713f f8e5 86bd 391b 893f 8f78 2e3f
000000e0: ef39 e33e 5f0d 5a3f f1cb d5bd 5c3d d1bc
000000f0: 15ef 843f 8a0f e93e 9b7d 713f ddb9 e3bd
00000100: a1a2 d33e 78f2 803e f7c8 9abd 9811 003f
00000110: c905 f4bd 7e4e 883f abbd 5c3f e6b0 663f
00000120: 185e 883f 6066 b93e b199 e13e cb8a 893f
00000130: 2490 90bc 3165 c63e fac6 95bd 2847 a5bd
00000140: 73d1 9b3f 4e63 7e3f 0db6 d93e 232c 1a40
00000150: b090 d53e 8ce8 813f 2256 dabd d877 5c3f
00000160: ecee 94bd c0b1 433f 50d5 d8bd 4fee 0abd
00000170: be73 433f 3535 08bd 8671 283f b2f8 843f
00000180: 1262 593f e3c7 09be c21b 6a3f 0b21 d5bb
00000190: 3c61 533f 9afc 023f f283 883e 5a29 103f
000001a0: 9c0c 32bd 7dff f33e 5faa d63f 98cc 4f3e
000001b0: 7fc0 053e cf23 883f 58f5 ca3f 8dbd ce3e
000001c0: f719 673f d460 ccbc f35d 373f 927b b7bd
000001d0: beab a53e 1f28 2f3e a394 763f 4dfa 6c3f
000001e0: 9ec5 f53e 6418 1cbf dbfd bcbd e18a 363f
000001f0: 2a65 ef3d ba7a 8f3f 2227 913f d186 583f
00000200: 0ad3 463f eae5 903f 2d32 ec3e be4e 383f
00000210: d683 783f 2948 153f 625e 7f3f cc35 613f
00000220: b013 463e 1b0c 473f 15a0 943e 25ca 853e
00000230: 8713 843f 26ab 4b3f 1b37 a63e c985 743f
00000240: 72e8 573f aea0 623f 9e70 af3e 58f2 c5bd
00000250: 124a bebd cd35 3b3f fbde 633e 950f 4f3f
00000260: 412c edbc d749 a03e cad3 8d3f 38b7 14bd
00000270: fc3c 2c3f a5a2 ec3e 9742 923f b339 8d3f
00000280: 2041 783e 39e5 073d bc9b fb3e ced4 2a3f
00000290: 5b76 c3bd c154 0c3f b647 6e3f 2054 843f
000002a0: d083 863e fb14 0c3f fa0c 7d3f 292a 4d3f
000002b0: adf5 6d3f 9e3c e93e 2af7 e6bd 4bb9 88bc
000002c0: 7074 47bd a575 863f 4d46 dcbd 5451 c2bd
000002d0: 73c9 6e3f ef42 803f 1f3b 843f 2d20 b73d
000002e0: bfdb 783f c983 963e 7850 743f 1d5b a33e
000002f0: 9fb4 683f 765e 503f 9642 95bd 387c 703f
00000300: a913 21bd eb5c 043f 78b8 0e3f 1fbf 923f
00000310: 6b10 7e3f fbdb 463f 511e 7c3f 3602 223f
00000320: c2bf 333f 793e 4e3f 0cf2 803f caa2 883e
00000330: f362 693f 143d f73e 4de2 3f3e 15d9 073d
00000340: 0f2c ba3e 4b10 d4bd ce23 673f b9cb 683f
00000350: 5ad2 493f 0893 273e 2ffe 1b3f 15b8 423f
00000360: 8487 fbbd 33df 7c3f 668b ad3e ef40 adbc
00000370: 04b7 403c af14 5e3f 401f 273f 497a 5b3f
00000380: f3d2 573d 477f 453f e680 8a3f 8b43 7c3f
00000390: 3251 2e3e 1f65 983e 9a81 823f e361 883f
000003a0: afb2 803e 19be ce3d 3d08 833f 79d9 b23e
000003b0: 61f2 413f c7c4 503f a2af 7e3f aa03 803f
000003c0: 0781 9e3e 98d9 023f 2e68 503f ba2f 873f
000003d0: cf63 7c3f c2e5 8cbd 3610 083e 9b1d 643f
000003e0: 7949 0ebd b2ee 743f caf8 783f 311f 633f
000003f0: fc31 6c3f 2e40 bf3e 0d45 9f3e ba17 ae3f
0.6355353 -0.050822552 0.8413348 0.91362965 -0.079592325 0.55693156 -0.049082283 0.67562205
0.81626093 0.62769204 -0.07142275 0.8782692 1.1796902 -0.019641323 0.55471325 0.83188426
-0.12633054 0.93535143 0.637724 0.37805843 1.4050757 1.0832202 0.18922405 0.86499614
-0.07696645 0.6410725 0.76149404 0.98788273 0.9126048 0.6362088 1.7026708 1.0484496
0.5164954 0.54570466 1.0375459 0.95605344 0.5818083 0.6746802 -0.07384363 -0.07625023
0.4247455 0.8071603 0.2455708 0.9537007 0.529715 0.957025 0.63533235 -0.028854227
0.5887929 0.9856816 -0.29945785 0.90902376 0.9434702 -0.06586832 1.0711433 0.6815271
0.44380137 0.8517665 -0.10439289 -0.025541954 1.0385462 0.45519668 0.94332284 -0.11119435
0.41335014 0.2518499 -0.07557862 0.50026846 -0.11915166 1.0648954 0.8622691 0.90113676
1.0653715 0.36210918 0.4406257 1.0745481 -0.017646857 0.38749078 -0.073133424 -0.080702126
1.2173294 0.99370277 0.42521706 2.408944 0.4171195 1.0149093 -0.1066096 0.8612037
-0.07272133 0.764431 -0.10587561 -0.033918675 0.76348484 -0.033253867 0.65798223 1.0388396
0.8491527 -0.13455157 0.91448605 -0.006504183 0.8257024 0.5116669 0.26663166 0.563131
-0.043469056 0.4765586 1.6770743 0.2029289 0.13061713 1.0635928 1.5856123 0.4037899
0.90273994 -0.024948515 0.7162773 -0.08959116 0.3235759 0.17105149 0.9632055 0.9256943
0.48002332 -0.6097472 -0.092281066 0.7130566 0.116892174 1.1209328 1.1340067 0.84580714
0.7766577 1.1320164 0.4613203 0.7199515 0.97076166 0.5831323 0.9975339 0.8797271
0.19343448 0.77752846 0.29028383 0.26130787 1.0318459 0.79558027 0.32463917 0.9551664
0.8433906 0.8852643 0.34265608 -0.09665364 -0.092914715 0.7312897 0.22253029 0.8088315
-0.028951766 0.31306335 1.1080258 -0.036307544 0.67280555 0.46217838 1.1426572 1.1033233
0.24243593 0.033177588 0.49142253 0.66730964 -0.09544059 0.54816824 0.9307817 1.0338173
0.2627244 0.54719514 0.98847926 0.80142456 0.92952996 0.4555406 -0.112776116 -0.016689917
-0.048695028 1.0504652 -0.10755596 -0.09488168 0.9327614 1.0020427 1.0330542 0.08941684
0.97210306 0.2939742 0.95435286 0.3190545 0.90900606 0.81394136 -0.07288091 0.9393954
-0.03932539 0.5170428 0.55750227 1.1464576 0.992438 0.77679414 0.9848376 0.63284624
0.70214474 0.80564076 1.0073867 0.26686698 0.9116661 0.48288786 0.1873867 0.03316601
0.3636174 -0.1035467 0.9028901 0.90935856 0.78836596 0.16364682 0.6093473 0.76062137
-0.12281707 0.98778075 0.33895415 -0.021149127 0.011762384 0.8675031 0.6528206 0.8573347
0.05269141 0.77147335 1.0820587 0.9854056 0.17023161 0.2976465 1.0195801 1.0654873
0.25136325 0.10094852 1.0236889 0.34931543 0.75760466 0.8155026 0.99486744 1.0001118
0.30957815 0.5111327 0.81408966 1.056144 0.98589796 -0.0687976 0.13287434 0.89107674
-0.034738038 0.9567672 0.9725462 0.8871947 0.9226377 0.37353653 0.3110737 1.3600991

network.8.weight f4 [3, 256]
00000000: a52d 6d3e 7e54 8c3d 4e5b 11be bfcd 74be
00000010: 70e7 13bb 9add a53e 8f73 0dbe 8402 2f3e
00000020: 423b 37be 666a 583e 32e2 23be 3fe1 55be
00000030: 3bce 1c3e 3430 76bd 7b10 933e 9b13 53be
00000040: eeba 94bd 518f 34be 00cf 29be 490c fbbc
00000050: 04f6 653e 35e7 abbd e96c 263e 1450 3d3e
00000060: 5afd ab3c 5dfe b13e 7036 803e 145d 06be
00000070: 6c7a 29be f0fe c93e a59f 0e3e 4c77 0ebe
00000080: 8d08 cb3d 0251 9e3e 93cd 16be 3e7b 2fbe
00000090: c0f5 9f3d add9 b23e c618 1f3c 1a61 da3c
000000a0: da1e 55be b373 4ebe c1a6 c63d 3ed7 5abe
000000b0: 727b 873e 8022 1cbe 9fad 033e cbae 283d
000000c0: 7657 e13e 0850 57be 6242 b2bd d4e2 4cbe
000000d0: a90c 3abe d328 56bc 3cc1 31bd a481 35be
000000e0: 1082 1c3e 9846 eebd 0823 0bbe 00ef 463e
000000f0: 5444 14be 0c3a d1be b330 243e 83b3 1dbb
00000100: cb07 3abe 614a 173b 8377 fbbc 1e09 74bd
00000110: 1deb a03c 9af1 8abc f637 9f3e 4065 1bbe
00000120: f1d6 1ebe 84f0 843d e3e6 413e 0a6b 12be
00000130: aee4 08bc 4b52 2cbe 4694 e03c 99a4 a2bc
00000140: 81a8 903e ac36 c5bd 1e47 3dbe 4c9b a23e
00000150: 2d3a 08be 77f6 e8bd 8f98 29be ddf2 1fbe
00000160: ac86 6ebe 5cbb 4dbe be89 4ebd 4a8f e0bb
00000170: 1bf6 30be 456f 353d e88b c53e e1af 3bbe
00000180: b91a b13e e915 72bc 6737 5abe ca58 55bd
00000190: a2f0 2cbe dbdb 7f3e c27b 993d 4b8c 643e
000001a0: a303 c13d b194 093e 8868 513e 8e2e 9dbe
000001b0: a652 31bd a3e8 42be f14e 613e cef0 633e
000001c0: 73a6 813e f0f3 11bc 4d41 c83e aa0c 46bb
000001d0: 789d 97bd 17b7 9abd a09c 1abe 69c0 24be
000001e0: 898e ba3e 3de9 45be 2f6d 86bc 3147 993e
000001f0: ee19 93be aa26 2d3e fc4d 853e 7986 463e
00000200: bd5f 47be 557c f43d 8c76 433e 6b10 8a3e
00000210: 53d2 3abe 6fa9 37be 50c4 90bd c55d 89be
00000220: 3e1d bebe bd18 ba3e 4b22 61bb 0c6a 283d
00000230: 2e2f 0dbe 8bc0 8f3e d9e2 03bc 928d 3bbe
00000240: de2a 31be ff8c 63be 764d 593e ba73 b13c
00000250: 43dc db3c 9c19 3f3e c317 44be ef8a 39be
00000260: ff0c 1b3d bcae 70bc 0a84 853e 2ceb 923b
00000270: 068e 3ebe 977e 8e3e dd7e a23e 1790 b13e
00000280: 62dd d0bd e053 f13d 37ad ca3d 377d 98bf
00000290: 91e4 bf3c d3c6 2dbe a2a3 38be 62eb 0ebe
000002a0: 5d63 923d c3e6 a13d 6d80 d53e a0f6 3bbe
000002b0: b3ce 4cbe 860f b73e d881 22bd a587 86bd
000002c0: 3e3f 22be e55c 5ebe 7234 bb3a 1bf2 843c
000002d0: 1469 3dbe 94ce 803e 3473 38be 3089 b1ba
000002e0: 029f 39be 7ee9 d23e 7bc4 913e 2bc5 8e3e
000002f0: a1a1 44be 2c48 1abe d745 eabb f9de 2dbe
00000300: ebae cf3c bb77 a53e 2d94 b43d 833d 873e
00000310: 7f7e 36be f8c8 35bf 62dd 11be 50ed 3abe
00000320: a0b4 7e3d d5b2 49be 40dd 24be 4d22 bf3c
00000330: 0842 8bbe 21ed 31be a34b a63e 5352 4dbe
00000340: 56f0 14ba c179 b73c 821d 5dbe a2a6 1dbe
00000350: 1473 953e 5485 39be 134b c63e 326e 973e
00000360: a11a 6bbb d7b0 41be 4a9f 5cbd bee4 e93c
00000370: b21a e7bc 285e 61be ef73 c23e be40 39be
00000380: 1928 edbd 8f58 2ebe 128d 65bd 77a6 36be
00000390: d9fe 5ebe 136f bbbd fc00 0cbe 296a aabd
000003a0: 2679 65bc 74a8 d13d 6987 1dbe c7c1 ef3c
000003b0: f2d6 43be 7890 42be 14e6 50be f9cd 1fbe
000003c0: a795 a2be 7773 b83d b31d 49be 1791 a53e
000003d0: 34bc 0fbf 5bde 1d3c 59d4 06be 6c65 8a3e
000003e0: 684b 99bb b2c2 26be 13e1 53be bbf5 11be
000003f0: 4095 53be 531b bd3e 6497 61bd 773b 2a3e
0.23161943 0.06852053 -0.14194986 -0.23906611 -0.0022568367 0.3239563 -0.13813613 0.17090803
-0.17893699 0.21134338 -0.16004255 -0.20886706 0.15313046 -0.060104564 0.2872351 -0.20612948
-0.072622165 -0.17632796 -0.1658287 -0.030645506 0.22457129 -0.083937086 0.16252483 0.18487579
0.02099483 0.34764376 0.25041533 -0.13121444 -0.16550606 0.39452314 0.13928087 -0.13912696
0.0991374 0.3092118 -0.14726858 -0.17136857 0.07810545 0.34931698 0.009710496 0.02665763
-0.2081255 -0.20161323 0.096997745 -0.21371171 0.2646137 -0.15247536 0.128592 0.04118232
0.4401204 -0.21026623 -0.08704068 -0.20008403 -0.18168892 -0.013071257 -0.043397173 -0.17725235
0.1528399 -0.116345584 -0.13587582 0.19427109 -0.1447919 -0.408646 0.16034202 -0.0024063296
-0.18167035 0.0023085105 -0.030696636 -0.059579007 0.01964336 -0.016960908 0.31097382 -0.15175343
-0.15511681 0.06491187 0.18935733 -0.14298645 -0.008355303 -0.16828267 0.027414452 -0.019853877
0.28253558 -0.096295685 -0.1848416 0.31759107 -0.13303442 -0.113751344 -0.16562103 -0.15619989
-0.2329356 -0.20091003 -0.05042433 -0.006853019 -0.17281382 0.044295568 0.38583302 -0.18328811
0.345907 -0.014775732 -0.21310197 -0.05208663 -0.16888669 0.24986212 0.07494308 0.22319143
0.09424522 0.13435628 0.20450032 -0.3069958 -0.04329171 -0.19034056 0.2200277 0.22259828
0.25322303 -0.008908257 0.3911232 -0.003021995 -0.07403082 -0.07554453 -0.1509881 -0.16089024
0.3643687 -0.19327255 -0.016409485 0.29937127 -0.2873072 0.1690928 0.2603606 0.19387235
-0.19470115 0.11937777 0.19088191 0.2696565 -0.18244295 -0.17935728 -0.07068694 -0.26829353
-0.37131685 0.36347 -0.0034352716 0.04111676 -0.13787529 0.28076586 -0.00804969 -0.18315724
-0.17301509 -0.22221754 0.21220955 0.021661628 0.026838427 0.18662113 -0.1914969 -0.18119405
0.03785419 -0.014690097 0.260773 0.004483601 -0.18608865 0.27830955 0.31737414 0.34680244
-0.101984754 0.11783576 0.09896319 -1.1913213 0.023424419 -0.16970377 -0.18031171 -0.13956979
0.07147858 0.079053424 0.41699544 -0.18355799 -0.20000724 0.3575403 -0.03967461 -0.06568841
-0.15844437 -0.21715124 0.0014282598 0.016228726 -0.18497115 0.25157607 -0.18012697 -0.0013544913
-0.18127063 0.41193765 0.28470215 0.27884802 -0.19202282 -0.15066594 -0.007149439 -0.16979589
0.025351962 0.3231791 0.08817325 0.26414117 -0.17821692 -0.7100978 -0.14244607 -0.1825459
0.062183976 -0.19697125 -0.16100025 0.023331786 -0.27198815 -0.17375614 0.3247958 -0.20050935
-0.0005681565 0.022396924 -0.21593288 -0.15395597 0.2918936 -0.18117267 0.38729152 0.2957626
-0.0035874026 -0.18915115 -0.053862847 0.028551456 -0.028210972 -0.22008574 0.37979075 -0.18091103
-0.11579914 -0.1702597 -0.05604274 -0.17836939 -0.21776904 -0.09152045 -0.1367225 -0.0832103
-0.014005935 0.10237208 -0.15383686 0.029267205 -0.19124964 -0.19000423 -0.20400268 -0.15605916
-0.317548 0.09006398 -0.19640236 0.32337257 -0.5614655 0.009635533 -0.13166942 0.27030504
-0.0046781786 -0.16285208 -0.20691328 -0.14253895 -0.20662403 0.3693491 -0.055076018 0.16624247

network.8.bias f4 [3]
00000000: ce43 36bf cb36 4bbf b8ec 27bf
-0.7119721 -0.7938048 -0.6559558
