runs_mountaincar_No_EWC/abrupt/egp/seed_2/online_stream_model.pth (torch, 535757 bytes, 8 tensors)

network.0.weight f4 [256, 2]
00000000: 00d7 fe3b 8981 24bf 14ab 85bd 6ac6 ac3f
00000010: 9d62 08bf 9c13 fcbf 68f9 263e 9a59 ae3e
00000020: 9364 b7be 9166 323f e891 e8be 1637 10bf
00000030: 0040 0739 491b 1a3f a8c8 b3be a4b4 313f
00000040: ac8e f13c 9758 df3f 3186 d7be 7ebc d33e
00000050: 73ca a7be 5aec 21bf c8b7 913d 8651 23bf
00000060: 1991 943e 02bf 10c0 7c34 c9be 303f cc3d
00000070: 72cd 933e 1394 063f 2207 7abe a155 30c0
00000080: 2151 283e 88b6 0d40 a0fc fcbd 6235 9d3e
00000090: 604a fe3d 027c 1440 78d4 363e 3e31 563f
000000a0: d533 9b3e 7067 fc3f d0a7 4e3d 98a4 ab3d
000000b0: 25c7 bd3c e3ec 0c40 ee00 71bd 5231 c33f
000000c0: b5b1 0a3f a114 213f 2548 0c3f 1eda 8b3e
000000d0: f505 413e 14d8 2b40 118b b93d d2bd 06c0
000000e0: 7685 c6be 6cbb 8f3f fdfb 433e 616f 2a40
000000f0: 3b72 9d3e ceaa c2be a995 2fbe eccf 4bc0
00000100: 9b3f ed3e f4b1 983f 351a ce3d 0698 fe3f
00000110: 14fa 55be 9c77 43be e0a3 c43c e02f 97be
00000120: ceb4 b53e 7ad4 ca3e 444a cabd 6b0b bf3f
00000130: 9e4b 553e 4975 ed3f 7329 1abd fa13 df3e
00000140: 7e92 d13e 2215 c13e df14 afbd bc15 d23f
00000150: a0a7 d5be 7b0e 1b3f a4fa c5bd 9309 ac3f
00000160: fabe 903e 68c9 fdbf 05b3 10bf 0124 0ec0
00000170: 11c5 163f 80dd 163c 137c fd3d 1b29 1440
00000180: b297 8e3e a8b0 843f 51ad 653e e2a4 723f
00000190: d6d1 8bbc 1605 c93f 93a0 013f 864f 25bf
000001a0: b4eb 953c 5e92 ad3f 29ea dbbe 14ce b4bf
000001b0: 7427 713e c059 4c3e 2e1f c93e f08e 0a3d
000001c0: d0e6 043e b2f4 843e 8ee3 223e 34b8 0f40
000001d0: f585 a9bd a05c d63f ef33 ab3e f7b2 963e
000001e0: 20e6 a1bc 2079 b2bc 84d1 663e c5c3 2c3f
000001f0: a6cb d83e a605 ea3e 945c 073e c448 30bf
00000200: 3947 09bf 74a2 eebf 813e 1c3e 9437 0940
00000210: 5e3f edbd d980 9f3f 7be4 8c3e ffd4 c93f
00000220: f22e 0d3e edbe 3440 1124 bc3d df72 0140
00000230: 5a60 a93e bc49 243e 640e a43d 7d38 0540
00000240: d158 653d 27cf 953f 2d39 253e 99c9 2a40
00000250: 3328 08be 8153 e03f e86d 213e 1f15 12c0
00000260: da83 5fbe 94f5 6d3e 63f2 40bd bab3 ab3f
00000270: 001f 71bd 974a 053f 8c7e 153e 55ce 0c40
00000280: 4302 1c3d 990e e03f c986 c3bb b843 fdbf
00000290: 253b 373e 6051 de3e e7ad 343f 0a9b 0340
000002a0: 0cae e7be 2277 33be 0589 5abd d328 543e
000002b0: 6bda ab3d f4eb d03f 7f7e 68bc f1ba dd3f
000002c0: a9d2 ccbe a42f 6c3e bb1a 2f3e dd2e 0440
000002d0: 496f 503e 358e 1bc0 7eb7 eabd 6f03 d23f
000002e0: 8027 aebd ed28 5fbe 7a10 e43e 00e8 2dbd
000002f0: ba17 c83e a10c 21bf 0a56 d73e e40d 2fbe
00000300: 265f ae3e d083 c3be 4376 08ba c025 0cc0
00000310: fcb2 313e 7d91 9abf 5aab 693d 9557 b93f
00000320: 9cb7 9dbe 97c7 99be 4709 38bf 8164 fcbe
00000330: a034 a03c 2ad7 ca3f a039 0fbe d2d1 dc3e
00000340: e10b b43d e3f1 df3f 00cb a33d c972 0340
00000350: e699 a6be ad68 5bc0 22aa 04be cc3b 6fc0
00000360: 9259 a8bd de0c d63e 261e 293f a2cd 3040
00000370: 18d9 d23d e887 2cbe e01c e0be fc7f 2a3e
00000380: efd4 32bd 114e ee3f 743e 0b3e c2f5 ec3e
00000390: 7a8f e53e 4b3a 063f a43f eebe 4c49 de3f
000003a0: 7c27 ffbc 8def f33f 831c a63e 8008 bb3f
000003b0: 575f 5cbd 202e a33f 3500 263d f1c5 e23f
000003c0: c341 473e 59af 0140 8ed7 c73c bcb1 0b40
000003d0: b7d6 b03d 2434 2940 10ab 98bd 6570 f83f
000003e0: d7c5 253f c0a6 f1be b326 983d 59d9 f83f
000003f0: 1f66 d43b 9aa4 04c0 489f a63d 8cd5 4b3e
0.007777095 -0.64260155 -0.06526771 1.3498051 -0.5327547 -1.9693484 0.16306078 0.34052736
-0.3581892 0.69687754 -0.45423818 -0.56334054 0.00012898445 0.60197884 -0.35114026 0.6941626
0.029486977 1.744891 -0.42094567 0.41354746 -0.32771644 -0.6325127 0.071151316 -0.6379627
0.2901695 -2.2616582 -0.39297855 0.099729896 0.2886768 0.52569693 -0.24416783 -2.7552264
0.16437198 2.2142658 -0.12352872 0.3070479 0.1241653 2.3200688 0.17854488 0.8366889
0.30312982 1.9719067 0.050453007 0.08381003 0.023166249 2.2019584 -0.058838777 1.5249426
0.5417741 0.629221 0.54797584 0.27314848 0.18849929 2.6850634 0.09059728 -2.1053357
-0.38773698 1.1229072 0.19139095 2.663048 0.30751213 -0.3802094 -0.17146935 -3.1845655
0.4633759 1.1929307 0.10063592 1.9890144 -0.20896178 -0.19088596 0.024003923 -0.29528713
0.35489506 0.39615232 -0.09877446 1.492536 0.20829627 1.8551418 -0.037637185 0.43569928
0.40932077 0.37711436 -0.08548903 1.6412883 -0.4172945 0.6056897 -0.096669465 1.3440422
0.28270704 -1.9827089 -0.5652316 -2.2209475 0.5889445 0.009208083 0.12377181 2.3150089
0.2785011 1.0366411 0.22429396 0.9478284 -0.017067831 1.5704677 0.5063564 -0.6457447
0.018300869 1.3560293 -0.42952088 -1.412539 0.23550206 0.19956112 0.392816 0.033827722
0.12978673 0.25967938 0.15907118 2.2456179 -0.082775034 1.6747017 0.3343806 0.29433414
-0.019763052 -0.021786273 0.22540861 0.6748622 0.4234287 0.45707434 0.1321891 -0.6886103
-0.536243 -1.8643327 0.15258218 2.1440172 -0.11584352 1.2461196 0.27518067 1.5768126
0.1378744 2.8241532 0.091865666 2.0226362 0.33081323 0.16043752 0.08010557 2.0815728
0.055992905 1.1703843 0.16135092 2.6685545 -0.13296585 1.7525483 0.15764582 -2.2825391
-0.21827641 0.23238212 -0.047106158 1.3414223 -0.058867455 0.5206694 0.14599055 2.2000935
0.038088094 1.7504455 -0.0059669954 -1.9786291 0.17893656 0.4342146 0.70577854 2.0563378
-0.45249975 -0.17525914 -0.05335333 0.20718698 0.08391269 1.6322007 -0.014190315 1.7322675
-0.4000447 0.23065048 0.1710004 2.0653603 0.20354952 -2.4305546 -0.114607796 1.6407298
-0.08503628 -0.21792956 0.4454382 -0.04245758 0.39080602 -0.62909895 0.4205783 -0.17095143
0.34056967 -0.38186502 -0.00052056107 -2.189804 0.17353433 -1.207565 0.05704818 1.4479853
-0.30804145 -0.30035087 -0.71889156 -0.49295428 0.019556344 1.5846913 -0.13986826 0.4312883
0.08791328 1.7495693 0.079977036 2.053881 -0.3253929 -3.428264 -0.12955526 -3.7380247
-0.08220209 0.41806692 0.6606163 2.7625508 0.102953136 -0.16848719 -0.4377203 0.16650385
-0.0436601 1.8617574 0.13598043 0.46281248 0.44836026 0.524327 -0.4653293 1.7366118
-0.031146757 1.905748 0.32443628 1.4611969 -0.05380186 1.2748451 0.04052754 1.7716657
0.1945868 2.0263274 0.024394777 2.182723 0.086347036 2.6438074 -0.074545026 1.94093
0.64755005 -0.47197533 0.07429256 1.9441329 0.0064819003 -2.0725465 0.08135849 0.1990568

network.0.bias f4 [256]
00000000: 19e8 22bf 9bb8 a6bd d6a6 e2be dded 21bf
00000010: f94d 05bf a9ea 13bf d87c 2bbf 7a9c e5be
00000020: 1cf0 67bd 6172 25bf 642e 32bf d010 a9be
00000030: 8ce9 143e ab95 08bf eff6 05bf 53ac 60be
00000040: d540 8fbd 15c9 08bf fc5e 6ebd 5400 dc3d
00000050: 3d95 a3bd 0370 2fbf 2d78 8f3c a37f adbd
00000060: e670 febe e75b d0be 18cc 9cbd 1fbb f83c
00000070: 0214 a5be 5e0e a2bd b2bb 323e da10 2cbe
00000080: 68e6 d6bd 3a16 5abd aee4 09bf fefe a8be
00000090: abf1 0abf b522 a9bd 9cde 98bd ce79 86bd
000000a0: 9cb3 aebe 0c2d d6bd c801 05bf c503 a7bd
000000b0: f9dd 133e 2a2f f7be c489 26bf f653 5fbd
000000c0: 8d3c 43bd d635 10bd 70c6 65bd e57f 2dbf
000000d0: 6db3 dabc 7ec3 bcbe c89c e9be 6656 f0be
000000e0: 5ef1 b7be 2765 82bd 6235 dabd b288 3a3e
000000f0: 7683 56be 9441 aebe c3ff 2fbf f781 2abf
00000100: e34f eabe 364d 84bd bdbf e7bd ba42 80bd
00000110: 0a10 9bbd 2cde 42bd 0850 70be 136f 69bd
00000120: 22a1 78bc 5f2d 90bd e7d0 0dbe 473a 873d
00000130: 049a 12bf e7a7 66bd 2d99 f0be 28b4 7fbd
00000140: 29fb 5abd fc48 eabc 8a77 debb c0b6 4cbe
00000150: b92c bebe f62d 89bd 5367 05bd 2aa9 9abd
00000160: 4078 03bf 74b8 88bd b1f8 ba3d 239a ffbd
00000170: 40b9 11be 95e4 a2be 3de9 0bbf 43dc 0cbf
00000180: c00e 20bf 75ae 02bd 19ea b4bc 8f72 bbbc
00000190: ad91 65be 512d 29bf 7f8b 2bbd 6379 babe
000001a0: 6383 633d 50ab 50bd e1b4 9bbe 536d 13be
000001b0: f03f d9bd 82f4 55be 324e c7be f6d4 0ebf
000001c0: e72b b7bd 0e01 06bf aeb0 d4be 9977 cbbe
000001d0: 2ff0 acbd 3ddb 80bd 9b4b 0fbd 762b 5cbd
000001e0: e7a0 89bd 9897 8cbd c206 9ebd 792c ddbd
000001f0: 1528 09bf 6a5d 40bd 34fc c6bc b41c 2cbe
00000200: 9c3a 63bd 0448 d6be 0a09 25bf a51b 29bf
00000210: 022c 91be aa54 24bf d87a 17be b423 ccbd
00000220: c303 d8be a8db 8abd a9de cbbc 99a4 8abd
00000230: a6ae bfbd b051 b2be e73d 03bf 8565 01be
00000240: 84c5 2abf c562 1abf 5679 59bd 7a14 0cbf
00000250: a3cc 7abd 28c9 f4be 887e 57be 2281 e6be
00000260: 0e94 12bf 98d3 95bc 9715 9abd 8876 10be
00000270: fe28 6abd 1220 8ebe 5b13 34bf 6a6f bebd
00000280: f22b 7abe f427 113d 273f 72bd 9100 07bf
00000290: f9bf 74bd b1e9 013d 5ab4 e7bc b40f 16bf
000002a0: f83b 723c 85c1 2fbe 8ace 0bbf d81f bdbe
000002b0: eeaa 3fbd 82bb 3dbe 3f1f 27bf ce77 fcbd
000002c0: 5809 1abe 5f99 e43d fb12 30be cbd1 30bd
000002d0: 7477 0fbf b0f5 fabe 4573 5fbd 86be afbe
000002e0: 4009 4cbd f866 26be 2d98 09bf 5d2c 0abf
000002f0: d336 debd c4d6 1c3e 4881 d53d 7f28 37be
00000300: 385e 84bd 5cdf 31bf a14c cdbe c376 18be
00000310: fc9c d5be e202 2f3b dde2 c5bd d2ba f9bc
00000320: 4f17 e2bd b75a 0b3e 7063 0ebf fd6c 403e
00000330: df20 6abd 68b9 7dbc 7874 633e a15e cabe
00000340: f28f 77be d820 a1bd 91b2 78bd b179 11be
00000350: 1a01 00be f412 eabe 1d57 e7bb d669 10bd
00000360: 9484 22bf 704c 98bd f4af 42be 950b 5ebe
00000370: 1702 b8bd 966b a2bd 53ed 46be 1cbe 01be
00000380: 9f8d 2bbe 425e 1bbf 9169 dbbe 530f 41be
00000390: 30b0 61bd 654c 44be 1276 9abd e8d7 f8bd
000003a0: ef6b a2bd a482 babd 3271 69bd 0746 ccbe
000003b0: 2996 edbd 6c3a a1be 90bf 73be 5011 06bf
000003c0: 0df3 f6bd 4500 dcbe 48cf 72be 5e3b 8abe
000003d0: 8411 89bd 38b8 31be 87dd b5be 309e 25be
000003e0: 58aa a4be 0d26 6abe 92dc 6cbe 8d3f 29be
000003f0: b407 55bd 3e1d 61be 6808 cebd 086d 5ebd
-0.636354 -0.081406794 -0.4426791 -0.63253576 -0.520721 -0.5777994 -0.6698737 -0.44845945
-0.05662547 -0.64627653 -0.69602036 -0.3302064 0.14542216 -0.53353375 -0.52329916 -0.21940736
-0.069947876 -0.53431827 -0.058196053 0.1074225 -0.07987449 -0.6853029 0.017513359 -0.084716104
-0.4969551 -0.40695116 -0.07656115 0.030362664 -0.32241827 -0.079128966 0.17454413 -0.16803303
-0.10493165 -0.053243853 -0.5386456 -0.33007044 -0.54275006 -0.08258573 -0.07464334 -0.06566201
-0.34121406 -0.10457811 -0.5195584 -0.08155016 0.14440145 -0.4827817 -0.65053964 -0.05452343
-0.047665168 -0.035207592 -0.056097448 -0.67773277 -0.026696885 -0.368679 -0.45627427 -0.46940917
-0.35926336 -0.063669495 -0.10654713 0.18216208 -0.20948586 -0.34034407 -0.68749636 -0.6660456
-0.45764074 -0.06460039 -0.11315868 -0.06262727 -0.075714186 -0.04757516 -0.2346803 -0.056990694
-0.015175136 -0.07039904 -0.13849221 0.066029124 -0.5726626 -0.056312468 -0.46991864 -0.06242767
-0.05346218 -0.028599255 -0.0067891525 -0.19991589 -0.37143496 -0.066982195 -0.03256924 -0.07551797
-0.5135536 -0.06675807 0.09129465 -0.12480571 -0.14230824 -0.3181502 -0.5465277 -0.5502359
-0.62522507 -0.031904656 -0.022084283 -0.022881774 -0.22418852 -0.6608477 -0.04188108 -0.36420736
0.055545222 -0.050944626 -0.30411437 -0.14397173 -0.10607898 -0.20894054 -0.38926846 -0.557937
-0.089439206 -0.5234536 -0.41541046 -0.39739683 -0.08444249 -0.062918164 -0.034984212 -0.053752385
-0.06720143 -0.06864852 -0.07716133 -0.10799498 -0.53576785 -0.046964087 -0.024290182 -0.16807824
-0.055475816 -0.4185182 -0.6446692 -0.6605781 -0.28353888 -0.6419169 -0.14792955 -0.09967747
-0.4219037 -0.06780177 -0.024886446 -0.06769676 -0.093594834 -0.34827948 -0.5126633 -0.12636383
-0.66707635 -0.6030696 -0.05309423 -0.54718745 -0.061230313 -0.4780972 -0.21044362 -0.45020396
-0.57257164 -0.018289372 -0.07523649 -0.14107716 -0.057168 -0.27758843 -0.70342034 -0.09298594
-0.24430826 0.035438493 -0.059142258 -0.5273524 -0.059753392 0.031717006 -0.02828424 -0.5861771
0.0147848055 -0.17163666 -0.5461203 -0.36938357 -0.04679387 -0.1852856 -0.6528205 -0.123275384
-0.15042627 0.11162066 -0.1719474 -0.043168824 -0.56041646 -0.4901557 -0.05455329 -0.34325045
-0.04981351 -0.16250217 -0.53747827 -0.53973943 -0.10850301 0.15316302 0.10425049 -0.17886542
-0.06463283 -0.69481444 -0.40097526 -0.14889054 -0.41721332 0.00267046 -0.09662411 -0.03048459
-0.11039602 0.13608824 -0.5562048 0.18791576 -0.057160255 -0.015486099 0.22212398 -0.3952532
-0.24176005 -0.078675926 -0.06071717 -0.14206578 -0.1250042 -0.45717585 -0.0070599453 -0.035257183
-0.6348355 -0.07436454 -0.19012433 -0.21684106 -0.089847736 -0.07930677 -0.1942647 -0.12670177
-0.16753243 -0.606907 -0.42853978 -0.18853502 -0.055099666 -0.19169767 -0.075420514 -0.12150556
-0.07930743 -0.09106949 -0.056992717 -0.39897177 -0.116009064 -0.31489885 -0.23803544 -0.52370167
-0.12058077 -0.42968956 -0.23711884 -0.2699842 -0.06692794 -0.1735543 -0.35520574 -0.16173625
-0.32161212 -0.22866078 -0.23131016 -0.16528149 -0.0520093 -0.21983811 -0.10060197 -0.0543032

network.3.weight f4 [256, 256]
00000000: de2c 0a3d c0b6 9fbc 7ad5 93bd 309f 343c
00000010: cc7f eb3c 3362 293d 2c58 c33c 00df f0bc
00000020: 725d a7bd 5cf5 303d ee09 003d 80b2 033a
00000030: 9e7a b43c a81f f23c a8ae 0bbc 0831 59bd
00000040: 32d0 18bd a288 5bbd 5e44 05bd 34a2 49ba
00000050: 588c 0abd 46c7 0b3d 5afd 71bd 3370 843c
00000060: 9c13 9c3c 0e47 0b3d 06dc 533d ca13 3c3c
00000070: b2b2 4bbd bf12 94bc 82b4 12bc 7fc2 8fbc
00000080: 089e 413c 64eb 2fbd 2840 67bc 3a78 6ebd
00000090: bec7 15bd 2655 0f3c 501a a53b 9127 113d
000000a0: 80f5 0f3a 2aca c13b 4228 15bd 7819 9fbd
000000b0: 4f34 55bd ac6c 5ebd c03f 773b e5e1 0b3d
000000c0: 7912 6fbd 97ff 76bd d978 f23c f6ea 0cbd
000000d0: 9e07 a3bb d4a5 753c 4aea 2abd 3c2d 0f3d
000000e0: bcfb 153d c718 543c 0e7b e3bc 9ef2 22bd
000000f0: 5802 e6bc 6421 33bd 66d7 6cbd 34c1 9c3c
00000100: f581 fd3c 70af 8cbb 90dc ba3c ef56 78bc
00000110: 4c53 ad3c 73fb c5bc 7017 70bd 9f62 b33c
00000120: 9d71 32bd af4a 55bd 9957 1cbd 7d27 dd3c
00000130: 701f 563d da70 2bbc b441 72bd 26bc 7939
00000140: fe3c f0bc d467 cf3c 9b34 89bc 48ff 06bc
00000150: 2b31 cfbc 791f 95bd f702 1f3c 2dbf 023a
00000160: 5e60 223d b4f3 8cbd 7343 0e3d 1a94 14bc
00000170: 6f0f da3c 6694 4fbd c038 b3ba 8c18 60bd
00000180: 546e 813c 629a 493c 3553 853c 7dc6 55bd
00000190: 0e21 173d fbbf e7bc 103d 0bbd f238 673d
000001a0: 27b9 71bd 4415 d93b 4495 033d 66ed 5ebd
000001b0: 0ad1 9ebc 1216 7f3d 8064 1dbb 06d2 5a3d
000001c0: 7ecf 61bd 9478 d73c bcf1 d13c ae89 233d
000001d0: e817 63bd 44b9 e8bc a86b 4cbc df6a dabc
000001e0: 543e f13c 69ad 34bd 1a78 8dbd 3049 0c3d
000001f0: 58f6 e2bc 381a d9bc 30b0 63bd 86c3 0f3d
00000200: d3e2 6b3c fc52 0f3d 1857 223c 989a 0cbc
00000210: 00d1 ca3b 9858 d53c 28c2 9ebc 4990 b53a
00000220: 34fc e33c 506b 1fbc c8f7 523d c2b7 1b3d
00000230: e1a6 8b3c 7dcf 52bd e862 2bbd e3a2 9bbd
00000240: 18be 063c e94c d03c 30f4 17bd a2c9 2abd
00000250: 7830 1fbd 6ca8 f9bd 7523 1fbd 850c 58bd
00000260: 1815 48bd 94f8 7f3d 7a47 43bc da40 57bd
00000270: 30de fcbc 0a5f 323d acad 683d 8e88 1d3d
00000280: 8c21 bdbc 8575 68bd 445d 203d 6866 703c
00000290: 488f 17bd 9a76 bf3c 38ef e9bc 1809 043c
000002a0: 40c2 c63a a368 8abd b8b8 23bd 948a 713d
000002b0: 082a a5bd 9224 23bd e0e6 0d3b b822 75bd
000002c0: ce81 933c 4051 40bd 00da 45bc d234 acbd
000002d0: 7c80 c23c f622 663d 2298 35bd 58f3 0dbd
000002e0: 1492 8abc f447 19bd 3a55 3b3d 8017 9d3a
000002f0: 7a28 193d f6c5 23bd 493c d03c d097 6dbd
00000300: edc7 71bd c026 bebc 5e0d 6c3d 40fd c43b
00000310: 102f 7cbd 4a89 1dbb f92f 913c 569d 653c
00000320: e9de 51bc 70a9 79bc 30eb e73b 9ce4 4fbd
00000330: 7232 6ebc ba57 283d e910 39bd 5484 3ebd
00000340: 30ac 55bc ec86 efbb a4bf 1c3d bbea 62bd
00000350: 805f 7cbd c40c 3ebd 9bc5 f43c a2af 44bd
00000360: 2051 34bd f419 17bd 900f 8e3c f8f5 483d
00000370: 5f19 90bd e7aa 56bd 5707 a33c 0604 0b3d
00000380: 902d 1cbc 4095 803c 983f 0ebd 19c2 0ebd
00000390: 7268 813b a89b b63c 580d b3bc 4334 60bd
000003a0: 978f 9b3c 1443 d03c f9e6 82bb a072 1d3d
000003b0: 4e70 37bd f063 413c ba0a 0c3d 2ced 733d
000003c0: ac47 eb3c 08f9 093d aebe 59bd 7464 fd3c
000003d0: 7cc2 01bd 0055 003c 1c0a 94bc a644 033d
000003e0: 4459 863c c6f9 72bb 20bc 66bb 888b 1cbd
000003f0: 47c2 b1bd faa4 7abd 8438 45bd 58f3 633d
0.033734195 -0.019496322 -0.07218452 0.011024281 0.028747462 0.041353416 0.023845755 -0.02940321
-0.0817212 0.043202743 0.03125947 0.0005023852 0.022031125 0.02955611 -0.008525528 -0.053025275
-0.037307926 -0.0535971 -0.032535903 -0.00076917117 -0.03382525 0.03412559 -0.059079506 0.016166782
0.01905232 0.03400331 0.051723503 0.011479327 -0.049730964 -0.018075345 -0.008954169 -0.017548798
0.011817463 -0.042949095 -0.014114417 -0.058220126 -0.036567442 0.008748328 0.005038537 0.035438124
0.00054915994 0.0059139924 -0.036415346 -0.0776853 -0.05205184 -0.054302856 0.0037727207 0.034150977
-0.058367226 -0.060302343 0.02959864 -0.034403764 -0.0049752733 0.01499315 -0.04172734 0.03495525
0.036617026 0.0129453605 -0.027768638 -0.03978216 -0.02807729 -0.043733016 -0.057822607 0.019135095
0.030945757 -0.0042933747 0.02281025 -0.015157445 0.021157883 -0.024167752 -0.0586161 0.021897612
-0.04356538 -0.052073177 -0.038169477 0.026996369 0.052276075 -0.010463918 -0.05914469 0.00023816581
-0.029325958 0.025318064 -0.016748717 -0.008239575 -0.025292 -0.072813936 0.009705297 0.0004987594
0.039642684 -0.0688242 0.034732293 -0.009068513 0.026618687 -0.050678633 -0.0013673529 -0.05471091
0.015799679 0.012304874 0.016275028 -0.052191246 0.036896758 -0.028289786 -0.03399378 0.05645079
-0.059014466 0.0066248495 0.032124773 -0.05442562 -0.019386787 0.062276907 -0.0024016201 0.05342295
-0.05512952 0.026302613 0.025627963 0.039926223 -0.05544272 -0.028408654 -0.012476839 -0.026662288
0.029448666 -0.04411069 -0.06907673 0.034249485 -0.027705356 -0.02650176 -0.055587947 0.035098575
0.014397341 0.03499125 0.00990846 -0.00858178 0.0061894655 0.026043221 -0.01937969 0.0013852204
0.02783022 -0.009730175 0.051505834 0.038017042 0.017047348 -0.051467407 -0.04184237 -0.075994276
0.008224033 0.025427299 -0.03709811 -0.0416962 -0.038864583 -0.12190327 -0.038852174 -0.052746315
-0.04884824 0.062492922 -0.011918897 -0.05255208 -0.030867666 0.043547668 0.05680625 0.038460307
-0.023087285 -0.0567527 0.039151445 0.014672853 -0.037001878 0.023371983 -0.028556451 0.008058809
0.0015164092 -0.06758239 -0.039971083 0.05897005 -0.080646574 -0.039829798 0.0021652505 -0.059847564
0.018006232 -0.046952486 -0.012075901 -0.08408512 0.023742907 0.056185685 -0.04433454 -0.0346559
-0.016915359 -0.037422135 0.045735575 0.0011985153 0.037392117 -0.039983712 0.025419371 -0.058006108
-0.059028555 -0.023211837 0.057629935 0.006011635 -0.06156832 -0.002403813 0.01772307 0.014014563
-0.012809494 -0.015238151 0.007077597 -0.05075513 -0.014538394 0.041099288 -0.045182142 -0.046512917
-0.013041541 -0.007309785 0.0382687 -0.055399638 -0.061614513 -0.046398893 0.029879382 -0.04801906
-0.04402268 -0.036889985 0.017341405 0.0490627 -0.07036089 -0.05240908 0.01990096 0.033939384
-0.009532347 0.015696168 -0.034728616 -0.034853075 0.0039492184 0.02229102 -0.021856949 -0.05473734
0.018989367 0.02542261 -0.0039948192 0.038439393 -0.044784836 0.011803612 0.034189917 0.059552357
0.0287207 0.03368476 -0.053160362 0.030931689 -0.031679615 0.007832766 -0.018071227 0.03204789
0.016399987 -0.0037075146 -0.0035207346 -0.038219005 -0.086796336 -0.06119249 -0.0481496 0.055651993

network.3.bias f4 [256]
00000000: dc10 73bc df5c 8abc 56bf 063e 99c9 103e
00000010: 7993 08bd e86d a93d ba7c d23d 62b5 693e
00000020: 8877 813d 0341 f0bc 0939 3f3e d26d 6b3e
00000030: be17 643d ddbc fe3d 2bec bf3d 2f06 673d
00000040: df5f 4cbd 3d35 1f3d bf87 93bd 10fa 23bc
00000050: 61be 753e 3bce 943d 33f7 313e b994 79bd
00000060: d7b1 5ebd f2f3 e23d e49a 923d 2ab6 4bbd
00000070: 77e9 eb3b bb20 0e3d b194 5cbd c5e2 823d
00000080: 7ba2 4c3e b05e 32bd 981f f3bc d3da 083e
00000090: 3c72 3a3d 263a 7abd 5144 db3d df9c 433e
000000a0: 7aec 4ebc 4839 983d 7fa3 dabc c0dc 5a3d
000000b0: befa 703d 5d83 703d dae0 663e 3dcd f43d
000000c0: 5581 503d 92c3 bd3d ad79 353d 4d79 9d3d
000000d0: 2d3e b43d 11d1 ac3d edb4 df3d 333f 89bd
000000e0: 0b19 de3d eb4a e83d 5695 0cbe 2642 393e
000000f0: 055d e63d 7c41 2fbd c178 f1bc 33a3 28bd
00000100: eb61 733d 23c7 50bc f0f4 793d 3158 afbc
00000110: bf9c 243e c9ea 3d3e c768 f9bc fc79 ab3d
00000120: f59a abbb 9590 623d aeaf 7dbd 34eb be3c
00000130: 66aa 863e 02b3 9abc f860 873d af90 163e
00000140: 28e2 80bd 0162 36bd d409 74bd 7557 133e
00000150: 4d08 a4bc c39a 1f3d 9c2e 35bb 6dc8 90bc
00000160: b43e dabd 0e6b c33d 5e3d 9dbb 6d3e fe3d
00000170: 2566 64bc d94b 5e3c 4d63 89bd e3d0 19bd
00000180: efc4 a13d 3e43 2e3e 62c0 973d f5f1 293e
00000190: d010 463d 49e5 1abe 813f 6f3d 1e3b b8bd
000001a0: 663f 283d 5a76 7ebc 81fe 9bbc 6f8d b7bc
000001b0: c036 ec3d a7e7 9dbd ae2b 09bd 5e03 68bd
000001c0: adb0 89bd 82fa 83bc 84e5 23bd 39ef d93d
000001d0: de52 893d 1310 bc3d ef49 c53d ae34 d73d
000001e0: 6088 0f3e 0730 ac3d eeb5 9a3d a4fd 92bd
000001f0: 72f7 db3d 9435 8a3d f9ea 933d c32c 8dbd
00000200: 1ebf e13d 9630 2f3d 77fe 6dbd 73d2 813e
00000210: 0b4c 3d3d 6ca9 ed3d b97a 07bd dc82 293d
00000220: e936 393e b1f0 9c3d 3c29 513e e43b f03d
00000230: 5c55 50bd 3bf4 49bd 9d92 9a3d e0d0 463e
00000240: 0e03 493e 2970 c4bb 2d98 6bbd 7f46 663d
00000250: 8aa4 9cbd 9dfb a33d 353d 1a3e 2ca5 c63d
00000260: 252f 8abd fd34 debc 84c3 f13d 9f8a 893c
00000270: c495 68bd bdc7 513e 48ee 203e b84b 8d3e
00000280: b62d 1abc db1e fc3d 52d1 433d 3c98 163d
00000290: a797 eebc 0d08 bcbb 79d1 773b 4f0a 523e
000002a0: 2a27 cf3d 9309 233e c3e7 333d 2371 9d3d
000002b0: 67e9 11bd b170 61bd 738a 63bd dc9f 90bb
000002c0: 188f 11bd d382 68bd 90e0 80bd 8b76 7b3d
000002d0: d3f8 b23d 142b b73d 7273 a9bb a667 52bd
000002e0: 1b64 473e 1007 273e eaea 7fbd ec4a 963d
000002f0: 254c 1f3e 8124 f53c 2639 4abd c6cb 113d
00000300: a50f 8e3d d301 1e3d 083c 42bd f1ca 15be
00000310: 888d 343e 435d 78bc c323 fdbc f420 603d
00000320: f347 393e 6143 c0bd e7cc 353d 6f83 bcbc
00000330: 177d f83c acf1 893e 6283 413e 5732 113d
00000340: 9b40 9d3d bc7f 223d ef7a 1a3e 3e89 313e
00000350: 807e 063e 8380 f8bb 387a 09bd 65ce b4bc
00000360: 5fd1 e7bb ae2f 063e 0a9b d13d 5246 f63d
00000370: d0b7 483e 8e2e 8cbd 7b58 1abd 0fc0 983e
00000380: a876 cabc 9b2f 6bbd 2700 95bc e392 f8bc
00000390: 4415 033e 28e8 9dbd 39b6 8ebd 20db 433d
000003a0: 4ac5 a83c 980d c9bc 95d7 8ebd f530 87bd
000003b0: d106 eabc 248a ebba 4f6c 623d 7829 c43d
000003c0: 4ba8 053e 5f18 353d 0d30 843d 8916 683e
000003d0: 1c19 3fbd 4bfd dc3d dfc2 063d 0c04 8c3c
000003e0: c8cb f53d 2780 92bc 31bc 803d f2a6 c4bc
000003f0: 2ac8 91bd b2d3 583e 2c45 023e 6d6d a0bc
-0.014835563 -0.016889988 0.13158926 0.14139403 -0.033343766 0.08272916 0.10277696 0.22823098
0.06321627 -0.029327875 0.18674101 0.22991112 0.055686705 0.124383666 0.09371217 0.05640238
-0.049896117 0.03886913 -0.07203626 -0.01000835 0.23998405 0.07265898 0.17379455 -0.06093285
-0.05436882 0.11081685 0.07158449 -0.049734272 0.007199462 0.034699183 -0.05385274 0.06390909
0.19983856 -0.043547332 -0.029678151 0.13364725 0.0455191 -0.06109061 0.1070639 0.1910281
-0.012629623 0.074328005 -0.02668929 0.05343318 0.058832876 0.058719028 0.22546712 0.119532086
0.05090459 0.09265818 0.044305492 0.07689152 0.088009216 0.08438314 0.10923181 -0.067015074
0.1084462 0.113424145 -0.13728842 0.1809164 0.11248211 -0.04278706 -0.029476525 -0.041171264
0.059419554 -0.01274279 0.061024606 -0.021404358 0.16075419 0.18546595 -0.03044547 0.08372876
-0.005236978 0.055313665 -0.06193512 0.023305513 0.2630188 -0.018884186 0.06610292 0.1470363
-0.06293136 -0.044527058 -0.059579685 0.14388831 -0.02002349 0.03896595 -0.002764619 -0.017673695
-0.10656491 0.095419034 -0.0047985753 0.124142505 -0.013940369 0.013567888 -0.06708393 -0.037552726
0.0789889 0.17017838 0.07409741 0.16596206 0.048355877 -0.15126528 0.05841017 -0.08995651
0.041076086 -0.015531147 -0.019042255 -0.022406308 0.1153388 -0.077102 -0.03348892 -0.056643836
-0.06723151 -0.016110662 -0.040013805 0.10641331 0.06705259 0.091827534 0.09633242 0.10508095
0.14016867 0.08407598 0.075542316 -0.07177284 0.10740556 0.067485005 0.07222552 -0.06893303
0.11022781 0.042770945 -0.058104005 0.25355873 0.0462151 0.1160458 -0.03307602 0.041384563
0.18087353 0.07663096 0.20425886 0.11730173 -0.050862655 -0.049305182 0.075474955 0.19415617
0.19630072 -0.005994816 -0.057518173 0.056219574 -0.07648571 0.08006976 0.15062411 0.09699473
-0.06747273 -0.027124876 0.1180487 0.016789733 -0.056783453 0.2048635 0.15715897 0.2759683
-0.009410312 0.12310573 0.047807045 0.036766276 -0.029125048 -0.0057382644 0.0037814064 0.20511745
0.10114892 0.15921621 0.043922197 0.07687595 -0.03562298 -0.05503911 -0.055551957 -0.004413588
-0.035536855 -0.05676539 -0.06292832 0.06139235 0.08738866 0.089437634 -0.005171233 -0.051368378
0.19471781 0.16311288 -0.06247989 0.07338509 0.1555639 0.029924633 -0.049370907 0.035594724
0.06936578 0.03857596 -0.04742053 -0.14628197 0.17632115 -0.015158954 -0.030900842 0.054718927
0.18093853 -0.093878515 0.044384863 -0.023011891 0.030333085 0.26942194 0.18897775 0.0354484
0.07678338 0.0396726 0.15085958 0.1733751 0.13134193 -0.007583679 -0.033563823 -0.022071073
-0.0070745195 0.13104126 0.102346495 0.12025131 0.19601369 -0.06844817 -0.037682038 0.2983403
-0.024714783 -0.057418447 -0.01818855 -0.030343479 0.12801081 -0.07710296 -0.0696835 0.047816396
0.020601887 -0.024542615 -0.06974713 -0.06601135 -0.028567703 -0.0017970246 0.055279072 0.09578222
0.1305248 0.044212695 0.064544775 0.22664846 -0.046654806 0.10790499 0.032900687 0.017091773
0.12001759 -0.017883373 0.06285895 -0.024005387 -0.071182564 0.21174505 0.127217 -0.019583428

network.6.weight f4 [256, 256]
00000000: 8f60 e7bc 8a62 3bbd 2798 b2be 538c 34bf
00000010: 076c 19b9 246a 1abe f825 adbe efc1 bbbe
00000020: 04df fdbe 84b1 2ebd 048d 45bf eff2 bfbe
00000030: 5b53 3ebe afa5 c0be 0ab6 93be 4c3b 54be
00000040: 6c4e 22bd 1521 0bbe 10b2 283d 2dbd 28bd
00000050: a622 83be e015 30be 9eec d3be 9886 323d
00000060: 80c9 9d3c 3752 c3be c376 5abd 7e92 413d
00000070: 12c5 f4be 5779 48be 88fe 9a3c 6ff8 90be
00000080: 29ec 43be f731 d0bb a0f6 613d 1903 02bf
00000090: 1062 81be fa0c bb3c f66a a1be b276 37bf
000000a0: 5644 47bd 0763 92be b0b0 84bd df2f aabe
000000b0: 4bbe 8fbe dec0 69be 4e13 b2be c905 4fbe
000000c0: 5150 19be 5f4e 87be acc7 9bbe 8ae3 cdbe
000000d0: 2949 a7be 4075 0cbf b857 c8be a5e0 4a3d
000000e0: 7db0 22be 49ff 5fbe 1674 3cbd 7c52 53bd
000000f0: 9b00 b5be c894 e83c 3054 193d de8e 1d3d
00000100: c2c8 4dbe c060 b03b f8e7 8bbd 7238 063d
00000110: eba4 0abf b100 eebe c0b1 beba 3ae4 b6bc
00000120: c86c 65bd d56d 5cbe 2065 64bd 5314 edbd
00000130: ed8f 1abf e023 ee3b b4e8 23be ae3c 87bd
00000140: 16d0 68bd 074b 823d fce2 3bbd 4b04 39bf
00000150: 7092 86bc fddb 95bd e0ad fabb 442f 6f3d
00000160: 3e2b 1ebe a665 45be f8ff 0d3d c5e6 85be
00000170: 06dd 103d 92db 43bd ce0b fe3b b3fb 083e
00000180: c0b5 66be 370d 34bf f79f dabe 4a11 bcbe
00000190: edc6 fdbc 0e3a 8c3c b0c5 82bd 7755 56bd
000001a0: 8197 d5bd a281 6c3d ca9a 5cbe 6834 bebc
000001b0: 21d8 90be b4fa 8f3d f8e3 653c a4eb f53c
000001c0: 5dc6 94bd 8f35 4a3c 3967 043c 5356 1fbf
000001d0: cc7a 00bd 77f4 afbe 8919 09be 7691 95be
000001e0: f8eb 49be c721 acbe 2188 5dbe f4b8 2ebd
000001f0: f26b 54be 28d5 10be 0912 bebd ca89 3ebd
00000200: b106 b0be d530 4fbe ee07 843c 4c56 b5be
00000210: 840f 89be 85a5 bcbe c264 243d 5530 4abe
00000220: ea0b 17be f940 b5be a316 d2be b7c4 aabe
00000230: 0ac9 753d f618 1bbd 9f3b 7fbe b16c d8be
00000240: 2d77 a3be 78da 773d e7ef 413d 062e 8cbe
00000250: b848 0d3a a34e 8ebe 9cbb b8be b2a2 37be
00000260: ab44 adbc feaf f73c d7d0 adbe 6ad9 97bd
00000270: c0b4 5abd be0e e4be 0346 0cbf 8f24 d0be
00000280: b009 343d 94d2 1ebe 9b93 3cbe 18f5 2dbe
00000290: 1325 8bbb 2015 20bb a695 1bbe 6699 93be
000002a0: 5e9d d6be 91a9 b9be 061a 583e 8bd1 adbe
000002b0: 36d1 53bd 4c8a 873c b477 0b3d 71b6 f3be
000002c0: 5cb6 c3bc e1d3 d43c 50ca edbb e77d b6be
000002d0: 3f9b 62be 715a 95be b4d0 363c 0f17 05bc
000002e0: 90db 1dbf b7b7 a7be fa25 56bd 3c63 8dbe
000002f0: a43e 91bf 5cee 33be 0682 09bd 19e5 d43c
00000300: ce4c a8be 8736 72be baf8 2b3d 8969 41bd
00000310: ee67 bfbe 40fb e8bb 1016 85bb 72a0 bdbe
00000320: 8e80 3dbf 8dc5 8c3c bd87 55be 56db 033c
00000330: 73ab 64be 57da acbe 313a 2dbf 0dc5 51be
00000340: 1b50 debd dad5 0bbe cd21 f0be d5fd 59bf
00000350: ed90 dcbe 3115 a4be 6833 613d 7880 793c
00000360: 86be 70bf c168 19bf c9c1 69be f570 10bf
00000370: 4dfe 00bf 9844 653c 4077 8cbc 591a ccbe
00000380: ff2d a83c 70e6 05bd a848 373d c1f1 903d
00000390: de73 e4be d89d 66bd 00e1 2a3b 2c52 9bbe
000003a0: c5c4 7abe 36c0 6cbd 0634 a7bc b87a d73c
000003b0: dd53 53be 44db cfbc 37ed 453d d981 babe
000003c0: 0e6b d7be c8f0 1cbe 8461 473d f1c4 c9be
000003d0: 6065 3cbc 9177 91be fa44 32ba 3d11 01bf
000003e0: f7a5 9dbe a0e0 36bc 8506 c53c fdf2 47bc
000003f0: 0df9 49bd f9d3 d5be 20e5 25bf 9e5d 0c3d
-0.028244285 -0.04574827 -0.34881708 -0.7052662 -0.0001463146 -0.15079552 -0.3381803 -0.36671397
-0.4958421 -0.04264976 -0.771683 -0.3749003 -0.18586485 -0.37626407 -0.28849822 -0.20725745
-0.03962557 -0.13586839 0.04118544 -0.041196037 -0.25612372 -0.17195845 -0.41391462 0.04358539
0.019261122 -0.38148662 -0.053335916 0.047258846 -0.47806603 -0.19577537 0.018920198 -0.2831454
-0.19133057 -0.0063536125 0.05516684 -0.50785977 -0.25270128 0.022833336 -0.31526917 -0.7166549
-0.048649155 -0.28591177 -0.06479013 -0.33239648 -0.2807487 -0.22827479 -0.34780353 -0.2021705
-0.14972045 -0.2642698 -0.30425775 -0.4021266 -0.32673004 -0.5486641 -0.39129424 0.049530644
-0.15887637 -0.21874727 -0.046009146 -0.051592335 -0.35352024 0.028391257 0.037433803 0.038466327
-0.20096114 0.0053826272 -0.06831354 0.032768674 -0.54157895 -0.46484903 -0.0014548823 -0.022325624
-0.056011945 -0.21526273 -0.055760503 -0.11576142 -0.60375863 0.00726746 -0.16006738 -0.066033706
-0.05683907 0.063619666 -0.045870766 -0.72272176 -0.016427249 -0.0731735 -0.007650122 0.058394685
-0.15446183 -0.19277057 0.03466794 -0.26152626 0.035367034 -0.04781682 0.007752872 0.13377266
-0.2253027 -0.70332664 -0.42700168 -0.3673194 -0.030978644 0.017117526 -0.06385362 -0.0523276
-0.10429288 0.057740815 -0.21543422 -0.023218349 -0.28289893 0.0703024 0.014031403 0.030019589
-0.07264397 0.012341871 0.008081251 -0.62241095 -0.03136711 -0.343662 -0.13388647 -0.2921254
-0.19718921 -0.3361952 -0.2163396 -0.042656854 -0.20744303 -0.14143813 -0.09280784 -0.046518125
-0.34380105 -0.20233472 0.016117062 -0.35417402 -0.2676965 -0.3684503 0.040135153 -0.19745
-0.14750639 -0.35401133 -0.41032895 -0.33353207 0.06000618 -0.0378656 -0.24925087 -0.42270425
-0.3192686 0.060511082 0.04734793 -0.27378863 0.0005389559 -0.2779437 -0.36080635 -0.17933157
-0.021150908 0.030235287 -0.33948395 -0.07414515 -0.053395033 -0.44542497 -0.5479433 -0.40652892
0.04395455 -0.15510017 -0.18415682 -0.16988027 -0.004246363 -0.0024426654 -0.15193805 -0.2882797
-0.41916937 -0.3626218 0.21103677 -0.3394893 -0.05171319 0.016545437 0.034049705 -0.4760013
-0.023890667 0.025979938 -0.0072567835 -0.3564293 -0.22129534 -0.29170564 0.011158157 -0.008123173
-0.6166315 -0.3275735 -0.05228231 -0.27614772 -1.1347241 -0.17571396 -0.033571266 0.025988149
-0.32871097 -0.23653613 0.04198525 -0.047219787 -0.3738398 -0.0071100295 -0.004061468 -0.37036473
-0.74024284 0.017184043 -0.20852561 0.008047899 -0.22331028 -0.3376033 -0.6766692 -0.20485325
-0.10855123 -0.13655797 -0.46900788 -0.8515294 -0.4307932 -0.32047418 0.054980665 0.015228383
-0.94040716 -0.59925467 -0.2282783 -0.5642236 -0.5038803 0.013993405 -0.017146707 -0.39863852
0.020529745 -0.032690465 0.044747025 0.07077361 -0.4461965 -0.056302875 0.0026074052 -0.3033613
-0.24489124 -0.057800494 -0.020410549 0.026303634 -0.2063746 -0.025373109 0.04832193 -0.3642719
-0.42073864 -0.15326226 0.048676983 -0.39408067 -0.011498779 -0.28411534 -0.00068004394 -0.5041693
-0.30790684 -0.011161953 0.02405096 -0.012203929 -0.04930978 -0.41763285 -0.6480274 0.034268968

network.6.bias f4 [256]
00000000: 7e95 a63f e6c9 ae3f 7df5 ad3f 4a56 a93f
00000010: 5f21 313f 5778 713f bf11 a23f 888b 663f
00000020: abb8 5b3f 1787 163f 44fb 423e 6336 823f
00000030: 81e5 543f 171b be3f b7cc a33f a2cb 7f3f
00000040: 837d 6a3f 3e79 443f 33d5 0a3f ac01 543f
00000050: 7c95 19bd 6c4f 873f abd1 cfbd 890b 213f
00000060: 450b a33f 128d 9b3f e563 b33f bf53 773f
00000070: 2f4d 543f 2a96 9f3e 96a6 653f aa83 7e3f
00000080: 255b 6c3f 0bba b83f a2d2 703f 4a5d 523f
00000090: 434e 28bd 149e b23f bcfc 573f cff8 613f
000000a0: dead 9abd add1 af3f 9731 663f 5272 b53f
000000b0: 54a5 793e 1388 693f f93c ae3f 013f 733f
000000c0: e58e b73f 36f9 763f bf1d 753f 1aef b2bd
000000d0: 3299 b13f bab5 353f 4577 ba3f 3f3a 583f
000000e0: 588e 7a3f f85c a1bd 760f 6e3f c186 1a3f
000000f0: 50b5 a93f 8c75 e63e dc09 a93f c9a3 bb3f
00000100: f8d8 5e3e 143e 5a3f 2090 b33f 51b8 aabd
00000110: d971 b53f 5fa7 603f ac87 103f e07e 5b3f
00000120: 24a7 763f b2b5 a63e e42b a73f d184 303f
00000130: 6c22 6b3f 4b41 b53f b7f4 aa3f dda0 733f
00000140: af7a b63f 1987 113f 26d4 f9be 2264 b93f
00000150: 05c4 0a3f 9f31 793f 971a 383f 9e96 fd3e
00000160: ed94 ba3f 9d5c 95bd a002 a93f b976 c93d
00000170: aef9 d93e 21d5 ae3f adde 7c3f 2d28 933e
00000180: d920 773f 71a1 793f 8a7a bc3f 2caa 213e
00000190: 547e c23f 2922 623f d9eb 393f dffe 953f
000001a0: 8b65 723e a4ac 743f 8436 ad3f a7b2 933f
000001b0: 8356 633f d347 7e3f 3359 983f 52e2 b43f
000001c0: 99af 6b3f 18b1 723f de29 98bd 4e4e a83f
000001d0: 7383 9c3f 87cd 673f f80c 443f a557 d03e
000001e0: 7972 ab3f a1ff 6f3f 57c6 ac3f 8ce1 653f
000001f0: 47c4 783f daf2 703f fe7b 66bd bce5 b1bd
00000200: 2d5e 5f3f 4443 9e3f 7d39 aa3f 6e52 afbe
00000210: 10cc b43f c2f3 6f3f 78ba 8d3e ff29 9a3f
00000220: 6f0d f2be f663 bd3f 77b6 513f 60eb ba3f
00000230: 0436 633f 89e1 243e b1f0 743f 0e23 3a3f
00000240: 4e71 253f e95d 9b3f ffbb a13f d4a1 113f
00000250: 267a 1a3e f3ea bc3e c482 b83e fbe6 773f
00000260: 95ca 603f a9ac b93f 422f b53f 3e07 a23f
00000270: 1a43 a73f 06e1 4b3e e117 b33f e119 6b3f
00000280: 5cef b03f 4127 c13e 39c6 9d3f 7582 04bd
00000290: a2fb 4cbd 4539 bc3f 16bc a53f 5030 753f
000002a0: 60ba 6c3e cbc5 683f 4712 6c3f a7d7 6a3f
000002b0: 54c6 293f a84c b63f 7c54 b03d 65f6 a53f
000002c0: f288 a33f 68d7 573f 9637 5a3f 81d5 483f
000002d0: bbc7 543f b708 a73f 3ee5 3ebb e57e b43f
000002e0: b941 b83f 362f 593f 34ab 7b3f 7255 b33d
000002f0: c0d9 b6bd 422e 813f e369 763f 5287 a93f
00000300: d628 543f 7037 333f 0666 6c3f 3a51 323f
00000310: 9702 92be c4d1 4a3f 0ba4 ab3f f934 153f
00000320: 4d56 b03d c20c 773f 297c 483f c64a b43f
00000330: e2cd febc effd 553f 0835 163f 8963 5b3f
00000340: ca83 973f 794a 553f fcf7 b13f f303 863f
00000350: 4810 7b3f 8c28 6e3f 95e9 243e db8e ab3f
00000360: 0e50 613f 763f bf3f cb42 8fbc 14c6 ba3f
00000370: d53c 673f 4203 2b3f d8b4 9ebc 8de7 813f
00000380: 4d27 703f 44a5 6f3f 9021 b83f 7ca3 a23e
00000390: 7a61 433f b216 613f d250 7c3f dd13 be3f
000003a0: 3579 b73f d53e 823f 93a4 863f 5ef7 c13e
000003b0: 28ff b23f 093a 703f 204e 643f 1783 bc3f
000003c0: ca71 4abd 2844 413f 0777 713f b264 293f
000003d0: 0d23 703f db2b ac3f 1fce 503f 3661 843f
000003e0: 5302 7b3f 61a2 8bbd 1d54 b23f f343 943f
000003f0: 478b b43f 104c 693f 36d9 9f3f a0e8 21bf
1.3014371 1.3655365 1.3590542 1.3229458 0.69191545 0.9432425 1.2661666 0.9005666
0.85828656 0.5879988 0.19041163 1.0172848 0.83162695 1.4852017 1.2796849 0.99920094
0.91597766 0.767475 0.54231566 0.8281505 -0.037496075 1.0571113 -0.10147413 0.62908226
1.2737814 1.2152426 1.401486 0.9661216 0.8293027 0.31169254 0.89707315 0.99419653
0.92326576 1.4431776 0.940714 0.821736 -0.04109026 1.3954492 0.8437002 0.88270277
-0.07552694 1.3735863 0.8991942 1.4175513 0.24379474 0.9122326 1.3612357 0.9501801
1.4340483 0.96474016 0.95748514 -0.08737011 1.3874876 0.7098042 1.4567648 0.84463876
0.9787345 -0.078790605 0.9299234 0.6036187 1.3258457 0.45011556 1.3206134 1.4659358
0.21762455 0.85250974 1.4028358 -0.08335937 1.4175369 0.8775539 0.5645702 0.8574047
0.96348786 0.32560498 1.3060269 0.6895266 0.918494 1.4160551 1.3355931 0.9516733
1.425619 0.5684677 -0.4879467 1.4483683 0.5420535 0.9734134 0.7191557 0.49528974
1.4576699 -0.07293055 1.3203926 0.09837098 0.42573303 1.3658792 0.98777276 0.2874159
0.96534497 0.97511965 1.4724896 0.15787572 1.5194802 0.88333374 0.726255 1.1718405
0.23671548 0.9557593 1.3532262 1.1538895 0.8880388 0.99328345 1.1902221 1.4131567
0.92064816 0.94801474 -0.074298605 1.3148897 1.2227615 0.90547985 0.7658229 0.40691867
1.3394309 0.93749434 1.3498029 0.8979728 0.97174495 0.9412056 -0.056270592 -0.086863965
0.87253076 1.2364278 1.3298794 -0.34242576 1.4124775 0.9373132 0.27681327 1.2044066
-0.47275874 1.4796131 0.81919044 1.4603081 0.88754296 0.1610166 0.95679766 0.7270974
0.64626014 1.2138034 1.2635497 0.56887555 0.15085658 0.36898002 0.36037266 0.96836823
0.87809116 1.4505817 1.4155047 1.265846 1.3067353 0.19910058 1.3991662 0.91836363
1.3823047 0.3772526 1.2326118 -0.032350976 -0.050044663 1.4704977 1.2948024 0.95776844
0.23117971 0.9092681 0.9221539 0.9173531 0.6631825 1.4242144 0.08609864 1.2965819
1.2776167 0.8431306 0.8524107 0.7845078 0.83117265 1.3049535 -0.0029128338 1.4101225
1.4395057 0.84837663 0.9830811 0.08756532 -0.08928251 1.0092242 0.9625532 1.3244421
0.8287481 0.70006466 0.92343175 0.6965519 -0.285176 0.79226327 1.3409437 0.58283955
0.086102106 0.9650384 0.78314453 1.4085319 -0.031104032 0.83590597 0.5867467 0.85698754
1.1837094 0.8331676 1.3903804 1.0469955 0.9807172 0.9303062 0.1610473 1.3402971
0.8801278 1.4941242 -0.017487904 1.4591699 0.903272 0.66801846 -0.019373342 1.0148789
0.9380997 0.9361155 1.4385242 0.31765354 0.7632061 0.87925255 0.9856082 1.4849812
1.4333864 1.0175425 1.0518974 0.3788404 1.3984118 0.93838555 0.8918171 1.4727505
-0.049424924 0.75494623 0.94322246 0.66169274 0.93803483 1.3450884 0.81564516 1.0342166
0.9805042 -0.06818081 1.3931919 1.1583236 1.4105004 0.9113169 1.2488163 -0.6324558

network.8.weight f4 [3, 256]
00000000: f43a 6b3f d7ed d43e 1b0c 743d 352d e63e
00000010: 4355 29bf 94c6 09be 19bf 893e fbcf 52bd
00000020: db9f dbbd 6745 2cbe 9371 383f 9b62 92bd
00000030: f800 933f ef0c a93e e976 013e d8d5 72be
00000040: 56d4 25be 06ef 603f 8e1d 4bbe 6247 04be
00000050: 5e52 39bc 5134 8e3f 75a1 c8ba 5beb 7dbe
00000060: 6739 863f cf5c 533f 3ae7 943f ae51 5ebe
00000070: e082 c8bd abe3 b6bf 7d44 f8bd b0b3 20bf
00000080: 6eaf e1bd 1ae2 fc3e a880 29be e81d 9dbd
00000090: 0ee1 373e 55e5 833f f374 60bf e096 1cbe
000000a0: fe65 ad3b ea9f 613f 0bca 803e d39f 563f
000000b0: f35d ac3f bd08 dc3e 3192 633e d9b5 43bd
000000c0: af06 4b3e 4d0e c3bd 4cc7 f6bd 4d73 e43a
000000d0: b5ed 1d3f 138e 8bbe c89a 093f 796c 613e
000000e0: 1c8a 09be fb8b 143d 2bec 31be dfed b8be
000000f0: fb5b d73e 0730 8b3d fd48 da3e 6062 c53e
00000100: 1afb 213f 879d 45bd 669b 413e a110 53bd
00000110: 6313 c83e 5453 e7bd a502 6e3f ea3b dabd
00000120: 31bb 10be f4c4 e63e 9dde 7d3e 228a e93e
00000130: b134 1ebd acfd 803e 0b20 6e3f ad14 87bc
00000140: 3028 0c3f c6ac 58be 435e 1abf 0eeb 8b3f
00000150: 4ed1 5e3f 6361 2ebe 6f08 8c3f a7c9 8fbf
00000160: 29d4 623f d13f e4bb 2f2d 8b3f 9584 df3e
00000170: c71d b0be abbf 263f 9372 2cbe 3598 7d3f
00000180: 3308 2fbe ff65 893f 0805 cd3e 6c8c 023f
00000190: 09bf 673f 5693 273e eaa5 5ebe 3ebc 423f
000001a0: 6da0 753f bd34 54be 9e9d a83e bbdc 9d3e
000001b0: c9f3 583b 99d0 eabd 253b 153f 6bbc 993f
000001c0: 40d9 31be bc72 7abe 4c48 963c db0a 173e
000001d0: 5fe2 063f 33a5 1dbf 6dfc bebe 8f24 613f
000001e0: b4dd 973f 53ca 54bc 32d8 f83c 5b4d 4abe
000001f0: c77e 343f 6b4f 563b 1ddd 23bd d232 9d3c
00000200: e82f dd3a 97ed 3d3f a646 2d3f 8ff9 40bf
00000210: 5e9d f73e 0a1a 05be 6fbe 6e3f 6021 563f
00000220: 9d7a 28bf 5e15 a13e 2b96 47be a99e c33e
00000230: 345c e6bd 4d79 2ebf 77e6 a8bd 936a 883f
00000240: 587f dbbe c051 353f 6031 313f 0707 903f
00000250: dd05 783e f6c7 043f 8485 173f 1756 cbbd
00000260: edaf 09be ac1e 083f 08e1 f23d 1a0c 583f
00000270: 5c7e 203f 3bcb 043f ca68 6f3f 5a71 0ebe
00000280: 0379 a73f 1d51 a93d 0087 263f 0b4f 2b3c
00000290: fb32 f63b 57e7 5d3e edb4 133f 18dc f3bd
000002a0: ad8e 303f 3ea1 0cbe ab1e 61bd aaf9 a1bd
000002b0: f852 4cbe 294b ca3e b5ca e93e fc61 313f
000002c0: c8a9 eb3e c09c 24be cebf 1f3f 64aa febe
000002d0: 1c87 11be 839f 0a3f 1ba8 093d e8d6 a03e
000002e0: f6be 493e fd8f 703f b586 2bbe f862 663e
000002f0: b5e1 3e3e 6192 2cbe 066e dcbd 218e 2b3f
00000300: f22b 95bd c816 8e3f bc62 85bd ae88 873f
00000310: 3109 56bd cd7b 8a3d d371 903e 6928 b7be
00000320: bc6f 043f 5d46 08be 1a0a 873d bbe1 483e
00000330: 8885 60bd 567e bd3d fd0d 49bf 12c9 62be
00000340: a577 003f e568 dabd 2509 f03d 957e b03e
00000350: 967f 88be 8573 b4bd 5f8d 8f3f f8b2 693f
00000360: 3f0b 0fbe 2308 d63e 5242 453e 4f58 0b3f
00000370: 9fe7 00be c1e4 893f a766 253f 30ef 0cbe
00000380: a57f dcbd ff7b cbbd b061 293e 873f 013f
00000390: bdc1 d23d 156f 8ebd c096 1cbe d582 c03e
000003a0: a9b0 693f 4deb 02be 5f05 2cbe 47a2 d63e
000003b0: 86a1 5d3f 9c0a 39be 793d 0abe c63d c93e
000003c0: b3a1 9ebb a265 023e 8df3 90bd 1a4d aebe
000003d0: 7d50 3dbe e90a 6c3e de22 063c bca5 32be
000003e0: 224b 75be f3d8 043d bc1b 613f 0049 0fbd
000003f0: 1f1b 783f 2e02 29be 7bb5 6c3e 28f0 a4bd
0.9188683 0.41587707 0.059581857 0.44956365 -0.66145724 -0.13454658 0.26903608 -0.051467877
-0.107238494 -0.1682335 0.720483 -0.07147714 1.1484671 0.3301768 0.12643017 -0.23714387
-0.16194281 0.8786472 -0.19835493 -0.12917855 -0.011311142 1.1109716 -0.0015306907 -0.24796812
1.0486268 0.8256349 1.1633065 -0.21710846 -0.097905874 -1.4288229 -0.12122438 -0.6277418
-0.11019789 0.49391252 -0.16552985 -0.0767172 0.17956945 1.0304362 -0.8767845 -0.15291929
0.0052916994 0.88134634 0.25154147 0.8383762 1.3466171 0.42975417 0.22223736 -0.047780845
0.19826768 -0.09524212 -0.120497316 0.0017429382 0.6169084 -0.27256832 0.537518 0.22014035
-0.13431591 0.03626631 -0.17375247 -0.3611898 0.42062363 0.0679627 0.4263381 0.38551617
0.63273776 -0.048245933 0.18906936 -0.05152953 0.3907729 -0.112951905 0.92972785 -0.10655959
-0.14133908 0.45072138 0.24791951 0.456132 -0.03862447 0.25193536 0.93017644 -0.016489351
0.5474882 -0.21159658 -0.6030008 1.0931108 0.87038124 -0.17029338 1.0940074 -1.1233414
0.8860498 -0.0069656153 1.0873164 0.4365584 -0.34397718 0.6513621 -0.16840582 0.99060374
-0.17092972 1.0734252 0.400429 0.50995517 0.9052587 0.16364798 -0.21742979 0.76068485
0.95947915 -0.20723243 0.32932752 0.30832466 0.0033104292 -0.11465568 0.5829337 1.2010626
-0.1736803 -0.2445783 0.01834502 0.14750235 0.52689165 -0.615802 -0.3730196 0.8794641
1.1864533 -0.012987691 0.030376527 -0.19756071 0.70505947 0.0032701145 -0.040005792 0.019189272
0.0016875239 0.7419066 0.67685926 -0.75380796 0.4836225 -0.12998214 0.9325933 0.83644676
-0.65812093 0.31461614 -0.19490878 0.38206986 -0.11248055 -0.6815384 -0.08247083 1.0657524
-0.42870593 0.70827866 0.69215965 1.1252145 0.24220987 0.51867616 0.59188104 -0.0992853
-0.13446017 0.531718 0.118593276 0.84393466 0.6269281 0.51872605 0.9351927 -0.13910428
1.3083805 0.08267424 0.65049744 0.010455857 0.0075134016 0.2167028 0.57697946 -0.11907214
0.68967706 -0.13733384 -0.054960888 -0.07908948 -0.19953525 0.39510468 0.45662466 0.6929014
0.4602797 -0.1607542 0.62402046 -0.49739373 -0.14211696 0.54149646 0.033607583 0.3141396
0.19701752 0.9396971 -0.16750605 0.22498691 0.18640788 -0.16852714 -0.10763173 0.67013747
-0.072837725 1.1100702 -0.06512973 1.0588586 -0.05225486 0.067618944 0.2821184 -0.35773018
0.51732993 -0.13308091 0.065937236 0.1961736 -0.054814845 0.09252612 -0.7853697 -0.22147015
0.50182563 -0.10664538 0.11720494 0.34471574 -0.2665984 -0.08811096 1.1215018 0.9128871
-0.13969134 0.41803083 0.1926358 0.54431623 -0.12588356 1.0772935 0.6460976 -0.13763118
-0.10766534 -0.0993576 0.16541171 0.5048756 0.10290859 -0.06954781 -0.15291882 0.37599817
0.91285187 -0.12785073 -0.16798924 0.41920683 0.8657459 -0.18070453 -0.13500012 0.39304942
-0.0048410534 0.12734082 -0.070777036 -0.340432 -0.18487735 0.23051037 0.008187024 -0.17446035
-0.23954442 0.03243346 0.87932944 -0.034981728 0.96916384 -0.16504738 0.23116104 -0.08053619

network.8.bias f4 [3]
00000000: 27d0 35bf 3cd8 35bf e1e9 a1be
-0.7102074 -0.7103307 -0.31623748
