runs_mountaincar_No_EWC/abrupt/egp/seed_1/online_stream_model.pth (torch, 535757 bytes, 8 tensors)

network.0.weight f4 [256, 2]
0.37873188 1.0158049 -0.031780012 0.11323982 -0.09923409 1.3450592 0.49680787 0.035202563
-0.022837106 1.5057118 -0.067504644 -0.13050336 -0.19963065 -3.732456 0.15790354 2.8887682
-0.06691589 1.2637582 0.6688521 1.9539801 0.38190812 -0.4426228 -0.012245467 1.3323712
0.30368906 0.5099347 0.09697473 -0.03935927 0.3904609 0.007999659 -0.022836268 0.34702986
0.35708356 0.050318882 0.51933604 -0.53125983 -0.040219545 0.4838639 0.04857099 -2.1973956
0.18230832 -0.5212799 0.49844605 -0.32799923 0.2234329 0.055811346 0.50293154 -0.38596398
0.34749275 -2.3712883 0.046676695 -2.2035444 0.74270123 1.9841076 -0.013781912 -0.8434429
-0.42083794 -2.9375322 0.07904869 2.0073833 -0.018520024 -1.6213045 0.3483501 -0.02793467
0.21067773 2.6976752 -0.21910334 -0.2590454 0.4552685 0.63160956 -0.016596591 2.493106
-0.0917767 -2.3190005 0.0951466 -0.11177176 0.6745531 0.42404157 0.201932 -2.002691
0.35628217 -0.38615558 0.3626122 -0.46000654 0.39693457 0.8409149 -0.12681094 1.2295647
-0.015052319 0.47933418 0.024595544 1.0040596 -0.14768654 0.67991966 0.39536697 -0.10253842
0.19374366 -1.8846697 -0.1304057 -2.9900193 -0.19495301 -2.7457151 -0.12970382 -0.06476194
0.0109398635 1.1549729 -0.5933278 0.71827364 -0.02781969 -1.7733618 0.12931307 2.1050959
-0.28706488 0.20821875 -0.2640092 0.14005262 -0.15063687 1.0041988 -0.14013608 0.5282195
0.48543304 1.4009198 0.41117626 0.6965478 0.028264295 0.7559366 0.6001027 0.20385194
0.32749766 0.82949877 0.1457305 0.6429078 0.03721064 -1.6799173 0.06934812 2.0695572
0.24523248 -1.3510888 0.5659098 0.25668043 -0.16063797 -0.07550937 -0.39214212 0.6660704
0.026781045 -1.87893 -0.02058095 1.7882811 -0.08852011 1.8150178 -0.05927813 -0.03901702
0.11408314 2.5137382 -0.0028244257 -0.14927042 -0.19237167 -0.18362595 -0.006212711 1.5842179
-0.30308098 0.15122876 0.019182358 0.008202109 0.26683784 0.50812554 0.6982896 0.03882128
0.028498793 -1.5762026 0.3865475 2.3705761 0.4262901 -1.2996179 0.4438993 2.2764485
-0.119135685 1.8135858 0.13123828 -0.50982356 0.1664972 1.5511079 -0.08068093 0.01853237
0.37487707 2.1541257 -0.00089593424 -1.8566285 -0.42417023 1.077763 0.09939857 1.780646
0.24846402 2.184313 -0.41020113 -1.2010928 0.26218587 -0.055654187 0.16151398 1.9241697
0.24353467 0.18170236 0.000933379 -1.401741 -0.009850969 2.1333926 0.13235703 2.1277049
0.14967337 2.2318714 0.2804342 -0.40949482 0.02751469 -1.7853382 -0.036478616 0.16749851
0.1594613 -1.5928569 0.20876442 -1.8549045 0.5313328 -0.17899716 0.05774561 -1.9129254
0.074409604 -2.050772 0.06682925 -2.5229425 0.14628929 -0.49133286 0.6526213 0.2600881
0.18267623 2.1971643 -0.40012828 -0.6631875 0.07848334 -0.5136163 0.23314306 0.6067385
0.27712512 0.09182966 0.4210074 0.6797741 -0.17581792 0.5792284 0.09385997 1.0508628
0.08375574 2.1212301 -0.20322147 -0.57064736 0.34235445 -0.2066068 0.037955165 0.63505536
00000000: 25e9 c13e e505 823f c22b 02bd 47ea e73d
00000010: 3e3b cbbd e62a ac3f 9a5d fe3e 9030 103d
00000020: e214 bbbc 2abb c03f e03f 8abd aca2 05be
00000030: fa6b 4cbe 8fe0 6ec0 77b1 213e 94e1 3840
00000040: 330b 89bd d4c2 a13f e439 2b3f 051c fa3f
00000050: 7689 c33e 759f e2be 36a1 48bc 248b aa3f
00000060: 227d 9b3e 158b 023f b09a c63d 3037 21bd
00000070: 7eea c73e 0011 033c 2013 bbbc e6ad b13e
00000080: a8d3 b63e 2c1b 4e3d 35f3 043f a500 08bf
00000090: 40bd 24bd 02bd f73e 60f2 463d 21a2 0cc0
000000a0: 08af 3a3e 9972 05bf 5234 ff3e 84ef a7be
000000b0: 98cb 643e 709a 643d 1fc0 003f 129d c5be
000000c0: 92ea b13e 30c3 17c0 1030 3f3d df06 0dc0
000000d0: ab21 3e3f 3df7 fd3f 87cd 61bc e0eb 57bf
000000e0: 1278 d7be 8700 3cc0 48e4 a13d f878 0040
000000f0: 4eb7 97bc e886 cfbf f25a b23e 40d7 e4bc
00000100: e7bb 573e b6a6 2c40 a05c 60be 99a1 84be
00000110: f418 e93e 2ab1 213f 93f5 87bc 0c8f 1f40
00000120: 6cf5 bbbd 816a 14c0 38dc c23d 98e8 e4bd
00000130: 83af 2c3f fa1b d93e 43c7 4e3e 172c 00c0
00000140: 9e6a b63e 2fb6 c5be 4ea8 b93e fa85 ebbe
00000150: 023b cb3e 3346 573f bada 01be 6062 9d3f
00000160: 009e 76bc 4a6b f53e 987c c93c 0685 803f
00000170: 243b 17be 370f 2e3f 8a6d ca3e aaff d1bd
00000180: bd64 463e db3c f1bf 1289 05be 7a5c 3fc0
00000190: c3a1 47be ccb9 2fc0 14d1 04be e8a1 84bd
000001a0: 1d3d 333c 27d6 933f 55e4 17bf c8e0 373f
000001b0: 1ee6 e3bc 85fd e2bf a56a 043e e4b9 0640
000001c0: 2bfa 92be 4c37 553e 372c 87be f469 0f3e
000001d0: 8d40 1abe 9689 803f d57f 0fbe 6539 073f
000001e0: ae8a f83e 5751 b33f b285 d23e f550 323f
000001f0: 868a e73c 1085 413f 55a0 193f 90be 503e
00000200: c6ad a73e 085a 543f 603a 153e 9b95 243f
00000210: 2f6a 183d 8807 d7bf 6306 8e3d a073 0440
00000220: 391e 7b3e 7af0 acbf 77df 103f 9e6b 833e
00000230: 487e 24be a8a4 9abd dac6 c8be 9783 2a3f
00000240: ec63 db3c c780 f0bf 6199 a8bc 65e6 e43f
00000250: 084a b5bd 8152 e83f a0cd 72bd 50d0 1fbd
00000260: 6ca4 e93d 16e1 2040 001a 39bb 58da 18be
00000270: 14fd 44be 7108 3cbe ff93 cbbb a7c7 ca3f
00000280: 6e2d 9bbe b6db 1a3e 5224 9d3c 2362 063c
00000290: f89e 883e 8414 023f 1bc3 323f 1003 1f3d
000002a0: 4d76 e93c 02c1 c9bf 8ee9 c53e 85b7 1740
000002b0: b242 da3e e159 a6bf c546 e33e 55b1 1140
000002c0: 69fd f3bd 9423 e83f 5463 063e cc83 02bf
000002d0: 3e7e 2a3e b48a c63f 0b3c a5bd 32d1 973c
000002e0: e3ef bf3e 32dd 0940 21dd 6aba 01a6 edbf
000002f0: d72c d9be 23f4 893f 7a91 cb3d 35ec e33f
00000300: 5a6d 7e3e c9cb 0b40 e205 d2be 69bd 99bf
00000310: 3a3d 863e a5f5 63bd ec63 253e 314b f63f
00000320: 2761 793e 2f10 3a3e 01ae 743a 406c b3bf
00000330: f565 21bc 8189 0840 9a88 073e 512c 0840
00000340: fa43 193e fbd6 0e40 1295 8f3e 4ea9 d1be
00000350: 7d66 e13c f685 e4bf 9a6a 15bd bb84 2b3e
00000360: d349 233e bce2 cbbf 57c6 553e 836d edbf
00000370: 6d05 083f 084b 37be a986 6c3d bdda f4bf
00000380: 1064 983d d93f 03c0 c6dd 883d e477 21c0
00000390: dccc 153e fb8f fbbe 3112 273f 442a 853e
000003a0: 7a0f 3b3e 579e 0c40 9ddd ccbe a8c6 29bf
000003b0: e0bb a03d 5c7c 03bf 0ebd 6e3e 3753 1b3f
000003c0: 58e3 8d3e 3011 bc3d 488e d73e ad05 2e3f
000003d0: 9d09 34be 5048 143f a839 c03d ac82 863f
000003e0: 2188 ab3d 3cc2 0740 4a19 50be f215 12bf
000003f0: 1549 af3e bc90 53be e076 1b3d fd92 223f

network.0.bias f4 [256]
-0.07115123 -0.041404787 -0.095582336 -0.4301546 0.0030813485 -0.4491078 -0.27820447 -0.07249292
-0.078415416 -0.23905554 -0.115111314 -0.019494323 -0.47268862 -0.67965466 -0.2873165 -0.532256
-0.10941273 -0.3410747 -0.5159071 0.0014782272 -0.37293378 -0.47237504 -0.38923052 -0.5143651
0.18396506 0.0007449953 -0.25660494 0.031401794 -0.5156392 -0.03490431 -0.035487127 -0.43562797
-0.07899156 -0.62442 -0.2751158 -0.081932716 -0.09259338 -0.30689546 -0.42433447 0.10853898
-0.58552676 -0.5056907 -0.07187842 -0.10648321 -0.42463556 -0.025025537 -0.38233554 -0.12961161
-0.09539248 -0.13173318 -0.17080648 -0.2987752 -0.032951165 -0.7132375 -0.04456577 -0.054816857
-0.53629166 -0.3398338 -0.12414433 -0.18783614 -0.17623718 -0.6691632 0.0040687425 -0.3898338
-0.04701931 -0.29126272 0.0048601273 -0.03151531 0.118627675 -0.40991357 -0.6313231 -0.6187498
-0.013919871 -0.014676129 -0.05821327 -0.2433689 -0.04371796 -0.49773836 -0.23947561 -0.014775478
-0.24495997 -0.02372665 -0.036089253 -0.64269793 -0.016868519 -0.11885021 0.2365928 -0.13053757
-0.12850691 -0.48992205 -0.047881715 -0.105295174 -0.075700305 -0.02657335 -0.34545162 -0.046328783
-0.07258078 -0.33181775 0.14563656 -0.057347834 -0.13928397 0.039424665 -0.087830454 -0.05350898
-0.056676086 -0.28688172 -0.015922379 -0.079118416 0.0809375 0.110476114 -0.5585659 0.014253368
0.021283533 0.0116662895 -0.4267886 -0.40246338 -0.0656297 -0.5677858 -0.5945602 -0.039193638
-0.5282674 -0.06524593 -0.23041262 -0.031246314 -0.049686912 -0.15355808 -0.13496192 -0.29480237
-0.16545081 -0.09201544 -0.2537411 -0.7050964 -0.1198718 -0.01616673 -0.320471 -0.13369007
0.006757458 -0.17071038 0.0037224868 -0.048252255 -0.15651402 -0.0343178 -0.27230507 0.17031412
-0.03267162 -0.119519204 -0.06735051 -0.50200325 -0.36283797 -0.0030532745 -0.019406762 -0.062338438
-0.11136787 -0.024141807 -0.08622507 -0.66480684 0.14562607 -0.10350815 -0.08715089 -0.22564617
-0.27697167 -0.56365263 -0.72807044 -0.13306244 -0.061096042 -0.1154115 -0.19469394 -0.6589047
-0.101064816 -0.31199542 -0.033649035 -0.30623013 0.09226899 -0.25442803 -0.12181743 -0.044351824
-0.16243286 0.088140905 0.02886937 -0.26491725 -0.061128903 -0.10829638 -0.08711114 -0.13343014
-0.33699 -0.077812344 0.17709725 -0.2924313 -0.339154 -0.531432 -0.0639502 -0.035807107
-0.29632732 -0.069424845 -0.7026617 -0.017358363 -0.09677708 -0.18001474 -0.23440693 -0.32625046
-0.053385954 -0.011611441 -0.27725548 0.06641878 -0.5605499 -0.08558048 -0.57598275 -0.09292932
-0.0961107 -0.41663852 -0.012172392 -0.23487401 -0.62336254 -0.24462444 -0.25718266 -0.16448899
-0.46939772 -0.64989084 -0.62548625 -0.0969505 0.047800757 -0.09066729 -0.06028669 -0.011424349
-0.13696055 -0.016005114 0.11154611 -0.6096588 0.23993719 -0.18407004 -0.2278793 -0.39403167
-0.026645886 -0.37123263 -0.30732366 -0.10331639 -0.15366489 -0.17771615 -0.1256894 -0.38998857
0.00024096723 -0.65093446 -0.01454346 -0.35837725 0.06107652 -0.16290009 -0.07586585 -0.11498028
-0.2289024 -0.32268596 -0.12514621 -0.65103626 -0.13759176 -0.34581545 -0.19040123 0.03936823
00000000: bcb7 91bd 1198 29bd acc0 c3bd 393d dcbe
00000010: 73f0 493b 75f1 e5be d170 8ebe 2b77 94bd
00000020: 4398 a0bd faca 74be 7bbf ebbd 8fb2 9fbc
00000030: 3e04 f2be d9fd 2dbf 261b 93be ee41 08bf
00000040: c813 e0bd 58a1 aebe 7d12 04bf 13c1 c13a
00000050: 2df1 bebe 24db f1be 3949 c7be 6ead 03bf
00000060: 5661 3c3e ca4b 433a b961 83be 2b9f 003d
00000070: ee00 04bf d2f7 0ebd f35a 11bd a10a dfbe
00000080: 54c6 a1bd fdd9 1fbf fadb 8cbe 57cc a7bd
00000090: 99a1 bdbd 6721 9dbe 5e42 d9be af49 de3d
000000a0: 15e5 15bf f274 01bf fe34 93bd df13 dabd
000000b0: d569 d9be 5b02 cdbc 7cc1 c3be e8b8 04be
000000c0: 225d c3bd 10e5 06be e5e7 2ebe 10f9 98be
000000d0: cdf7 06bd bc96 36bf 998a 36bd a487 60bd
000000e0: 694a 09bf b2fe adbe 623f febd 1e58 40be
000000f0: 8577 34be 484e 2bbf 1653 853b 4c98 c7be
00000100: 5297 40bd 6320 95be b441 9f3b 3316 01bd
00000110: 11f3 f23d 31e0 d1be 649e 21bf 6366 1ebf
00000120: 2c10 64bc 2674 70bc 0a71 6ebd b235 79be
00000130: 9b11 33bd 90d7 febe 1839 75be d914 72bc
00000140: c9d6 7abe 645e c2bc 53d2 13bd da87 24bf
00000150: d92f 8abc bd67 f3bd 6245 723e a4ab 05be
00000160: 5197 03be 10d7 fabe 9e1f 44bd ffa4 d7bd
00000170: c308 9bbd 5bb0 d9bc 09df b0be 40c3 3dbd
00000180: 3ba5 94bd 04e4 a9be c021 153e 90e5 6abd
00000190: 75a0 0ebe c27b 213d 74e0 b3bd 3b2c 5bbd
000001a0: 2f25 68bd 29e2 92be a66f 82bc d608 a2bd
000001b0: 8fc2 a53d 4d41 e23d 2dfe 0ebf f586 693c
000001c0: ce5a ae3c f723 3f3c 0984 dabe ae0f cebe
000001d0: dd68 86bd 695a 11bf 1935 18bf 8289 20bd
000001e0: 883c 07bf a89f 85bd 49f1 6bbe 45f8 ffbc
000001f0: 8184 4bbd 543e 1dbe 7533 0abe 56f0 96be
00000200: f06b 29be 9772 bcbd 5aea 81be 3381 34bf
00000210: 597f f5bd 1770 84bc c614 a4be 0de6 08be
00000220: ab6d dd3b b4ce 2ebe f7f4 733b 28a4 45bd
00000230: 3645 20be d290 0cbd 926b 8bbe d366 2e3e
00000240: add2 05bd 7cc6 f4bd 10ef 89bd 4983 00bf
00000250: e6c5 b9be 7219 48bb eefa 9ebc 9756 7fbd
00000260: d614 e4bd 0ac5 c5bc c596 b0bd c830 2abf
00000270: 001f 153e 15fc d3bd 2a7c b2bd ca0f 67be
00000280: 3bcf 8dbe 8a4b 10bf d362 3abf 8541 08be
00000290: d83f 7abd dd5c ecbd d95d 47be faad 28bf
000002a0: 12fb cebd ddbd 9fbe 92d3 09bd 32ca 9cbe
000002b0: 86f7 bc3d 6444 82be 6b7b f9bd 42aa 35bd
000002c0: cd54 26be 3883 b43d 757f ec3c 3ca3 87be
000002d0: 4d62 7abd 7eca ddbd 5367 b2bd e9a1 08be
000002e0: f489 acbe 145c 9fbd fb58 353e 8eb9 95be
000002f0: 98a5 adbe ed0b 08bf 53f8 82bd 79aa 12bd
00000300: 37b8 97be 9d2e 8ebd a3e1 33bf 2033 8ebc
00000310: 1033 c6bd c955 38be 5f08 70be 4d0a a7be
00000320: 3bab 5abd ea3d 3ebc 6ef4 8dbe 9206 883d
00000330: 3380 0fbf d244 afbd 9b73 13bf ba51 bebd
00000340: b0d5 c4bd a551 d5be b66e 47bc d082 70be
00000350: b094 1fbf d47e 7abe 72ad 83be cd6f 28be
00000360: e654 f0be 3f5f 26bf de1f 20bf fc8d c6bd
00000370: baca 433d c6af b9bd 2def 76bd 312d 3bbc
00000380: 633f 0cbe 281d 83bc 4972 e43d 9912 1cbf
00000390: 18b2 753e db7c 3cbe 3159 69be 85be c9be
000003a0: 7948 dabc 3412 bebe 8759 9dbe 8b97 d3bd
000003b0: 545a 1dbe 39fb 35be b9b4 00be 95ac c7be
000003c0: 26ac 7c39 a4a3 26bf b147 6ebc 397d b7be
000003d0: 5f2b 7a3d 48cf 26be 8e5f 9bbd c87a ebbd
000003e0: 6465 6abe 1837 a5be 5426 00be 50aa 26bf
000003f0: dbe4 0cbe b90e b1be 8af8 42be 9540 213d

network.3.weight f4 [256, 256]
-0.07500764 -0.07958773 -0.014539355 -0.023152813 -0.024361152 -0.047091253 -0.050475918 -0.025375064
0.036039796 0.059290245 0.0118841715 0.002267192 0.016434908 -0.038147934 0.056104086 0.032797657
-0.055457927 0.020098984 0.061316453 0.022139266 0.005506225 -0.008296631 0.021083497 -0.017313518
-0.06513629 -0.04273656 0.015416227 -0.059597854 0.048731454 0.014160015 0.007639376 0.039997064
0.023928285 -0.04628218 0.047121853 0.006052248 -0.03223136 0.045226417 0.0064719096 -0.012435106
0.0005276948 0.006302476 0.0058034817 -0.03073561 0.053837776 0.013285391 -0.030505829 -0.05852966
0.028896285 -0.04220926 0.025071705 0.041038632 0.021815732 0.0451262 0.009426024 0.0025095204
-0.0096872 0.034562815 -0.001069359 0.04324113 0.0040941974 -0.046335414 -0.055047274 -0.054081418
0.037983444 -0.027153775 0.014354463 -0.040286113 0.04946164 0.032068253 0.05516135 -0.032514744
-0.03968022 -0.065487154 -0.03640901 0.043239266 0.025410857 -0.033446297 -0.07096072 -0.015148058
0.013046929 0.0197596 0.015850684 0.03831584 -0.008036309 0.04824412 -0.0055775805 0.02716627
-0.029421633 0.024604946 0.008974209 0.058676347 0.027346695 -0.021829039 -0.018964345 -0.03546053
0.027528308 -0.056005877 -0.027037896 0.021075867 0.00584881 -0.018401079 -0.036227837 -0.04743693
-0.006606063 0.051186785 -0.07551346 0.039088547 0.040712547 0.00094170345 -0.017837182 -0.0014678799
0.04704942 -0.06402098 0.055417947 -0.062283702 -0.034586135 -0.061820216 -0.06232497 0.016715117
0.061175346 0.0019238235 -0.06493109 -0.018005654 -0.02746707 -0.053024292 -0.03435963 -0.052379683
-0.05501874 -0.045426693 -0.031747688 -0.0330119 -0.07485867 0.009320541 3.963709e-06 0.031043278
0.0013125718 -0.032219127 -0.03313404 0.014511546 -0.039575253 -0.055051915 -0.047659196 -0.054391135
-0.044241883 -0.019386176 0.026686773 0.015753701 -0.018401574 0.02272768 0.012141117 -0.05843176
-0.011765713 -0.03136005 0.020329675 -0.02741675 -0.05956858 0.04640705 -0.06240749 -0.08052433
-0.01630602 0.052717246 0.0077898353 0.0035665154 0.012926865 0.019143023 0.057732582 0.0049751922
-0.051626608 -0.05729248 0.039253354 -0.024113122 0.021737901 -0.02811297 -0.0016490892 0.024582513
-0.0022913236 0.012896519 -0.05325228 -0.015502536 0.0016841394 0.009095983 -0.020663098 0.029563092
-0.050504483 -0.04460054 -0.053714193 0.014503188 0.0013604909 -0.06055697 -0.016395163 -0.06634503
0.05311381 -0.059901666 0.0495961 -0.03990586 0.020187395 0.030125804 -0.015433425 0.03274014
0.031792272 -0.014383218 -0.011830245 0.0197898 0.03995631 0.008800837 -0.03797146 -0.045616046
-0.017180655 -0.0453894 -0.054126203 -0.03963416 0.05632242 -0.057951383 0.01443507 0.029307654
-0.04666631 0.027578667 0.033403203 -0.029408382 0.031649068 -0.0042495388 -0.0033965462 -0.05981722
0.005997418 -0.0049976576 0.014252005 0.024137579 -0.04605769 -0.011502967 -0.037675258 -0.005046934
-0.046657924 -0.02079232 -0.044938058 0.033984467 -0.0014027958 -0.018996539 -0.024183199 -0.00884857
-0.07571925 -0.0039959177 -0.055254444 -0.05581885 0.021925643 -0.05841178 0.007987581 0.014176637
0.040184975 -0.04469712 -0.010059284 0.03330876 -0.06248678 -0.06880074 0.04298648 -0.04203863
00000000: 9b9d 99bd e4fe a2bd 7a36 6ebc f8aa bdbc
00000010: 0a91 c7bc c2e2 40bd d6bf 4ebd 5edf cfbc
00000020: 779e 133d 54da 723d d4b5 423c 2b95 143b
00000030: 80a2 863c 0241 1cbd 66cd 653d d656 063d
00000040: da27 63bd a0a6 a43c f626 7b3d 685d b53c
00000050: 906d b43b 98ee 07bc 4cb7 ac3c 14d5 8dbc
00000060: 2d66 85bd 880c 2fbd 5894 7c3c e11c 74bd
00000070: a29a 473d 68ff 673c bb53 fa3b f6d3 233d
00000080: 4005 c43c 6292 3dbd d802 413d f051 c63b
00000090: 0805 04bd 563f 393d 5012 d43b 9dbc 4bbc
000000a0: 0055 0a3a 0085 ce3b 222b be3b 3fc9 fbbc
000000b0: 0085 5c3d f8aa 593c 5ce7 f9bc ccbc 6fbd
000000c0: e7b7 ec3c 9ee3 2cbd 2d63 cd3c 2018 283d
000000d0: e8b6 b23c 40d6 383d 9c6f 1a3c c476 243b
000000e0: 10b7 1ebc bd91 0d3d bc29 8cba 9c1d 313d
000000f0: 9e28 863b 34ca 3dbd 4079 61bd 7a84 5dbd
00000100: 8794 1b3d 9871 debc fb2e 6b3c 0d03 25bd
00000110: 4a98 4a3d 005a 033d def0 613d 2e2e 05bd
00000120: ba87 22bd 211e 86bd 9d21 15bd a81b 313d
00000130: 6e2a d03c fcfe 08bd db53 91bd 8f2f 78bc
00000140: c9c2 553c e2de a13c 4bd9 813c 12f1 1c3d
00000150: b9aa 03bc a09b 453d 23c4 b6bb cc8b de3c
00000160: a305 f1bc 5090 c93c 9008 133c 9c56 703d
00000170: 2d06 e03c d0d2 b2bc 1d5b 9bbc 103f 11bd
00000180: 0c83 e13c 6b66 65bd 947e ddbc 4ca7 ac3c
00000190: 60a7 bf3b dcbd 96bc a463 14bd 3a4d 42bd
000001a0: ac77 d8bb 3ca9 513d cda6 9abd 501b 203d
000001b0: 33c2 263d a6dc 763a 481f 92bc e065 c0ba
000001c0: e5b6 403d 6e1d 83bd eefd 623d 321d 7fbd
000001d0: 31aa 0dbd 3237 7dbd 7848 7fbd 24ee 883c
000001e0: 0093 7a3d ce28 fc3a 97fa 84bd 9880 93bc
000001f0: 9f02 e1bc 0030 59bd afbc 0cbd 148c 56bd
00000200: 555b 61bd 5711 3abd dd09 02bd 7c37 07bd
00000210: 814f 99bd 2fb5 183c 0000 8536 794e fe3c
00000220: 9a0a ac3a 34f8 03bd 8fb7 07bd d6c1 6d3c
00000230: a919 22bd 1e7e 61bd 4a36 43bd 3dc9 5ebd
00000240: fa36 35bd c2cf 9ebc 389e da3c e80d 813c
00000250: e6be 96bc 662f ba3c 89eb 463c 2456 6fbd
00000260: fac4 40bc 6573 00bd 6b8a a63c 1899 e0bc
00000270: 2ffe 73bd 5215 3e3d ff9e 7fbd f1e9 a4bd
00000280: 3494 85bc 0aee 573d e041 ff3b 33bc 693b
00000290: 34cb 533c d4d1 9c3c 0079 6c3d f006 a33b
000002a0: 6c76 53bd 85ab 6abd 20c8 203d e288 c5bc
000002b0: af13 b23c 2c4d e6bc 4026 d8ba 4461 c93c
000002c0: 082a 16bb ec4b 533c 101f 5abd 59fe 7dbc
000002d0: 57be dc3a 5107 153c a845 a9bc 4c2e f23c
000002e0: cadd 4ebd 0eaf 36bd 6a03 5cbd c89e 6d3c
000002f0: 8052 b23a 960a 78bd 264f 86bc e7df 87bd
00000300: de8d 593d 735b 75bd 4825 4b3d 5474 23bd
00000310: 0960 a53c 64ca f63c 7adc 7cbc 861a 063d
00000320: 9d38 023d 97a7 6bbc a5d3 41bc 381e a23c
00000330: 3aa9 233d 6331 103c f687 1bbd e4d7 3abd
00000340: 72be 8cbc 3cea 39bd 70b3 5dbd 6e57 22bd
00000350: 56b2 663d 6e5e 6dbd 1281 6c3c 9b16 f03c
00000360: 2c25 3fbd a8ec e13c ccd1 083d d9e9 f0bc
00000370: 74a2 013d b73f 8bbb 9798 5ebb e702 75bd
00000380: fd85 c43b 64c3 a3bb 3e81 693c 2cbc c53c
00000390: fda6 3cbd f176 3cbc 5f51 1abd c060 a5bb
000003a0: 611c 3fbd a854 aabc f810 38bd 4c33 0b3d
000003b0: 04de b7ba a19e 9bbc d81b c6bc 98f9 10bc
000003c0: b212 9bbd 30f0 82bb 7c52 62bd 4ea2 64bd
000003d0: 689d b33c 3141 6fbd 58de 023c 2045 683c
000003e0: 0099 243d 5414 37bd b2cf 24bc c46e 083d
000003f0: 23f2 7fbd 67e7 8cbd 9712 303d b330 2cbd

network.3.bias f4 [256]
-0.069928735 -0.06291495 -0.05347293 -0.038859498 0.17308487 -0.036057014 -0.063315645 -0.077165514
-0.060317386 -0.013783829 -0.052989107 0.43043876 0.05669465 0.34749433 0.047813658 -0.054096818
0.059211526 0.124394655 0.101792164 -0.023723051 0.08450469 -0.012184917 0.07292124 0.13167968
-0.04107194 -0.052582398 0.24613506 -0.009335407 0.010484793 0.28910434 -0.012983352 0.029719125
0.33004218 0.10209458 0.10761577 -0.05827881 -0.15843377 0.09748886 -0.015179151 0.28154266
0.29416192 -0.092803635 -0.05276312 -0.008804842 -0.011250187 0.04072834 0.110318795 -0.011650563
0.13460703 -0.060016874 0.043547347 0.16610518 -0.0663682 0.06081479 0.12272481 0.06684628
-0.022784602 0.14803815 0.040348385 0.10517066 0.2993145 -0.052814066 0.33488402 0.056004178
0.030458752 0.19929405 0.30480394 0.032944214 -0.03810883 0.22987048 -0.011434571 -0.06163533
-0.05900689 0.25723866 -0.0050198524 0.1462584 0.08635019 0.06615593 0.21437083 0.07284518
0.057194773 0.23723003 0.088657044 0.4959565 -0.014939888 -0.032736912 -0.010061721 0.11853135
0.13545631 -0.03529776 -0.08113441 0.04272122 -0.013486695 0.044691157 0.09098182 0.07184409
0.12103749 -0.02593314 0.21934152 0.47957155 0.058026824 -0.07774919 -0.0322204 0.02040965
0.13112001 0.14834045 -0.058760773 -0.019589666 0.101665266 0.06547081 0.32376233 -0.072248004
0.13982409 -0.028164616 -0.039907854 0.38374034 0.15393981 0.052013405 0.28741765 0.293439
-0.0042016488 0.020089014 -0.032997068 0.082754724 -0.023463557 0.32227197 0.0710929 0.14680006
0.12915547 -0.059657082 0.03655609 -0.032846667 -0.05937421 0.15289624 0.031444546 -0.011975428
0.11387976 -0.016773492 -0.0059486637 0.13568506 0.3919254 0.21991612 -0.030418746 -0.027722426
0.053208947 -0.04121853 0.2888696 -0.03073702 -0.3603883 0.08304018 -0.010113365 0.42131045
-0.059443567 0.08816727 -0.04098171 0.17943402 0.1400505 0.028175097 0.10156829 -0.025791245
-0.033704024 -0.03570085 -0.045626074 -0.063547775 -0.0043109683 -0.024142768 -0.02754708 0.29733288
0.080356754 -0.0663858 -0.051610105 -0.03875777 -0.015594844 -0.027155379 -0.058222692 0.055050693
-0.056507785 0.18264528 -0.04587446 0.065677114 0.12037966 0.06365016 -0.026501525 0.048041746
-0.0063012284 -0.11617542 0.1294728 -0.062389895 0.30907765 0.06535148 0.34565216 0.16198903
0.06452569 0.13758282 0.15964666 0.14943749 0.06901814 -0.08183961 0.09256649 -0.02208078
0.011121755 0.12503788 0.028510826 0.23433815 -0.031161634 0.0870362 -0.031103691 -0.03290251
-0.051923305 0.21505922 0.041668724 -0.041405484 -0.016769795 0.33698288 -0.053278822 -0.056728788
-0.012597979 -0.023208117 0.28395972 -0.05245757 0.10416633 -0.019731518 0.27362716 -0.004541484
-0.0007577257 -0.0034899465 0.04741539 -0.048825033 0.086862795 -0.03390851 -0.01907738 -0.03379658
-0.033102013 -0.011271808 0.09823383 0.09101475 -0.0061659897 0.13004139 -0.059065465 0.014267521
-0.063318215 0.22943111 0.13544458 -0.038249742 -0.040760215 0.089878224 -0.03706371 0.4162516
0.21051446 0.24704927 -0.0017197247 0.30682185 0.42041135 -0.02329807 -0.033954512 0.22496666
00000000: cc36 8fbd 8ed9 80bd 6e06 5bbd 232b 1fbd
00000010: 293d 313e 85b0 13bd a2ab 81bd f408 9ebd
00000020: 5d0f 77bd 92d5 61bc 1b0b 59bd 7862 dc3e
00000030: a638 683d c7ea b13e 41d8 433d a094 5dbd
00000040: c987 723d a0c2 fe3d 6978 d03d d856 c2bc
00000050: cb10 ad3d 3fa3 47bc bb57 953d 0ad7 063e
00000060: 0d3b 28bd a460 57bd d40a 7c3e 89f3 18bc
00000070: 69c8 2b3c 7c05 943e 20b8 54bc 8675 f33c
00000080: 4afb a83e f716 d13d a865 dc3d c3b5 6ebd
00000090: 763c 22be 3da8 c73d f9b1 78bc 5c26 903e
000000a0: 649c 963e d50f bebd 241e 58bd 2f42 10bc
000000b0: b452 38bc c3d2 263d d2ee e13d 01e2 3ebc
000000c0: 6dd6 093e 41d4 75bd b45e 323d 7a17 2a3e
000000d0: 0dec 87bd ee18 793d 2557 fb3d b4e6 883d
000000e0: c6a6 babc 5097 173e 5944 253d b763 d73d
000000f0: c03f 993e 9053 58bd eb75 ab3e a364 653d
00000100: a284 f93c bd13 4c3e 430f 9c3e 83f0 063d
00000110: 0118 1cbd 2b63 6b3e 1158 3bbc 5475 7cbd
00000120: 35b1 71bd c9b4 833e 937d a4bb c3c4 153e
00000130: 5ed8 b03d c37c 873d 0784 5b3e db2f 953d
00000140: 1145 6a3d 6eec 723e d391 b53d 03ee fd3e
00000150: 6fc6 74bc 2417 06bd ebd9 24bc 90c0 f23d
00000160: 0fb5 0a3e 6294 10bd cc29 a6bd 72fc 2e3d
00000170: 4cf7 5cbc 130e 373d ad54 ba3d ff22 933d
00000180: 81e2 f73d bd71 d4bc 109b 603e 678a f53e
00000190: 89ad 6d3d f83a 9fbd 8af9 03bd 2332 a73c
000001a0: 5344 063e 8fe6 173e 23af 70bd 827a a0bc
000001b0: e135 d03d 8f15 863d 2dc4 a53e c3f6 93bd
000001c0: 0c2e 0f3e 7bb9 e6bc 6b76 23bd 9d79 c43e
000001d0: 66a2 1d3e 020c 553d 6828 933e a33d 963e
000001e0: fcad 89bb b791 a43c ef27 07bd 4f7b a93d
000001f0: a536 c0bc d500 a53e 2899 913d c152 163e
00000200: 5541 043e fc5a 74bd d7bb 153d 3a8a 06bd
00000210: 5f32 73bd d590 1c3e ffcb 003d 9634 44bc
00000220: cb39 e93d 9068 89bc 02ed c2bb 06f1 0a3e
00000230: 72aa c83e b131 613e bc30 f9bc 241a e3bc
00000240: a0f1 593d c3d4 28bd b7e6 933e 34cc fbbc
00000250: d184 b8be f810 aa3d 87b2 25bc 01b6 d73e
00000260: 197b 73bd 0b91 b43d 70dc 27bd 8dbd 373e
00000270: 6669 0f3e 76cf e63c 0903 d03d 2948 d3bc
00000280: 3b0d 0abd 0e3b 12bd 68e2 3abd 5625 82bd
00000290: 0643 8dbb 0ec7 c5bc 6aaa e1bc 043c 983e
000002a0: 1592 a43d 47f5 87bd 1e65 53bd 78c0 1ebd
000002b0: 8481 7fbc f574 debc eb7a 6ebd d67c 613d
000002c0: b574 67bd 5d07 3b3e dce6 3bbd b981 863d
000002d0: 9c89 f63d 045b 823d ba19 d9bc 6cc7 443d
000002e0: 897a cebb 61ed edbd 8594 043e 8c8c 7fbd
000002f0: 6d3f 9e3e ffd6 853d 52f9 b03e 74e0 253e
00000300: 0c26 843d 83e2 0c3e 6a7a 233e 2406 193e
00000310: 6259 8d3d 879b a7bd 8093 bd3d c0e2 b4bc
00000320: 0538 363c ee09 003e 898f e93c 57f6 6f3e
00000330: af46 ffbc 0940 b23d 2bcd febc c8c4 06bd
00000340: 88ad 54bd 7c38 5c3e d3ac 2a3d cc98 29bd
00000350: cf60 89bc 0589 ac3e e53a 5abd 725c 68bd
00000360: c167 4ebc f31e bebc 2b63 913e c0dd 56bd
00000370: 2855 d53d fea3 a1bc dc18 8c3e bbd0 94bb
00000380: 1ca2 46ba 96b7 64bb a436 423d c2fc 47bd
00000390: 1fe5 b13d a6e3 0abd 2a48 9cbc 486e 0abd
000003a0: fa95 07bd 64ad 38bc d12e c93d f165 ba3d
000003b0: 120c cabb 9229 053e a1ee 71bd 52c2 693c
000003c0: fbac 81bd fdef 6a3e fcb1 0a3e c3ab 1cbd
000003d0: 2ff4 26bd 1312 b83d 1ed0 17bd ee1e d53e
000003e0: 1a91 573e 7cfa 7c3e 6368 e1ba c117 9d3e
000003f0: 2840 d73e 98db bebc e313 0bbd a95d 663e

network.6.weight f4 [256, 256]
-0.018158248 0.0077368096 0.024193643 -0.028951388 -0.01225251 0.016081966 0.0105536105 -9.1874674e-05
0.03716223 0.010627758 -0.02144276 0.1225205 0.027833262 0.05479665 0.1270142 0.02265607
0.439765 0.0032516972 -0.054935575 0.008862511 0.35626602 0.0042968933 0.099079385 0.1952396
0.03603751 -0.028884264 0.10083978 -0.026301647 0.35198104 -0.0407122 0.035946123 0.3054381
-0.06967254 -0.0967823 -0.02261604 0.021792583 -0.16612151 0.089826226 -0.03131917 -0.04523854
-0.046405368 0.076007366 0.09150488 0.007464614 0.019021032 -0.50304437 0.13954118 -0.0050632465
-0.12861913 0.02405731 0.23062015 -0.09305691 -0.015394832 0.49172097 0.10540702 -0.0011555284
-0.058105547 0.038892686 0.8723355 0.00876856 -0.03342992 -0.0014163181 0.014329154 0.3608511
0.5936653 -0.022146443 0.0048688278 -0.05030915 0.06074647 0.04525635 0.060326274 -0.034842122
-0.015899329 0.10014708 0.022800231 0.14283058 0.3012025 0.32735598 -0.050841335 0.1484909
0.7193681 -0.059316594 -0.10061043 -0.015397219 -0.046779342 0.0034259697 0.056330368 0.124746606
0.092044525 -0.026350193 -0.05486074 0.067840114 0.00087462063 -0.020986864 0.091485925 0.10027296
0.029973838 0.030292818 0.10157351 0.09662281 0.17654334 -0.029569369 0.0060316944 0.20004244
0.20405757 0.14230797 0.050148334 0.04324214 0.029962225 -0.14357139 -0.059324052 0.002211906
-0.05491746 -0.03331083 -0.027444564 -0.009129229 -0.10856658 0.0069272984 0.09700713 0.0719738
0.0082897395 0.29391366 -0.050636362 0.5257045 1.2903559e-05 0.12778074 -0.039557613 -0.14986487
0.17168042 -0.021242255 0.63027126 -0.015333558 0.027042884 0.05734576 0.26322573 0.024372352
0.3402095 0.0074105305 0.056702014 0.073386416 -0.05751357 -0.04708799 0.031098142 0.024396142
0.03485147 -0.006518778 0.0039565614 0.08561395 -0.098108985 0.31056374 -0.025508432 0.103890814
-0.008187446 -0.041608427 0.027875539 -0.07336697 0.14080355 0.21303275 0.010796921 -0.07567911
-0.029164877 0.036944017 -0.03968642 0.0054312926 0.07067601 -0.03997349 -0.056291927 -0.06526268
0.011176153 -0.026653636 0.059733715 0.048520323 -0.030407783 -0.07838007 0.03228395 -0.060962953
0.04242259 0.05359006 0.041823495 -0.05631987 0.15889107 0.38772324 -0.03376294 0.62771463
0.0547732 0.062069725 0.037559286 0.021114334 0.06124154 -0.06366645 0.021320874 0.020490473
0.47993478 0.067731716 0.020198274 0.0073013855 0.06813861 -0.066739455 -0.05254937 -0.026689561
0.34277648 0.017162243 0.8025105 -0.025086392 -0.033085003 -0.06661038 -0.055803295 0.043248355
0.053484533 -0.052311905 0.7962067 0.004102917 0.027966823 0.059053812 -0.05170139 0.0037083924
0.054766435 -0.02877871 -0.022710193 -0.048762668 0.37730068 0.002824592 0.0020615184 -0.036015652
-0.0076788138 0.38288882 -0.05476443 0.026463667 0.046095755 -0.04534743 0.00681659 -0.046180505
-0.03349225 -0.017216576 0.15233666 0.050844543 -0.035784993 0.09276585 0.023570133 0.39107662
-0.040852267 0.07513323 -0.03808042 -0.05965648 -0.04416635 0.03528802 0.05087484 0.09054753
-0.036502246 0.033883315 -0.013828581 -0.04993903 0.13287747 0.005597598 0.06796962 -0.035377245
00000000: 9bc0 94bc 1085 fd3b bf31 c63c 762b edbc
00000010: c0be 48bc 54be 833c 0de9 2c3c d7ac c0b8
00000020: 6c37 183d 0c20 2e3c baa8 afbc 07ec fa3d
00000030: 9502 e43c 7472 603d 0310 023e 3999 b93c
00000040: e128 e13e 6d1a 553b 2004 61bd 1134 113c
00000050: 8068 b63e f4cc 8c3b 22ea ca3d e4ec 473e
00000060: 119c 133d b19e ecbc 1685 ce3d 8d76 d7bc
00000070: dc36 b43e d6c1 26bd 3e3c 133d 6262 9c3e
00000080: 7ab0 8ebd cc35 c6bd 4645 b9bc 5c86 b23c
00000090: c21b 2abe d0f6 b73d 8848 00bd 0c4c 39bd
000000a0: 8e13 3ebd c0a9 9b3d e966 bb3d b999 f43b
000000b0: ffd1 9b3c 84c7 00bf e2e3 0e3e 97e9 a5bb
000000c0: bcb4 03be d613 c53c b027 6c3e 9f94 bebd
000000d0: 9b3a 7cbc dac2 fb3e a3df d73d 1975 97ba
000000e0: 1500 6ebd f04d 1f3d 6151 5f3f 02aa 0f3c
000000f0: d0ed 08bd c0a3 b9ba d4c4 6a3c 7ac1 b83e
00000100: 73fa 173f 756c b5bc b08a 9f3b f810 4ebd
00000110: 4ad1 783d b95e 393d af18 773d 9db6 0ebd
00000120: 4f3f 82bc ea19 cd3d 8dc7 ba3c 2e42 123e
00000130: 3737 9a3e 349b a73e 013f 50bd 000e 183e
00000140: 8228 383f f5f5 72bd d70c cebd 9e44 7cbc
00000150: b29b 3fbd 3c86 603b acba 663d 267b ff3d
00000160: d781 bc3d 5cdc d7bc a8b5 60bd c2ef 8a3d
00000170: cc46 653a a5ec abbc f95c bb3d e95b cd3d
00000180: b28b f53c a528 f83c c605 d03d 2ee2 c53d
00000190: c7c7 343e 763b f2bc 85a5 c53b edd7 4c3e
000001a0: 78f4 503e 2eb9 113e 5768 4d3d ac1e 313d
000001b0: 5773 f53c 6104 13be c7fd 72bd a0f5 103b
000001c0: 21f1 60bd f070 08bd 6cd3 e0bc c392 15bc
000001d0: 2858 debd 64fe e23b adab c63d 0067 933d
000001e0: b0d1 073c da7b 963e 1368 4fbd 9294 063f
000001f0: 5d7c 5837 f4d8 023e 2a07 22bd 2d76 19be
00000200: fecc 2f3e 3d04 aebc 7559 213f 9b39 7bbc
00000210: 0a89 dd3c 63e3 6a3d 86c5 863e 87a8 c73c
00000220: f12f ae3e 09d4 f23b 5f40 683d 9e4b 963d
00000230: 5993 6bbd 56df 40bd 88c1 fe3c 6bda c73c
00000240: 6ac0 0e3d 799b d5bb 0ba6 813b 5e56 af3d
00000250: 5ded c8bd 3602 9f3e 0ff7 d0bc b5c4 d43d
00000260: a324 06bc 996d 2abd 3e5b e43c 6c41 96bd
00000270: ce2e 103e 4225 5a3e 92e5 303c a6fd 9abd
00000280: 2eeb eebc 9c52 173d 3a8e 22bd fcf8 b13b
00000290: 95be 903d 3ebb 23bd 5d92 66bd 71a8 85bd
000002a0: 2f1c 373c ba58 dabc 57ab 743d 3fbd 463d
000002b0: be19 f9bc bb85 a0bd 2d3c 043d 4ab4 79bd
000002c0: 4fc3 2d3d 4081 5b3d 1d4f 2b3d aaaf 66bd
000002d0: 57b4 223e a983 c63e 024b 0abd e8b1 203f
000002e0: dd59 603d d33c 7e3d c4d7 193d f8f7 ac3c
000002f0: 69d8 7a3d 8e63 82bd 1da9 ae3c a3db a73c
00000300: 03ba f53e edb6 8a3d da76 a53c 7640 ef3b
00000310: 418c 8b3d b2ae 88bd 023e 57bd 11a4 dabc
00000320: 6680 af3e d597 8c3c 5471 4d3f fa81 cdbc
00000330: 2484 07bd 066b 88bd ff91 64bd 3025 313d
00000340: 9912 5b3d 0245 56bd 34d4 4b3f c371 863b
00000350: ae1a e53c 69e2 713d d6c4 53bd 8008 733b
00000360: c552 603d 54c1 ebbc ba0a babc 5dbb 47bd
00000370: 8e2d c13e ca1c 393b 8a1a 073b 2685 13bd
00000380: 8f9e fbbb 010a c43e ab50 60bd 55ca d83c
00000390: e7ce 3c3d 3abe 39bd b45d df3b c527 3dbd
000003a0: 2b2f 09bd c709 8dbc 24fe 1b3e 5e42 503d
000003b0: 4993 12bd 06fc bd3d 2716 c13c 323b c83e
000003c0: b554 27bd 73df 993d 37fa 1bbd 5a5a 74bd
000003d0: c6e7 34bd 2c8a 103d 2362 503d fc70 b93d
000003e0: 6183 15bd 3bc9 0a3d 4691 62bc de8c 4cbd
000003f0: 0811 083e 0e6c b73b a833 8b3d bbe7 10bd

network.6.bias f4 [256]
0.76948035 -0.06441783 1.5120481 1.3661213 0.93056417 0.8114561 0.77571094 -0.052835707
0.76495206 1.5875158 -0.073279284 -0.20672075 0.85131234 1.1295668 0.7772318 0.86473805
-0.07912625 -0.07518668 0.9233887 0.74885195 1.0170666 0.0914293 0.8429654 1.5007236
-0.14436656 -0.08499561 0.76328707 0.7399039 0.6803638 0.20598578 0.9324134 0.8196151
0.7905571 0.76122594 0.83191806 1.492311 0.8000153 -0.06721824 1.619092 0.6051387
0.74988246 1.6214583 -0.07079734 0.88065714 0.117103636 -0.076273985 -0.049417734 0.77195066
0.99043566 1.1033349 0.7129469 0.7837792 0.8307458 0.82210016 -0.050514225 0.69695
0.8366005 0.3858713 0.8844937 0.7499362 0.36777133 0.8056352 1.6147099 0.79504645
-0.07575073 0.7708936 0.7451586 1.4582711 0.7848436 -0.024332033 0.6866893 1.6360934
-0.062468242 -0.17090195 0.8000553 1.6879587 -0.039683215 -0.0786664 0.79076624 -0.082108535
-0.07231567 0.64868987 1.4539009 1.9510885 0.6209763 1.4979572 -0.05022787 0.8529492
-0.07301033 -0.050367776 -0.026652804 0.8075132 0.7671799 -0.043084975 0.84091944 0.7772777
0.7625965 -0.03638514 -0.07697228 -0.08155742 -0.03880351 -0.051267415 -0.050129663 1.013521
0.7966618 0.15813471 0.10044097 1.605556 0.7742265 0.7398108 0.7167494 -0.06588297
-0.0746131 -0.0533801 -0.048449777 1.8757801 0.7860132 0.77185166 0.7395901 0.89376396
-0.06615057 0.76651037 0.81900513 -0.045737956 -0.07073751 0.7952807 -0.07034947 1.7537423
0.7376549 1.6731957 -0.07731442 -0.056429755 0.4322896 0.8102875 -0.084788375 0.83881617
-0.28278446 0.79844785 1.6826204 -0.029199928 0.8580312 1.6376144 0.8036122 0.7796129
0.78579545 0.6611524 1.3675131 0.7220349 0.79838675 1.7626457 0.8507871 -0.079998925
0.75387925 0.6440104 0.47094616 -0.061146352 -0.07558335 0.8341257 -0.060801275 -0.06276279
0.8172622 -0.06533914 0.7986014 1.3414149 1.7296586 1.0092417 0.5501635 1.7358636
-0.05035147 1.7849008 0.8466168 1.6408429 0.6737866 -0.08917538 0.46413592 -0.06562976
-0.06838812 -0.05037937 -0.04940604 0.73749113 1.5094633 0.6916831 -0.057929542 0.88411295
-0.037090648 -0.07444887 0.8394761 0.6459376 1.7558701 1.7926826 0.7417021 -0.03716761
0.923159 0.77969944 -0.072596274 0.8751328 0.7742507 -0.06594948 -0.05791474 -0.033231325
1.6624497 0.8553517 0.08739172 -0.007842159 -0.07034967 1.8952131 -0.0667774 0.81034756
-0.060457885 -0.06560818 0.8664619 0.83387685 0.85552925 1.4498798 -0.029165288 1.7978635
-0.08918779 0.7836445 0.8197614 0.73668575 -0.047171954 0.7210434 1.4342568 0.75227433
1.2725165 0.99095565 -0.018193733 1.4709798 0.66880584 1.3408523 -0.04363782 -0.0665593
0.8006691 -0.042836457 -0.064700425 0.10922711 0.78471494 1.8592594 -0.20036349 0.04535447
0.6298823 1.921757 -0.05775662 -0.047249343 0.78512186 1.4956919 -0.116770715 -0.07312888
0.84858525 -0.0654274 -0.063704565 -0.04441491 1.7768269 0.08315602 -0.06620674 -0.034511298
00000000: aafc 443f 7fed 83bd cb8a c13f 10dd ae3f
00000010: 7439 6e3f 96bb 4f3f fe94 463f 416a 58bd
00000020: e6d3 433f b833 cb3f 7313 96bd 9bae 53be
00000030: 9bef 593f a595 903f aaf8 463f 795f 5d3f
00000040: f20c a2bd 79fb 99bd 3463 6c3f c3b4 3f3f
00000050: 3d2f 823f 493f bb3d 95cc 573f b617 c03f
00000060: d4d4 13be 2e12 aebd c866 433f 586a 3d3f
00000070: 522c 2e3f f0ed 523e a5b2 6e3f 4cd2 513f
00000080: f361 4a3f b4df 423f 95f8 543f 0c04 bf3f
00000090: cdcd 4c3f b7a9 89bd 683e cf3f 5fea 1a3f
000000a0: 4cf8 3f3f f28b cf3f 32fe 90bd bf72 613f
000000b0: 08d4 ef3d 8935 9cbd 406a 4abd 8f9e 453f
000000c0: 318d 7d3f 143a 8d3f b083 363f c1a5 483f
000000d0: c2ab 543f 2875 523f 01e8 4ebd 516b 323f
000000e0: 732b 563f ec90 c53e 2e6e 623f d2fb 3f3f
000000f0: 864c bc3e 1c3e 4e3f d0ae ce3f 2a88 4b3f
00000100: 3323 9bbd 4859 453f b7c2 3e3f a1a8 ba3f
00000110: 83eb 483f f953 c7bc dfca 2f3f 826b d13f
00000120: b3de 7fbd ec00 2fbe 6dd0 4c3f 080f d83f
00000130: de8a 22bd d91b a1bd a86f 4a3f 8528 a8bd
00000140: 3d1a 94bd 8a10 263f 6d19 ba3f 45bd f93f
00000150: 4ef8 1e3f 10bd bf3f bdbb 4dbd e15a 5a3f
00000160: 7186 95bd 714e 4ebd fb56 dabc 2fb9 4e3f
00000170: e765 443f df79 30bd 7f46 573f acfb 463f
00000180: 8639 433f 9608 15bd a5a3 9dbd 9407 a7bd
00000190: 6ef0 1ebd c8fd 51bd c354 4dbd 0ebb 813f
000001a0: 07f2 4b3f 11ee 213e ffb3 cd3d dc82 cd3f
000001b0: b533 463f 3e64 3d3f e47c 373f a7ed 86bd
000001c0: c1ce 98bd 17a5 5abd 4673 46bd 9019 f03f
000001d0: 2938 493f 1298 453f c755 3d3f b7cd 643f
000001e0: f379 87bd 063a 443f 52aa 513f b957 3bbd
000001f0: d4de 90bd 8497 4b3f 6213 90bd a17a e03f
00000200: f4d6 3c3f 472b d63f 0657 9ebd e322 67bd
00000210: 1055 dd3e 006f 4f3f 87a5 adbd a8bc 563f
00000220: 20c9 90be 1467 4c3f 1b60 d73f b034 efbc
00000230: efa7 5b3f 599d d13f 87b9 4d3f b694 473f
00000240: e429 493f 4941 293f ab0a af3f 47d7 383f
00000250: 1363 4c3f 609e e13f 2fcd 593f 7ad6 a3bd
00000260: 3bfe 403f dedd 243f db1f f13e 9974 7abd
00000270: 72cb 9abd 4389 553f c20a 79bd c789 80bd
00000280: 1838 513f 87d0 85bd 2471 4c3f 7cb3 ab3f
00000290: 7465 dd3f d52e 813f 84d7 0c3f c730 de3f
000002a0: 583d 4ebd a177 e43f e1bb 583f 2407 d23f
000002b0: 477d 2c3f 95a1 b6bd 39a3 ed3e e568 86bd
000002c0: 120f 8cbd 995a 4ebd fd5d 4abd 38cc 3c3f
000002d0: 1836 c13f 2512 313f 8747 6dbd 3a55 623f
000002e0: 5dec 17bd a678 98bd e8e7 563f 2b5c 253f
000002f0: 5ac0 e03f a076 e53f 30e0 3d3f 103d 18bd
00000300: 2654 6c3f 629a 473f 5bad 94bd b408 603f
00000310: 4b35 463f 8510 87bd 0238 6dbd 921d 08bd
00000320: 27cb d43f 54f8 5a3f 6efa b23d 667c 00bc
00000330: 7d13 90bd 5896 f23f 97c2 88bd f072 4f3f
00000340: b0a2 77bd 955d 86bd 72d0 5d3f f478 553f
00000350: f703 5b3f a995 b93f 0bec eebc 6420 e63f
00000360: 17a8 b6bd ed9c 483f e2db 513f 7097 3c3f
00000370: 6137 41bd 4d96 383f ba95 b73f 0d95 403f
00000380: d2e1 a23f 45af 7d3f 060b 95bc 1149 bc3f
00000390: dc36 2b3f 0ca1 ab3f 92bd 32bd 3e50 88bd
000003a0: a6f8 4c3f 4875 2fbd a881 84bd 77b2 df3d
000003b0: 14e3 483f 36fc ed3f 162c 4dbe 9cc5 393d
000003c0: f73f 213f 22fc f53f 3592 6cbd 8788 41bd
000003d0: bffd 483f d572 bf3f 7c25 efbd 98c4 95bd
000003e0: e23c 593f cdfe 85bd 8a77 82bd 69ec 35bd
000003f0: 106f e33f b44d aa3d 6697 87bd b85b 0dbd

network.8.weight f4 [3, 256]
-0.8897921 0.009472162 1.3119977 0.77872574 -0.17547847 -0.043344226 -0.076272026 -0.0026396771
-0.17278254 0.98433745 0.010423571 0.7101317 -0.61041725 1.1123816 -0.12348924 -0.14672884
0.04189169 0.00770548 1.0429314 -0.06909919 1.0783863 0.05182815 -0.10788902 1.1999849
-0.3964864 -0.05722763 -0.037558097 -0.048701942 -0.14814778 0.48872864 -0.23218066 -0.04894186
-0.073026866 -0.05368336 -0.07835592 1.2494254 1.0628502 0.023472592 0.81084454 1.1680946
-0.0728505 0.98566693 -0.034906946 -0.1778085 0.5200316 0.044509575 0.12179452 -0.023762222
1.239677 -0.08714981 -0.12098879 -0.08071989 -0.97621787 -0.117399134 0.03499366 -0.024863835
-0.0451686 0.8548516 -0.17867252 -0.034527436 0.7805545 -0.23787755 1.3153669 -0.07360232
-0.036544375 -0.10526891 -0.022454837 0.8773158 -0.1037371 0.013767435 -0.15597415 1.0428737
-0.005821703 0.21323997 -0.054465372 1.2091962 -0.0038197825 0.023703996 -0.07676039 -0.008205839
0.00447474 -0.635185 0.39569297 1.6692331 0.5625467 1.053169 0.048322976 -0.06698991
-0.033889245 0.029175095 -0.008062459 -0.07625881 -0.067859754 0.029523497 -0.12984246 -0.03218782
-0.06516405 0.02988417 -0.033242065 -0.029812234 -0.002121176 0.037741903 0.021487541 1.751196
-0.11104844 0.51517385 0.92587954 0.9021687 -0.0633228 -0.07620148 -0.13474974 -0.001327103
-0.06727649 0.002902798 0.0068248883 1.82079 -0.14761797 -0.02120892 -0.047524486 -0.24775524
-0.020739362 -0.08480251 -0.0877757 0.030313091 -0.00667352 -0.2146309 -0.018865963 1.0315851
-0.03210066 1.7159883 0.013598899 -0.03484343 0.8167293 -0.111561105 0.023498416 -0.07643526
-0.2910139 -0.09266461 0.82836705 -0.061990038 -0.17251934 0.9800124 -0.18127866 -0.1892759
-0.01290778 -0.17117979 1.2631694 -0.14126289 -0.165226 1.924298 1.0797489 -0.03858306
-0.03614125 -0.14682895 0.6954932 0.016772399 -0.025486525 -0.107763894 0.00879641 0.0066320472
-0.06645857 0.005069279 -0.046582077 0.253825 1.7652947 1.0741192 1.0886112 1.0764982
0.00536048 2.187963 -0.08728697 1.5298077 -0.14198442 0.016731832 1.0850322 -0.027721953
0.004306222 -0.021814147 -0.01921783 -0.07077467 1.1207385 -0.09275506 0.014181289 -0.08549935
-0.01924479 -0.0405107 -0.700815 -1.0772858 1.7683122 0.9147953 -0.039959982 -0.014805363
1.1085005 -0.06450489 0.021993546 -0.16585067 -0.08973071 -0.059013613 0.008032569 -0.019292582
0.8445658 -0.20584522 0.10643849 -0.011438561 -0.034608893 2.2938266 -0.036301754 -0.038112484
0.020081118 0.027865151 -0.16730604 -0.054969102 -0.20416547 1.4225371 0.01263981 1.7563258
0.035227817 -0.6325914 -0.1708172 0.95028245 -0.013475273 -0.1268428 1.2891177 -0.04062991
1.9687092 1.0152054 -0.05692024 1.0125809 -0.70870185 0.20063244 0.030431919 0.008180694
-0.046747174 -0.014077732 -0.041688967 -1.4866307 -0.02685975 1.4576114 0.2316159 0.07548477
0.6603794 2.271602 0.045380402 -0.052071933 -0.047367543 1.0341944 1.2227404 0.013988786
-0.07670503 -0.022837384 -0.005933804 0.023886427 1.3494856 0.18890992 -0.020943876 0.030300807
00000000: 6ac9 63bf 2131 1b3c 8aef a73f 925a 473f
00000010: a1b0 33be b789 31bd 8234 9cbd 6ffe 2cbb
00000020: e8ed 30be 8afd 7b3f a0c7 2a3c 31cb 353f
00000030: 4e44 1cbf 8562 8e3f ede7 fcbd 1640 16be
00000040: 9f96 2b3d 407e fc3b c77e 853f e083 8dbd
00000050: 9008 8a3f c149 543d ebf4 dcbd 1b99 993f
00000060: 4400 cbbe 8567 6abd 85d6 19bd b07b 47bd
00000070: 0db4 17be a43a fa3e c4c0 6dbe 4377 48bd
00000080: 1c8f 95bd 15e3 5bbd 1279 a0bd 2ced 9f3f
00000090: 7a0b 883f 9849 c03c 8293 4f3f 2084 953f
000000a0: a532 95bd ab54 7c3f 96fa 0ebd 6e13 36be
000000b0: ca20 053f ac4f 363d 686f f93d fea8 c2bc
000000c0: bcad 9e3f 997b b2bd f9c8 f7bd 7850 a5bd
000000d0: 6ae9 79bf f56e f0bd 8355 0f3d 3eaf cbbc
000000e0: b602 39bd 8ed7 5a3f eef5 36be a46c 0dbd
000000f0: 6bd2 473f 2c96 73be f15d a83f d0bc 96bd
00000100: 8eaf 15bd 3a97 d7bd 35f3 b7bc c597 603f
00000110: 1e74 d4bd cf90 613c b0b7 1fbe e37c 853f
00000120: fcc3 bebb 945b 5a3e 1517 5fbd f1c6 9a3f
00000130: 5155 7abb e22e c23c 8d34 9dbd c971 06bc
00000140: d7a0 923b 7c9b 22bf 4598 ca3e 6ea9 d53f
00000150: 0f03 103f 3ece 863f 50ee 453d 0232 89bd
00000160: 73cf 0abd 9c00 ef3c 6718 04bc 942d 9cbd
00000170: 0efa 8abd 43db f13c 6cf5 04be 60d7 03bd
00000180: bb74 85bd a6cf f43c d528 08bd c938 f4bc
00000190: 6e03 0bbb 4197 1a3d a406 b03c 3127 e03f
000001a0: 5d6d e3bd 6fe2 033f 7106 6d3f 87f4 663f
000001b0: 62af 81bd 860f 9cbd d6fb 09be 30f2 adba
000001c0: 42c8 89bd de3c 3e3b 50a3 df3b a60f e93f
000001d0: 2a29 17be 54be adbc 09a9 42bd 8db3 7dbe
000001e0: 98e5 a9bc f0ac adbd bfc3 b3bd 2953 f83c
000001f0: 8bad dabb 34c8 5bbe cb8c 9abc fb0a 843f
00000200: fb7b 03bd 81a5 db3f ebcd 5e3c fcb7 0ebd
00000210: 2c15 513f 267a e4bd c07f c03c 178a 9cbd
00000220: c6ff 94be f1c6 bdbd dd0f 543f 44e9 7dbd
00000230: e9a8 30be 18e2 7a3f 1da1 39be 8bd1 41be
00000240: 277b 53bc c149 2fbe 89af a13f 38a7 10be
00000250: 0131 29be 664f f63f 3635 8a3f 4509 1ebd
00000260: d908 14bd 545a 16be d80b 323f 4566 893c
00000270: 1ec9 d0bc 51b3 dcbd d11e 103c a551 d93b
00000280: 6e1b 88bd 321c a63b d9cc 3ebd 5af5 813e
00000290: 2df5 e13f bd7c 893f 9d57 8b3f b1ca 893f
000002a0: f7a6 af3b 9607 0c40 83c3 b2bd bdd0 c33f
000002b0: 5d64 11be 3211 893c 56e2 8a3f 2619 e3bc
000002c0: 351b 8d3b 95b3 b2bc b66e 9dbc 4ff2 90bd
000002d0: 5c74 8f3f 5df6 bdbd a358 683c 491a afbd
000002e0: 40a7 9dbc 8cee 25bd 9d68 33bf 80e4 89bf
000002f0: 0e58 e23f 0630 6a3f 14ad 23bd 3192 72bc
00000300: 58e3 8d3f 241b 84bd cf2b b43c c2d4 29be
00000310: bcc4 b7bd 42b8 71bd 099b 033c 7a0b 9ebc
00000320: 7735 583f 17c9 52be 6cfc d93d cd68 3bbc
00000330: 0ec2 0dbd 0ece 1240 26b1 14bd d61b 1cbd
00000340: 2881 a43c 7545 e43c 4652 2bbe 4827 61bd
00000350: c110 51be b215 b63f 3517 4f3c 49cf e03f
00000360: 0b4b 103d 83f1 21bf b4ea 2ebe b645 733f
00000370: 64c7 5cbc 14e3 01be cf01 a53f 8c6b 26bd
00000380: aafe fb3f 40f2 813f 3325 69bd 409c 813f
00000390: 7c6d 35bf 9772 4d3e 5c4c f93c 5108 063c
000003a0: f779 3fbd 4aa6 66bc 0dc2 2abd ea49 bebf
000003b0: fa08 dcbc 0393 ba3f b82c 6d3e c297 9a3d
000003c0: a00e 293f ed61 1140 cde0 393d 6149 55bd
000003d0: 7804 42bd 7b60 843f c282 9c3f 3931 653c
000003e0: 8717 9dbd 7715 bbbc 5b70 c2bb 78ad c33c
000003f0: f2bb ac3f 9a71 413e 7e92 abbc 6639 f83c

network.8.bias f4 [3]
-0.83029294 -0.71716714 -0.58374465
00000000: 148e 54bf 4498 37bf 4a70 15bf
